{"format": "graph-model", "generatedBy": "2.15.0", "convertedBy": "TensorFlow.js Converter v4.21.0", "signature": {"outputs": {"Identity:0": {"name": "Identity:0"}}}, "modelTopology": {"node": [{"name": "ConstantFolding/model_109/tf.math.divide_4/truediv_recip", "op": "Const", "attr": {"dtype": {"type": "DT_FLOAT"}, "value": {"tensor": {"dtype": "DT_FLOAT", "tensorShape": {"dim": [{"size": "1"}, {"size": "1"}, {"size": "1"}]}}}}}, {"name": "model_109/74084", "op": "Const", "attr": {"dtype": {"type": "DT_FLOAT"}, "value": {"tensor": {"dtype": "DT_FLOAT", "tensorShape": {"dim": [{"size": "1"}, {"size": "2"}, {"size": "8400"}]}}}}}, {"name": "model_109/tf.strided_slice_99/ones_like/tensor", "op": "Const", "attr": {"value": {"tensor": {"dtype": "DT_INT64", "tensorShape": {"dim": [{"size": "3"}]}}}, "dtype": {"type": "DT_INT64"}}}, {"name": "model_109/tf.strided_slice_99/StridedSlice/end", "op": "Const", "attr": {"value": {"tensor": {"dtype": "DT_INT64", "tensorShape": {"dim": [{"size": "3"}]}}}, "dtype": {"type": "DT_INT64"}}}, {"name": "model_109/tf.strided_slice_99/ones_like", "op": "Const", "attr": {"value": {"tensor": {"dtype": "DT_INT64", "tensorShape": {"dim": [{"size": "3"}]}}}, "dtype": {"type": "DT_INT64"}}}, {"name": "model_109/74087", "op": "Const", "attr": {"value": {"tensor": {"dtype": "DT_FLOAT", "tensorShape": {"dim": [{"size": "1"}, {"size": "2"}, {"size": "8400"}]}}}, "dtype": {"type": "DT_FLOAT"}}}, {"name": "model_109/tf.strided_slice_96/StridedSlice/begin", "op": "Const", "attr": {"value": {"tensor": {"dtype": "DT_INT64", "tensorShape": {"dim": [{"size": "3"}]}}}, "dtype": {"type": "DT_INT64"}}}, {"name": "model_109/tf.strided_slice_96/StridedSlice/end", "op": "Const", "attr": {"value": {"tensor": {"dtype": "DT_INT64", "tensorShape": {"dim": [{"size": "3"}]}}}, "dtype": {"type": "DT_INT64"}}}, {"name": "model_109/tf.strided_slice_96/StridedSlice/strides", "op": "Const", "attr": {"value": {"tensor": {"dtype": "DT_INT64", "tensorShape": {"dim": [{"size": "3"}]}}}, "dtype": {"type": "DT_INT64"}}}, {"name": "model_109/tf.reshape_71/Reshape/shape", "op": "Const", "attr": {"dtype": {"type": "DT_INT32"}, "value": {"tensor": {"dtype": "DT_INT32", "tensorShape": {"dim": [{"size": "4"}]}}}}}, {"name": "model_109/tf.compat.v1.transpose_161/transpose/perm", "op": "Const", "attr": {"dtype": {"type": "DT_INT32"}, "value": {"tensor": {"dtype": "DT_INT32", "tensorShape": {"dim": [{"size": "4"}]}}}}}, {"name": "model_109/tf.compat.v1.transpose_162/transpose/perm", "op": "Const", "attr": {"value": {"tensor": {"dtype": "DT_INT32", "tensorShape": {"dim": [{"size": "4"}]}}}, "dtype": {"type": "DT_INT32"}}}, {"name": "model_109/tf.nn.convolution_339/convolution/filter", "op": "Const", "attr": {"dtype": {"type": "DT_FLOAT"}, "value": {"tensor": {"dtype": "DT_FLOAT", "tensorShape": {"dim": [{"size": "1"}, {"size": "1"}, {"size": "16"}, {"size": "1"}]}}}}}, {"name": "model_109/tf.compat.v1.transpose_167/transpose/perm", "op": "Const", "attr": {"dtype": {"type": "DT_INT32"}, "value": {"tensor": {"dtype": "DT_INT32", "tensorShape": {"dim": [{"size": "4"}]}}}}}, {"name": "model_109/tf.reshape_74/Reshape/shape", "op": "Const", "attr": {"dtype": {"type": "DT_INT32"}, "value": {"tensor": {"dtype": "DT_INT32", "tensorShape": {"dim": [{"size": "3"}]}}}}}, {"name": "model_109/tf.strided_slice_98/ones_like/tensor", "op": "Const", "attr": {"value": {"tensor": {"dtype": "DT_INT64", "tensorShape": {"dim": [{"size": "3"}]}}}, "dtype": {"type": "DT_INT64"}}}, {"name": "model_109/tf.strided_slice_98/StridedSlice/end", "op": "Const", "attr": {"dtype": {"type": "DT_INT64"}, "value": {"tensor": {"dtype": "DT_INT64", "tensorShape": {"dim": [{"size": "3"}]}}}}}, {"name": "model_109/tf.strided_slice_98/ones_like", "op": "Const", "attr": {"dtype": {"type": "DT_INT64"}, "value": {"tensor": {"dtype": "DT_INT64", "tensorShape": {"dim": [{"size": "3"}]}}}}}, {"name": "model_109/tf.concat_118/concat/axis", "op": "Const", "attr": {"dtype": {"type": "DT_INT32"}, "value": {"tensor": {"dtype": "DT_INT32", "tensorShape": {}}}}}, {"name": "model_109/tf.math.multiply_1264/Mul/y", "op": "Const", "attr": {"value": {"tensor": {"dtype": "DT_FLOAT", "tensorShape": {"dim": [{"size": "1"}, {"size": "1"}, {"size": "8400"}]}}}, "dtype": {"type": "DT_FLOAT"}}}, {"name": "model_109/tf.nn.convolution_308/convolution/filter", "op": "Const", "attr": {"value": {"tensor": {"dtype": "DT_FLOAT", "tensorShape": {"dim": [{"size": "3"}, {"size": "3"}, {"size": "64"}, {"size": "64"}]}}}, "dtype": {"type": "DT_FLOAT"}}}, {"name": "model_109/tf.math.add_372/Add/y", "op": "Const", "attr": {"dtype": {"type": "DT_FLOAT"}, "value": {"tensor": {"dtype": "DT_FLOAT", "tensorShape": {"dim": [{"size": "64"}]}}}}}, {"name": "model_109/tf.nn.convolution_310/convolution/filter", "op": "Const", "attr": {"dtype": {"type": "DT_FLOAT"}, "value": {"tensor": {"dtype": "DT_FLOAT", "tensorShape": {"dim": [{"size": "3"}, {"size": "3"}, {"size": "64"}, {"size": "64"}]}}}}}, {"name": "model_109/tf.math.add_374/Add/y", "op": "Const", "attr": {"dtype": {"type": "DT_FLOAT"}, "value": {"tensor": {"dtype": "DT_FLOAT", "tensorShape": {"dim": [{"size": "64"}]}}}}}, {"name": "model_109/tf.nn.convolution_315/convolution/filter", "op": "Const", "attr": {"dtype": {"type": "DT_FLOAT"}, "value": {"tensor": {"dtype": "DT_FLOAT", "tensorShape": {"dim": [{"size": "1"}, {"size": "1"}, {"size": "64"}, {"size": "64"}]}}}}}, {"name": "model_109/tf.math.add_379/Add/y", "op": "Const", "attr": {"value": {"tensor": {"dtype": "DT_FLOAT", "tensorShape": {"dim": [{"size": "64"}]}}}, "dtype": {"type": "DT_FLOAT"}}}, {"name": "model_109/tf.nn.convolution_309/convolution/filter", "op": "Const", "attr": {"value": {"tensor": {"dtype": "DT_FLOAT", "tensorShape": {"dim": [{"size": "3"}, {"size": "3"}, {"size": "64"}, {"size": "80"}]}}}, "dtype": {"type": "DT_FLOAT"}}}, {"name": "model_109/tf.math.add_373/Add/y", "op": "Const", "attr": {"dtype": {"type": "DT_FLOAT"}, "value": {"tensor": {"dtype": "DT_FLOAT", "tensorShape": {"dim": [{"size": "80"}]}}}}}, {"name": "model_109/tf.nn.convolution_313/convolution/filter", "op": "Const", "attr": {"value": {"tensor": {"dtype": "DT_FLOAT", "tensorShape": {"dim": [{"size": "3"}, {"size": "3"}, {"size": "80"}, {"size": "80"}]}}}, "dtype": {"type": "DT_FLOAT"}}}, {"name": "model_109/tf.math.add_377/Add/y", "op": "Const", "attr": {"dtype": {"type": "DT_FLOAT"}, "value": {"tensor": {"dtype": "DT_FLOAT", "tensorShape": {"dim": [{"size": "80"}]}}}}}, {"name": "model_109/tf.nn.convolution_318/convolution/filter", "op": "Const", "attr": {"dtype": {"type": "DT_FLOAT"}, "value": {"tensor": {"dtype": "DT_FLOAT", "tensorShape": {"dim": [{"size": "1"}, {"size": "1"}, {"size": "80"}, {"size": "80"}]}}}}}, {"name": "model_109/tf.math.add_382/Add/y", "op": "Const", "attr": {"value": {"tensor": {"dtype": "DT_FLOAT", "tensorShape": {"dim": [{"size": "80"}]}}}, "dtype": {"type": "DT_FLOAT"}}}, {"name": "model_109/tf.concat_108/concat/axis", "op": "Const", "attr": {"dtype": {"type": "DT_INT32"}, "value": {"tensor": {"dtype": "DT_INT32", "tensorShape": {}}}}}, {"name": "model_109/tf.compat.v1.transpose_144/transpose/perm", "op": "Const", "attr": {"value": {"tensor": {"dtype": "DT_INT32", "tensorShape": {"dim": [{"size": "4"}]}}}, "dtype": {"type": "DT_INT32"}}}, {"name": "model_109/tf.reshape_62/Reshape/shape", "op": "Const", "attr": {"value": {"tensor": {"dtype": "DT_INT32", "tensorShape": {"dim": [{"size": "3"}]}}}, "dtype": {"type": "DT_INT32"}}}, {"name": "model_109/tf.nn.convolution_323/convolution/filter", "op": "Const", "attr": {"value": {"tensor": {"dtype": "DT_FLOAT", "tensorShape": {"dim": [{"size": "3"}, {"size": "3"}, {"size": "128"}, {"size": "64"}]}}}, "dtype": {"type": "DT_FLOAT"}}}, {"name": "model_109/tf.math.add_387/Add/y", "op": "Const", "attr": {"dtype": {"type": "DT_FLOAT"}, "value": {"tensor": {"dtype": "DT_FLOAT", "tensorShape": {"dim": [{"size": "64"}]}}}}}, {"name": "model_109/tf.nn.convolution_325/convolution/filter", "op": "Const", "attr": {"value": {"tensor": {"dtype": "DT_FLOAT", "tensorShape": {"dim": [{"size": "3"}, {"size": "3"}, {"size": "64"}, {"size": "64"}]}}}, "dtype": {"type": "DT_FLOAT"}}}, {"name": "model_109/tf.math.add_389/Add/y", "op": "Const", "attr": {"dtype": {"type": "DT_FLOAT"}, "value": {"tensor": {"dtype": "DT_FLOAT", "tensorShape": {"dim": [{"size": "64"}]}}}}}, {"name": "model_109/tf.nn.convolution_328/convolution/filter", "op": "Const", "attr": {"value": {"tensor": {"dtype": "DT_FLOAT", "tensorShape": {"dim": [{"size": "1"}, {"size": "1"}, {"size": "64"}, {"size": "64"}]}}}, "dtype": {"type": "DT_FLOAT"}}}, {"name": "model_109/tf.math.add_392/Add/y", "op": "Const", "attr": {"dtype": {"type": "DT_FLOAT"}, "value": {"tensor": {"dtype": "DT_FLOAT", "tensorShape": {"dim": [{"size": "64"}]}}}}}, {"name": "model_109/tf.nn.convolution_324/convolution/filter", "op": "Const", "attr": {"dtype": {"type": "DT_FLOAT"}, "value": {"tensor": {"dtype": "DT_FLOAT", "tensorShape": {"dim": [{"size": "3"}, {"size": "3"}, {"size": "128"}, {"size": "80"}]}}}}}, {"name": "model_109/tf.math.add_388/Add/y", "op": "Const", "attr": {"value": {"tensor": {"dtype": "DT_FLOAT", "tensorShape": {"dim": [{"size": "80"}]}}}, "dtype": {"type": "DT_FLOAT"}}}, {"name": "model_109/tf.nn.convolution_326/convolution/filter", "op": "Const", "attr": {"dtype": {"type": "DT_FLOAT"}, "value": {"tensor": {"dtype": "DT_FLOAT", "tensorShape": {"dim": [{"size": "3"}, {"size": "3"}, {"size": "80"}, {"size": "80"}]}}}}}, {"name": "model_109/tf.math.add_390/Add/y", "op": "Const", "attr": {"value": {"tensor": {"dtype": "DT_FLOAT", "tensorShape": {"dim": [{"size": "80"}]}}}, "dtype": {"type": "DT_FLOAT"}}}, {"name": "model_109/tf.nn.convolution_329/convolution/filter", "op": "Const", "attr": {"dtype": {"type": "DT_FLOAT"}, "value": {"tensor": {"dtype": "DT_FLOAT", "tensorShape": {"dim": [{"size": "1"}, {"size": "1"}, {"size": "80"}, {"size": "80"}]}}}}}, {"name": "model_109/tf.math.add_393/Add/y", "op": "Const", "attr": {"value": {"tensor": {"dtype": "DT_FLOAT", "tensorShape": {"dim": [{"size": "80"}]}}}, "dtype": {"type": "DT_FLOAT"}}}, {"name": "model_109/tf.concat_111/concat/axis", "op": "Const", "attr": {"value": {"tensor": {"dtype": "DT_INT32", "tensorShape": {}}}, "dtype": {"type": "DT_INT32"}}}, {"name": "model_109/tf.compat.v1.transpose_149/transpose/perm", "op": "Const", "attr": {"value": {"tensor": {"dtype": "DT_INT32", "tensorShape": {"dim": [{"size": "4"}]}}}, "dtype": {"type": "DT_INT32"}}}, {"name": "model_109/tf.reshape_65/Reshape/shape", "op": "Const", "attr": {"dtype": {"type": "DT_INT32"}, "value": {"tensor": {"dtype": "DT_INT32", "tensorShape": {"dim": [{"size": "3"}]}}}}}, {"name": "model_109/tf.nn.convolution_333/convolution/filter", "op": "Const", "attr": {"dtype": {"type": "DT_FLOAT"}, "value": {"tensor": {"dtype": "DT_FLOAT", "tensorShape": {"dim": [{"size": "3"}, {"size": "3"}, {"size": "256"}, {"size": "64"}]}}}}}, {"name": "model_109/tf.math.add_397/Add/y", "op": "Const", "attr": {"value": {"tensor": {"dtype": "DT_FLOAT", "tensorShape": {"dim": [{"size": "64"}]}}}, "dtype": {"type": "DT_FLOAT"}}}, {"name": "model_109/tf.nn.convolution_335/convolution/filter", "op": "Const", "attr": {"dtype": {"type": "DT_FLOAT"}, "value": {"tensor": {"dtype": "DT_FLOAT", "tensorShape": {"dim": [{"size": "3"}, {"size": "3"}, {"size": "64"}, {"size": "64"}]}}}}}, {"name": "model_109/tf.math.add_399/Add/y", "op": "Const", "attr": {"value": {"tensor": {"dtype": "DT_FLOAT", "tensorShape": {"dim": [{"size": "64"}]}}}, "dtype": {"type": "DT_FLOAT"}}}, {"name": "model_109/tf.nn.convolution_337/convolution/filter", "op": "Const", "attr": {"dtype": {"type": "DT_FLOAT"}, "value": {"tensor": {"dtype": "DT_FLOAT", "tensorShape": {"dim": [{"size": "1"}, {"size": "1"}, {"size": "64"}, {"size": "64"}]}}}}}, {"name": "model_109/tf.math.add_401/Add/y", "op": "Const", "attr": {"value": {"tensor": {"dtype": "DT_FLOAT", "tensorShape": {"dim": [{"size": "64"}]}}}, "dtype": {"type": "DT_FLOAT"}}}, {"name": "model_109/tf.strided_slice_94/ones_like/tensor", "op": "Const", "attr": {"dtype": {"type": "DT_INT64"}, "value": {"tensor": {"dtype": "DT_INT64", "tensorShape": {"dim": [{"size": "4"}]}}}}}, {"name": "model_109/tf.strided_slice_94/StridedSlice/end", "op": "Const", "attr": {"value": {"tensor": {"dtype": "DT_INT64", "tensorShape": {"dim": [{"size": "4"}]}}}, "dtype": {"type": "DT_INT64"}}}, {"name": "model_109/tf.strided_slice_94/ones_like", "op": "Const", "attr": {"dtype": {"type": "DT_INT64"}, "value": {"tensor": {"dtype": "DT_INT64", "tensorShape": {"dim": [{"size": "4"}]}}}}}, {"name": "model_109/tf.strided_slice_92/ones_like/tensor", "op": "Const", "attr": {"dtype": {"type": "DT_INT64"}, "value": {"tensor": {"dtype": "DT_INT64", "tensorShape": {"dim": [{"size": "4"}]}}}}}, {"name": "model_109/tf.strided_slice_92/StridedSlice/end", "op": "Const", "attr": {"dtype": {"type": "DT_INT64"}, "value": {"tensor": {"dtype": "DT_INT64", "tensorShape": {"dim": [{"size": "4"}]}}}}}, {"name": "model_109/tf.strided_slice_92/ones_like", "op": "Const", "attr": {"value": {"tensor": {"dtype": "DT_INT64", "tensorShape": {"dim": [{"size": "4"}]}}}, "dtype": {"type": "DT_INT64"}}}, {"name": "model_109/tf.strided_slice_90/ones_like/tensor", "op": "Const", "attr": {"dtype": {"type": "DT_INT64"}, "value": {"tensor": {"dtype": "DT_INT64", "tensorShape": {"dim": [{"size": "4"}]}}}}}, {"name": "model_109/tf.strided_slice_90/StridedSlice/end", "op": "Const", "attr": {"value": {"tensor": {"dtype": "DT_INT64", "tensorShape": {"dim": [{"size": "4"}]}}}, "dtype": {"type": "DT_INT64"}}}, {"name": "model_109/tf.strided_slice_90/ones_like", "op": "Const", "attr": {"value": {"tensor": {"dtype": "DT_INT64", "tensorShape": {"dim": [{"size": "4"}]}}}, "dtype": {"type": "DT_INT64"}}}, {"name": "model_109/tf.image.resize_9/resize/size", "op": "Const", "attr": {"value": {"tensor": {"dtype": "DT_INT32", "tensorShape": {"dim": [{"size": "2"}]}}}, "dtype": {"type": "DT_INT32"}}}, {"name": "model_109/tf.concat_103/concat/axis", "op": "Const", "attr": {"value": {"tensor": {"dtype": "DT_INT32", "tensorShape": {}}}, "dtype": {"type": "DT_INT32"}}}, {"name": "model_109/tf.nn.convolution_303/convolution/filter", "op": "Const", "attr": {"dtype": {"type": "DT_FLOAT"}, "value": {"tensor": {"dtype": "DT_FLOAT", "tensorShape": {"dim": [{"size": "1"}, {"size": "1"}, {"size": "192"}, {"size": "64"}]}}}}}, {"name": "model_109/tf.math.add_367/Add/y", "op": "Const", "attr": {"dtype": {"type": "DT_FLOAT"}, "value": {"tensor": {"dtype": "DT_FLOAT", "tensorShape": {"dim": [{"size": "64"}]}}}}}, {"name": "model_109/tf.strided_slice_91/ones_like/tensor", "op": "Const", "attr": {"value": {"tensor": {"dtype": "DT_INT64", "tensorShape": {"dim": [{"size": "4"}]}}}, "dtype": {"type": "DT_INT64"}}}, {"name": "model_109/tf.strided_slice_91/StridedSlice/end", "op": "Const", "attr": {"value": {"tensor": {"dtype": "DT_INT64", "tensorShape": {"dim": [{"size": "4"}]}}}, "dtype": {"type": "DT_INT64"}}}, {"name": "model_109/tf.strided_slice_91/ones_like", "op": "Const", "attr": {"dtype": {"type": "DT_INT64"}, "value": {"tensor": {"dtype": "DT_INT64", "tensorShape": {"dim": [{"size": "4"}]}}}}}, {"name": "model_109/tf.nn.convolution_304/convolution/filter", "op": "Const", "attr": {"dtype": {"type": "DT_FLOAT"}, "value": {"tensor": {"dtype": "DT_FLOAT", "tensorShape": {"dim": [{"size": "3"}, {"size": "3"}, {"size": "32"}, {"size": "32"}]}}}}}, {"name": "model_109/tf.math.add_368/Add/y", "op": "Const", "attr": {"dtype": {"type": "DT_FLOAT"}, "value": {"tensor": {"dtype": "DT_FLOAT", "tensorShape": {"dim": [{"size": "32"}]}}}}}, {"name": "model_109/tf.nn.convolution_305/convolution/filter", "op": "Const", "attr": {"value": {"tensor": {"dtype": "DT_FLOAT", "tensorShape": {"dim": [{"size": "3"}, {"size": "3"}, {"size": "32"}, {"size": "32"}]}}}, "dtype": {"type": "DT_FLOAT"}}}, {"name": "model_109/tf.math.add_369/Add/y", "op": "Const", "attr": {"dtype": {"type": "DT_FLOAT"}, "value": {"tensor": {"dtype": "DT_FLOAT", "tensorShape": {"dim": [{"size": "32"}]}}}}}, {"name": "model_109/tf.concat_104/concat/axis", "op": "Const", "attr": {"value": {"tensor": {"dtype": "DT_INT32", "tensorShape": {}}}, "dtype": {"type": "DT_INT32"}}}, {"name": "model_109/tf.nn.convolution_306/convolution/filter", "op": "Const", "attr": {"dtype": {"type": "DT_FLOAT"}, "value": {"tensor": {"dtype": "DT_FLOAT", "tensorShape": {"dim": [{"size": "1"}, {"size": "1"}, {"size": "96"}, {"size": "64"}]}}}}}, {"name": "model_109/tf.math.add_370/Add/y", "op": "Const", "attr": {"value": {"tensor": {"dtype": "DT_FLOAT", "tensorShape": {"dim": [{"size": "64"}]}}}, "dtype": {"type": "DT_FLOAT"}}}, {"name": "model_109/tf.compat.v1.pad_33/Pad/paddings", "op": "Const", "attr": {"dtype": {"type": "DT_INT32"}, "value": {"tensor": {"dtype": "DT_INT32", "tensorShape": {"dim": [{"size": "4"}, {"size": "2"}]}}}}}, {"name": "model_109/tf.nn.convolution_307/convolution/filter", "op": "Const", "attr": {"dtype": {"type": "DT_FLOAT"}, "value": {"tensor": {"dtype": "DT_FLOAT", "tensorShape": {"dim": [{"size": "3"}, {"size": "3"}, {"size": "64"}, {"size": "64"}]}}}}}, {"name": "model_109/tf.math.add_371/Add/y", "op": "Const", "attr": {"value": {"tensor": {"dtype": "DT_FLOAT", "tensorShape": {"dim": [{"size": "64"}]}}}, "dtype": {"type": "DT_FLOAT"}}}, {"name": "model_109/tf.strided_slice_88/ones_like/tensor", "op": "Const", "attr": {"dtype": {"type": "DT_INT64"}, "value": {"tensor": {"dtype": "DT_INT64", "tensorShape": {"dim": [{"size": "4"}]}}}}}, {"name": "model_109/tf.strided_slice_88/StridedSlice/end", "op": "Const", "attr": {"dtype": {"type": "DT_INT64"}, "value": {"tensor": {"dtype": "DT_INT64", "tensorShape": {"dim": [{"size": "4"}]}}}}}, {"name": "model_109/tf.strided_slice_88/ones_like", "op": "Const", "attr": {"value": {"tensor": {"dtype": "DT_INT64", "tensorShape": {"dim": [{"size": "4"}]}}}, "dtype": {"type": "DT_INT64"}}}, {"name": "model_109/tf.image.resize_8/resize/size", "op": "Const", "attr": {"dtype": {"type": "DT_INT32"}, "value": {"tensor": {"dtype": "DT_INT32", "tensorShape": {"dim": [{"size": "2"}]}}}}}, {"name": "model_109/tf.concat_101/concat/axis", "op": "Const", "attr": {"dtype": {"type": "DT_INT32"}, "value": {"tensor": {"dtype": "DT_INT32", "tensorShape": {}}}}}, {"name": "model_109/tf.nn.convolution_299/convolution/filter", "op": "Const", "attr": {"value": {"tensor": {"dtype": "DT_FLOAT", "tensorShape": {"dim": [{"size": "1"}, {"size": "1"}, {"size": "384"}, {"size": "128"}]}}}, "dtype": {"type": "DT_FLOAT"}}}, {"name": "model_109/tf.math.add_363/Add/y", "op": "Const", "attr": {"dtype": {"type": "DT_FLOAT"}, "value": {"tensor": {"dtype": "DT_FLOAT", "tensorShape": {"dim": [{"size": "128"}]}}}}}, {"name": "model_109/tf.strided_slice_89/ones_like/tensor", "op": "Const", "attr": {"value": {"tensor": {"dtype": "DT_INT64", "tensorShape": {"dim": [{"size": "4"}]}}}, "dtype": {"type": "DT_INT64"}}}, {"name": "model_109/tf.strided_slice_89/StridedSlice/end", "op": "Const", "attr": {"dtype": {"type": "DT_INT64"}, "value": {"tensor": {"dtype": "DT_INT64", "tensorShape": {"dim": [{"size": "4"}]}}}}}, {"name": "model_109/tf.strided_slice_89/ones_like", "op": "Const", "attr": {"value": {"tensor": {"dtype": "DT_INT64", "tensorShape": {"dim": [{"size": "4"}]}}}, "dtype": {"type": "DT_INT64"}}}, {"name": "model_109/tf.nn.convolution_300/convolution/filter", "op": "Const", "attr": {"value": {"tensor": {"dtype": "DT_FLOAT", "tensorShape": {"dim": [{"size": "3"}, {"size": "3"}, {"size": "64"}, {"size": "64"}]}}}, "dtype": {"type": "DT_FLOAT"}}}, {"name": "model_109/tf.math.add_364/Add/y", "op": "Const", "attr": {"value": {"tensor": {"dtype": "DT_FLOAT", "tensorShape": {"dim": [{"size": "64"}]}}}, "dtype": {"type": "DT_FLOAT"}}}, {"name": "model_109/tf.nn.convolution_301/convolution/filter", "op": "Const", "attr": {"value": {"tensor": {"dtype": "DT_FLOAT", "tensorShape": {"dim": [{"size": "3"}, {"size": "3"}, {"size": "64"}, {"size": "64"}]}}}, "dtype": {"type": "DT_FLOAT"}}}, {"name": "model_109/tf.math.add_365/Add/y", "op": "Const", "attr": {"value": {"tensor": {"dtype": "DT_FLOAT", "tensorShape": {"dim": [{"size": "64"}]}}}, "dtype": {"type": "DT_FLOAT"}}}, {"name": "model_109/tf.concat_102/concat/axis", "op": "Const", "attr": {"value": {"tensor": {"dtype": "DT_INT32", "tensorShape": {}}}, "dtype": {"type": "DT_INT32"}}}, {"name": "model_109/tf.nn.convolution_302/convolution/filter", "op": "Const", "attr": {"dtype": {"type": "DT_FLOAT"}, "value": {"tensor": {"dtype": "DT_FLOAT", "tensorShape": {"dim": [{"size": "1"}, {"size": "1"}, {"size": "192"}, {"size": "128"}]}}}}}, {"name": "model_109/tf.math.add_366/Add/y", "op": "Const", "attr": {"dtype": {"type": "DT_FLOAT"}, "value": {"tensor": {"dtype": "DT_FLOAT", "tensorShape": {"dim": [{"size": "128"}]}}}}}, {"name": "model_109/tf.concat_105/concat/axis", "op": "Const", "attr": {"value": {"tensor": {"dtype": "DT_INT32", "tensorShape": {}}}, "dtype": {"type": "DT_INT32"}}}, {"name": "model_109/tf.nn.convolution_314/convolution/filter", "op": "Const", "attr": {"dtype": {"type": "DT_FLOAT"}, "value": {"tensor": {"dtype": "DT_FLOAT", "tensorShape": {"dim": [{"size": "1"}, {"size": "1"}, {"size": "192"}, {"size": "128"}]}}}}}, {"name": "model_109/tf.math.add_378/Add/y", "op": "Const", "attr": {"value": {"tensor": {"dtype": "DT_FLOAT", "tensorShape": {"dim": [{"size": "128"}]}}}, "dtype": {"type": "DT_FLOAT"}}}, {"name": "model_109/tf.strided_slice_93/ones_like/tensor", "op": "Const", "attr": {"value": {"tensor": {"dtype": "DT_INT64", "tensorShape": {"dim": [{"size": "4"}]}}}, "dtype": {"type": "DT_INT64"}}}, {"name": "model_109/tf.strided_slice_93/StridedSlice/end", "op": "Const", "attr": {"dtype": {"type": "DT_INT64"}, "value": {"tensor": {"dtype": "DT_INT64", "tensorShape": {"dim": [{"size": "4"}]}}}}}, {"name": "model_109/tf.strided_slice_93/ones_like", "op": "Const", "attr": {"value": {"tensor": {"dtype": "DT_INT64", "tensorShape": {"dim": [{"size": "4"}]}}}, "dtype": {"type": "DT_INT64"}}}, {"name": "model_109/tf.nn.convolution_319/convolution/filter", "op": "Const", "attr": {"dtype": {"type": "DT_FLOAT"}, "value": {"tensor": {"dtype": "DT_FLOAT", "tensorShape": {"dim": [{"size": "3"}, {"size": "3"}, {"size": "64"}, {"size": "64"}]}}}}}, {"name": "model_109/tf.math.add_383/Add/y", "op": "Const", "attr": {"value": {"tensor": {"dtype": "DT_FLOAT", "tensorShape": {"dim": [{"size": "64"}]}}}, "dtype": {"type": "DT_FLOAT"}}}, {"name": "model_109/tf.nn.convolution_320/convolution/filter", "op": "Const", "attr": {"value": {"tensor": {"dtype": "DT_FLOAT", "tensorShape": {"dim": [{"size": "3"}, {"size": "3"}, {"size": "64"}, {"size": "64"}]}}}, "dtype": {"type": "DT_FLOAT"}}}, {"name": "model_109/tf.math.add_384/Add/y", "op": "Const", "attr": {"value": {"tensor": {"dtype": "DT_FLOAT", "tensorShape": {"dim": [{"size": "64"}]}}}, "dtype": {"type": "DT_FLOAT"}}}, {"name": "model_109/tf.concat_109/concat/axis", "op": "Const", "attr": {"value": {"tensor": {"dtype": "DT_INT32", "tensorShape": {}}}, "dtype": {"type": "DT_INT32"}}}, {"name": "model_109/tf.nn.convolution_321/convolution/filter", "op": "Const", "attr": {"dtype": {"type": "DT_FLOAT"}, "value": {"tensor": {"dtype": "DT_FLOAT", "tensorShape": {"dim": [{"size": "1"}, {"size": "1"}, {"size": "192"}, {"size": "128"}]}}}}}, {"name": "model_109/tf.math.add_385/Add/y", "op": "Const", "attr": {"value": {"tensor": {"dtype": "DT_FLOAT", "tensorShape": {"dim": [{"size": "128"}]}}}, "dtype": {"type": "DT_FLOAT"}}}, {"name": "model_109/tf.compat.v1.pad_34/Pad/paddings", "op": "Const", "attr": {"value": {"tensor": {"dtype": "DT_INT32", "tensorShape": {"dim": [{"size": "4"}, {"size": "2"}]}}}, "dtype": {"type": "DT_INT32"}}}, {"name": "model_109/tf.nn.convolution_322/convolution/filter", "op": "Const", "attr": {"dtype": {"type": "DT_FLOAT"}, "value": {"tensor": {"dtype": "DT_FLOAT", "tensorShape": {"dim": [{"size": "3"}, {"size": "3"}, {"size": "128"}, {"size": "128"}]}}}}}, {"name": "model_109/tf.math.add_386/Add/y", "op": "Const", "attr": {"dtype": {"type": "DT_FLOAT"}, "value": {"tensor": {"dtype": "DT_FLOAT", "tensorShape": {"dim": [{"size": "128"}]}}}}}, {"name": "model_109/tf.strided_slice_86/ones_like/tensor", "op": "Const", "attr": {"value": {"tensor": {"dtype": "DT_INT64", "tensorShape": {"dim": [{"size": "4"}]}}}, "dtype": {"type": "DT_INT64"}}}, {"name": "model_109/tf.strided_slice_86/StridedSlice/end", "op": "Const", "attr": {"value": {"tensor": {"dtype": "DT_INT64", "tensorShape": {"dim": [{"size": "4"}]}}}, "dtype": {"type": "DT_INT64"}}}, {"name": "model_109/tf.strided_slice_86/ones_like", "op": "Const", "attr": {"value": {"tensor": {"dtype": "DT_INT64", "tensorShape": {"dim": [{"size": "4"}]}}}, "dtype": {"type": "DT_INT64"}}}, {"name": "model_109/tf.strided_slice_84/ones_like/tensor", "op": "Const", "attr": {"value": {"tensor": {"dtype": "DT_INT64", "tensorShape": {"dim": [{"size": "4"}]}}}, "dtype": {"type": "DT_INT64"}}}, {"name": "model_109/tf.strided_slice_84/StridedSlice/end", "op": "Const", "attr": {"value": {"tensor": {"dtype": "DT_INT64", "tensorShape": {"dim": [{"size": "4"}]}}}, "dtype": {"type": "DT_INT64"}}}, {"name": "model_109/tf.strided_slice_84/ones_like", "op": "Const", "attr": {"value": {"tensor": {"dtype": "DT_INT64", "tensorShape": {"dim": [{"size": "4"}]}}}, "dtype": {"type": "DT_INT64"}}}, {"name": "model_109/tf.strided_slice_82/ones_like/tensor", "op": "Const", "attr": {"value": {"tensor": {"dtype": "DT_INT64", "tensorShape": {"dim": [{"size": "4"}]}}}, "dtype": {"type": "DT_INT64"}}}, {"name": "model_109/tf.strided_slice_82/StridedSlice/end", "op": "Const", "attr": {"dtype": {"type": "DT_INT64"}, "value": {"tensor": {"dtype": "DT_INT64", "tensorShape": {"dim": [{"size": "4"}]}}}}}, {"name": "model_109/tf.strided_slice_82/ones_like", "op": "Const", "attr": {"value": {"tensor": {"dtype": "DT_INT64", "tensorShape": {"dim": [{"size": "4"}]}}}, "dtype": {"type": "DT_INT64"}}}, {"name": "model_109/tf.strided_slice_80/ones_like/tensor", "op": "Const", "attr": {"value": {"tensor": {"dtype": "DT_INT64", "tensorShape": {"dim": [{"size": "4"}]}}}, "dtype": {"type": "DT_INT64"}}}, {"name": "model_109/tf.strided_slice_80/StridedSlice/end", "op": "Const", "attr": {"value": {"tensor": {"dtype": "DT_INT64", "tensorShape": {"dim": [{"size": "4"}]}}}, "dtype": {"type": "DT_INT64"}}}, {"name": "model_109/tf.strided_slice_80/ones_like", "op": "Const", "attr": {"value": {"tensor": {"dtype": "DT_INT64", "tensorShape": {"dim": [{"size": "4"}]}}}, "dtype": {"type": "DT_INT64"}}}, {"name": "model_109/tf.compat.v1.pad_28/Pad/paddings", "op": "Const", "attr": {"dtype": {"type": "DT_INT32"}, "value": {"tensor": {"dtype": "DT_INT32", "tensorShape": {"dim": [{"size": "4"}, {"size": "2"}]}}}}}, {"name": "model_109/tf.nn.convolution_272/convolution/filter", "op": "Const", "attr": {"value": {"tensor": {"dtype": "DT_FLOAT", "tensorShape": {"dim": [{"size": "3"}, {"size": "3"}, {"size": "3"}, {"size": "16"}]}}}, "dtype": {"type": "DT_FLOAT"}}}, {"name": "model_109/tf.math.add_324/Add/y", "op": "Const", "attr": {"value": {"tensor": {"dtype": "DT_FLOAT", "tensorShape": {"dim": [{"size": "16"}]}}}, "dtype": {"type": "DT_FLOAT"}}}, {"name": "model_109/tf.compat.v1.pad_29/Pad/paddings", "op": "Const", "attr": {"value": {"tensor": {"dtype": "DT_INT32", "tensorShape": {"dim": [{"size": "4"}, {"size": "2"}]}}}, "dtype": {"type": "DT_INT32"}}}, {"name": "model_109/tf.nn.convolution_273/convolution/filter", "op": "Const", "attr": {"value": {"tensor": {"dtype": "DT_FLOAT", "tensorShape": {"dim": [{"size": "3"}, {"size": "3"}, {"size": "16"}, {"size": "32"}]}}}, "dtype": {"type": "DT_FLOAT"}}}, {"name": "model_109/tf.math.add_325/Add/y", "op": "Const", "attr": {"value": {"tensor": {"dtype": "DT_FLOAT", "tensorShape": {"dim": [{"size": "32"}]}}}, "dtype": {"type": "DT_FLOAT"}}}, {"name": "model_109/tf.nn.convolution_274/convolution/filter", "op": "Const", "attr": {"value": {"tensor": {"dtype": "DT_FLOAT", "tensorShape": {"dim": [{"size": "1"}, {"size": "1"}, {"size": "32"}, {"size": "32"}]}}}, "dtype": {"type": "DT_FLOAT"}}}, {"name": "model_109/tf.math.add_326/Add/y", "op": "Const", "attr": {"value": {"tensor": {"dtype": "DT_FLOAT", "tensorShape": {"dim": [{"size": "32"}]}}}, "dtype": {"type": "DT_FLOAT"}}}, {"name": "model_109/tf.strided_slice_81/ones_like/tensor", "op": "Const", "attr": {"value": {"tensor": {"dtype": "DT_INT64", "tensorShape": {"dim": [{"size": "4"}]}}}, "dtype": {"type": "DT_INT64"}}}, {"name": "model_109/tf.strided_slice_81/StridedSlice/end", "op": "Const", "attr": {"dtype": {"type": "DT_INT64"}, "value": {"tensor": {"dtype": "DT_INT64", "tensorShape": {"dim": [{"size": "4"}]}}}}}, {"name": "model_109/tf.strided_slice_81/ones_like", "op": "Const", "attr": {"dtype": {"type": "DT_INT64"}, "value": {"tensor": {"dtype": "DT_INT64", "tensorShape": {"dim": [{"size": "4"}]}}}}}, {"name": "model_109/tf.nn.convolution_275/convolution/filter", "op": "Const", "attr": {"dtype": {"type": "DT_FLOAT"}, "value": {"tensor": {"dtype": "DT_FLOAT", "tensorShape": {"dim": [{"size": "3"}, {"size": "3"}, {"size": "16"}, {"size": "16"}]}}}}}, {"name": "model_109/tf.math.add_327/Add/y", "op": "Const", "attr": {"dtype": {"type": "DT_FLOAT"}, "value": {"tensor": {"dtype": "DT_FLOAT", "tensorShape": {"dim": [{"size": "16"}]}}}}}, {"name": "model_109/tf.nn.convolution_276/convolution/filter", "op": "Const", "attr": {"dtype": {"type": "DT_FLOAT"}, "value": {"tensor": {"dtype": "DT_FLOAT", "tensorShape": {"dim": [{"size": "3"}, {"size": "3"}, {"size": "16"}, {"size": "16"}]}}}}}, {"name": "model_109/tf.math.add_328/Add/y", "op": "Const", "attr": {"dtype": {"type": "DT_FLOAT"}, "value": {"tensor": {"dtype": "DT_FLOAT", "tensorShape": {"dim": [{"size": "16"}]}}}}}, {"name": "model_109/tf.concat_96/concat/axis", "op": "Const", "attr": {"value": {"tensor": {"dtype": "DT_INT32", "tensorShape": {}}}, "dtype": {"type": "DT_INT32"}}}, {"name": "model_109/tf.nn.convolution_277/convolution/filter", "op": "Const", "attr": {"dtype": {"type": "DT_FLOAT"}, "value": {"tensor": {"dtype": "DT_FLOAT", "tensorShape": {"dim": [{"size": "1"}, {"size": "1"}, {"size": "48"}, {"size": "32"}]}}}}}, {"name": "model_109/tf.math.add_331/Add/y", "op": "Const", "attr": {"value": {"tensor": {"dtype": "DT_FLOAT", "tensorShape": {"dim": [{"size": "32"}]}}}, "dtype": {"type": "DT_FLOAT"}}}, {"name": "model_109/tf.compat.v1.pad_30/Pad/paddings", "op": "Const", "attr": {"value": {"tensor": {"dtype": "DT_INT32", "tensorShape": {"dim": [{"size": "4"}, {"size": "2"}]}}}, "dtype": {"type": "DT_INT32"}}}, {"name": "model_109/tf.nn.convolution_278/convolution/filter", "op": "Const", "attr": {"dtype": {"type": "DT_FLOAT"}, "value": {"tensor": {"dtype": "DT_FLOAT", "tensorShape": {"dim": [{"size": "3"}, {"size": "3"}, {"size": "32"}, {"size": "64"}]}}}}}, {"name": "model_109/tf.math.add_332/Add/y", "op": "Const", "attr": {"value": {"tensor": {"dtype": "DT_FLOAT", "tensorShape": {"dim": [{"size": "64"}]}}}, "dtype": {"type": "DT_FLOAT"}}}, {"name": "model_109/tf.nn.convolution_279/convolution/filter", "op": "Const", "attr": {"value": {"tensor": {"dtype": "DT_FLOAT", "tensorShape": {"dim": [{"size": "1"}, {"size": "1"}, {"size": "64"}, {"size": "64"}]}}}, "dtype": {"type": "DT_FLOAT"}}}, {"name": "model_109/tf.math.add_333/Add/y", "op": "Const", "attr": {"value": {"tensor": {"dtype": "DT_FLOAT", "tensorShape": {"dim": [{"size": "64"}]}}}, "dtype": {"type": "DT_FLOAT"}}}, {"name": "model_109/tf.strided_slice_83/ones_like/tensor", "op": "Const", "attr": {"value": {"tensor": {"dtype": "DT_INT64", "tensorShape": {"dim": [{"size": "4"}]}}}, "dtype": {"type": "DT_INT64"}}}, {"name": "model_109/tf.strided_slice_83/StridedSlice/end", "op": "Const", "attr": {"dtype": {"type": "DT_INT64"}, "value": {"tensor": {"dtype": "DT_INT64", "tensorShape": {"dim": [{"size": "4"}]}}}}}, {"name": "model_109/tf.strided_slice_83/ones_like", "op": "Const", "attr": {"dtype": {"type": "DT_INT64"}, "value": {"tensor": {"dtype": "DT_INT64", "tensorShape": {"dim": [{"size": "4"}]}}}}}, {"name": "model_109/tf.nn.convolution_280/convolution/filter", "op": "Const", "attr": {"value": {"tensor": {"dtype": "DT_FLOAT", "tensorShape": {"dim": [{"size": "3"}, {"size": "3"}, {"size": "32"}, {"size": "32"}]}}}, "dtype": {"type": "DT_FLOAT"}}}, {"name": "model_109/tf.math.add_334/Add/y", "op": "Const", "attr": {"value": {"tensor": {"dtype": "DT_FLOAT", "tensorShape": {"dim": [{"size": "32"}]}}}, "dtype": {"type": "DT_FLOAT"}}}, {"name": "model_109/tf.nn.convolution_281/convolution/filter", "op": "Const", "attr": {"dtype": {"type": "DT_FLOAT"}, "value": {"tensor": {"dtype": "DT_FLOAT", "tensorShape": {"dim": [{"size": "3"}, {"size": "3"}, {"size": "32"}, {"size": "32"}]}}}}}, {"name": "model_109/tf.math.add_335/Add/y", "op": "Const", "attr": {"value": {"tensor": {"dtype": "DT_FLOAT", "tensorShape": {"dim": [{"size": "32"}]}}}, "dtype": {"type": "DT_FLOAT"}}}, {"name": "model_109/tf.nn.convolution_282/convolution/filter", "op": "Const", "attr": {"dtype": {"type": "DT_FLOAT"}, "value": {"tensor": {"dtype": "DT_FLOAT", "tensorShape": {"dim": [{"size": "3"}, {"size": "3"}, {"size": "32"}, {"size": "32"}]}}}}}, {"name": "model_109/tf.math.add_338/Add/y", "op": "Const", "attr": {"dtype": {"type": "DT_FLOAT"}, "value": {"tensor": {"dtype": "DT_FLOAT", "tensorShape": {"dim": [{"size": "32"}]}}}}}, {"name": "model_109/tf.nn.convolution_283/convolution/filter", "op": "Const", "attr": {"value": {"tensor": {"dtype": "DT_FLOAT", "tensorShape": {"dim": [{"size": "3"}, {"size": "3"}, {"size": "32"}, {"size": "32"}]}}}, "dtype": {"type": "DT_FLOAT"}}}, {"name": "model_109/tf.math.add_339/Add/y", "op": "Const", "attr": {"dtype": {"type": "DT_FLOAT"}, "value": {"tensor": {"dtype": "DT_FLOAT", "tensorShape": {"dim": [{"size": "32"}]}}}}}, {"name": "model_109/tf.concat_97/concat/axis", "op": "Const", "attr": {"value": {"tensor": {"dtype": "DT_INT32", "tensorShape": {}}}, "dtype": {"type": "DT_INT32"}}}, {"name": "model_109/tf.nn.convolution_284/convolution/filter", "op": "Const", "attr": {"dtype": {"type": "DT_FLOAT"}, "value": {"tensor": {"dtype": "DT_FLOAT", "tensorShape": {"dim": [{"size": "1"}, {"size": "1"}, {"size": "128"}, {"size": "64"}]}}}}}, {"name": "model_109/tf.math.add_342/Add/y", "op": "Const", "attr": {"value": {"tensor": {"dtype": "DT_FLOAT", "tensorShape": {"dim": [{"size": "64"}]}}}, "dtype": {"type": "DT_FLOAT"}}}, {"name": "model_109/tf.compat.v1.pad_31/Pad/paddings", "op": "Const", "attr": {"value": {"tensor": {"dtype": "DT_INT32", "tensorShape": {"dim": [{"size": "4"}, {"size": "2"}]}}}, "dtype": {"type": "DT_INT32"}}}, {"name": "model_109/tf.nn.convolution_285/convolution/filter", "op": "Const", "attr": {"value": {"tensor": {"dtype": "DT_FLOAT", "tensorShape": {"dim": [{"size": "3"}, {"size": "3"}, {"size": "64"}, {"size": "128"}]}}}, "dtype": {"type": "DT_FLOAT"}}}, {"name": "model_109/tf.math.add_343/Add/y", "op": "Const", "attr": {"value": {"tensor": {"dtype": "DT_FLOAT", "tensorShape": {"dim": [{"size": "128"}]}}}, "dtype": {"type": "DT_FLOAT"}}}, {"name": "model_109/tf.nn.convolution_286/convolution/filter", "op": "Const", "attr": {"dtype": {"type": "DT_FLOAT"}, "value": {"tensor": {"dtype": "DT_FLOAT", "tensorShape": {"dim": [{"size": "1"}, {"size": "1"}, {"size": "128"}, {"size": "128"}]}}}}}, {"name": "model_109/tf.math.add_344/Add/y", "op": "Const", "attr": {"value": {"tensor": {"dtype": "DT_FLOAT", "tensorShape": {"dim": [{"size": "128"}]}}}, "dtype": {"type": "DT_FLOAT"}}}, {"name": "model_109/tf.strided_slice_85/ones_like/tensor", "op": "Const", "attr": {"value": {"tensor": {"dtype": "DT_INT64", "tensorShape": {"dim": [{"size": "4"}]}}}, "dtype": {"type": "DT_INT64"}}}, {"name": "model_109/tf.strided_slice_85/StridedSlice/end", "op": "Const", "attr": {"value": {"tensor": {"dtype": "DT_INT64", "tensorShape": {"dim": [{"size": "4"}]}}}, "dtype": {"type": "DT_INT64"}}}, {"name": "model_109/tf.strided_slice_85/ones_like", "op": "Const", "attr": {"value": {"tensor": {"dtype": "DT_INT64", "tensorShape": {"dim": [{"size": "4"}]}}}, "dtype": {"type": "DT_INT64"}}}, {"name": "model_109/tf.nn.convolution_287/convolution/filter", "op": "Const", "attr": {"value": {"tensor": {"dtype": "DT_FLOAT", "tensorShape": {"dim": [{"size": "3"}, {"size": "3"}, {"size": "64"}, {"size": "64"}]}}}, "dtype": {"type": "DT_FLOAT"}}}, {"name": "model_109/tf.math.add_345/Add/y", "op": "Const", "attr": {"value": {"tensor": {"dtype": "DT_FLOAT", "tensorShape": {"dim": [{"size": "64"}]}}}, "dtype": {"type": "DT_FLOAT"}}}, {"name": "model_109/tf.nn.convolution_288/convolution/filter", "op": "Const", "attr": {"dtype": {"type": "DT_FLOAT"}, "value": {"tensor": {"dtype": "DT_FLOAT", "tensorShape": {"dim": [{"size": "3"}, {"size": "3"}, {"size": "64"}, {"size": "64"}]}}}}}, {"name": "model_109/tf.math.add_346/Add/y", "op": "Const", "attr": {"dtype": {"type": "DT_FLOAT"}, "value": {"tensor": {"dtype": "DT_FLOAT", "tensorShape": {"dim": [{"size": "64"}]}}}}}, {"name": "model_109/tf.nn.convolution_289/convolution/filter", "op": "Const", "attr": {"dtype": {"type": "DT_FLOAT"}, "value": {"tensor": {"dtype": "DT_FLOAT", "tensorShape": {"dim": [{"size": "3"}, {"size": "3"}, {"size": "64"}, {"size": "64"}]}}}}}, {"name": "model_109/tf.math.add_349/Add/y", "op": "Const", "attr": {"value": {"tensor": {"dtype": "DT_FLOAT", "tensorShape": {"dim": [{"size": "64"}]}}}, "dtype": {"type": "DT_FLOAT"}}}, {"name": "model_109/tf.nn.convolution_290/convolution/filter", "op": "Const", "attr": {"value": {"tensor": {"dtype": "DT_FLOAT", "tensorShape": {"dim": [{"size": "3"}, {"size": "3"}, {"size": "64"}, {"size": "64"}]}}}, "dtype": {"type": "DT_FLOAT"}}}, {"name": "model_109/tf.math.add_350/Add/y", "op": "Const", "attr": {"value": {"tensor": {"dtype": "DT_FLOAT", "tensorShape": {"dim": [{"size": "64"}]}}}, "dtype": {"type": "DT_FLOAT"}}}, {"name": "model_109/tf.concat_98/concat/axis", "op": "Const", "attr": {"dtype": {"type": "DT_INT32"}, "value": {"tensor": {"dtype": "DT_INT32", "tensorShape": {}}}}}, {"name": "model_109/tf.nn.convolution_291/convolution/filter", "op": "Const", "attr": {"value": {"tensor": {"dtype": "DT_FLOAT", "tensorShape": {"dim": [{"size": "1"}, {"size": "1"}, {"size": "256"}, {"size": "128"}]}}}, "dtype": {"type": "DT_FLOAT"}}}, {"name": "model_109/tf.math.add_353/Add/y", "op": "Const", "attr": {"value": {"tensor": {"dtype": "DT_FLOAT", "tensorShape": {"dim": [{"size": "128"}]}}}, "dtype": {"type": "DT_FLOAT"}}}, {"name": "model_109/tf.compat.v1.pad_32/Pad/paddings", "op": "Const", "attr": {"value": {"tensor": {"dtype": "DT_INT32", "tensorShape": {"dim": [{"size": "4"}, {"size": "2"}]}}}, "dtype": {"type": "DT_INT32"}}}, {"name": "model_109/tf.nn.convolution_292/convolution/filter", "op": "Const", "attr": {"value": {"tensor": {"dtype": "DT_FLOAT", "tensorShape": {"dim": [{"size": "3"}, {"size": "3"}, {"size": "128"}, {"size": "256"}]}}}, "dtype": {"type": "DT_FLOAT"}}}, {"name": "model_109/tf.math.add_354/Add/y", "op": "Const", "attr": {"dtype": {"type": "DT_FLOAT"}, "value": {"tensor": {"dtype": "DT_FLOAT", "tensorShape": {"dim": [{"size": "256"}]}}}}}, {"name": "model_109/tf.nn.convolution_293/convolution/filter", "op": "Const", "attr": {"value": {"tensor": {"dtype": "DT_FLOAT", "tensorShape": {"dim": [{"size": "1"}, {"size": "1"}, {"size": "256"}, {"size": "256"}]}}}, "dtype": {"type": "DT_FLOAT"}}}, {"name": "model_109/tf.math.add_355/Add/y", "op": "Const", "attr": {"dtype": {"type": "DT_FLOAT"}, "value": {"tensor": {"dtype": "DT_FLOAT", "tensorShape": {"dim": [{"size": "256"}]}}}}}, {"name": "model_109/tf.strided_slice_87/ones_like/tensor", "op": "Const", "attr": {"dtype": {"type": "DT_INT64"}, "value": {"tensor": {"dtype": "DT_INT64", "tensorShape": {"dim": [{"size": "4"}]}}}}}, {"name": "model_109/tf.strided_slice_87/StridedSlice/end", "op": "Const", "attr": {"value": {"tensor": {"dtype": "DT_INT64", "tensorShape": {"dim": [{"size": "4"}]}}}, "dtype": {"type": "DT_INT64"}}}, {"name": "model_109/tf.strided_slice_87/ones_like", "op": "Const", "attr": {"value": {"tensor": {"dtype": "DT_INT64", "tensorShape": {"dim": [{"size": "4"}]}}}, "dtype": {"type": "DT_INT64"}}}, {"name": "model_109/tf.nn.convolution_294/convolution/filter", "op": "Const", "attr": {"value": {"tensor": {"dtype": "DT_FLOAT", "tensorShape": {"dim": [{"size": "3"}, {"size": "3"}, {"size": "128"}, {"size": "128"}]}}}, "dtype": {"type": "DT_FLOAT"}}}, {"name": "model_109/tf.math.add_356/Add/y", "op": "Const", "attr": {"value": {"tensor": {"dtype": "DT_FLOAT", "tensorShape": {"dim": [{"size": "128"}]}}}, "dtype": {"type": "DT_FLOAT"}}}, {"name": "model_109/tf.nn.convolution_295/convolution/filter", "op": "Const", "attr": {"value": {"tensor": {"dtype": "DT_FLOAT", "tensorShape": {"dim": [{"size": "3"}, {"size": "3"}, {"size": "128"}, {"size": "128"}]}}}, "dtype": {"type": "DT_FLOAT"}}}, {"name": "model_109/tf.math.add_357/Add/y", "op": "Const", "attr": {"dtype": {"type": "DT_FLOAT"}, "value": {"tensor": {"dtype": "DT_FLOAT", "tensorShape": {"dim": [{"size": "128"}]}}}}}, {"name": "model_109/tf.concat_99/concat/axis", "op": "Const", "attr": {"dtype": {"type": "DT_INT32"}, "value": {"tensor": {"dtype": "DT_INT32", "tensorShape": {}}}}}, {"name": "model_109/tf.nn.convolution_296/convolution/filter", "op": "Const", "attr": {"value": {"tensor": {"dtype": "DT_FLOAT", "tensorShape": {"dim": [{"size": "1"}, {"size": "1"}, {"size": "384"}, {"size": "256"}]}}}, "dtype": {"type": "DT_FLOAT"}}}, {"name": "model_109/tf.math.add_360/Add/y", "op": "Const", "attr": {"value": {"tensor": {"dtype": "DT_FLOAT", "tensorShape": {"dim": [{"size": "256"}]}}}, "dtype": {"type": "DT_FLOAT"}}}, {"name": "model_109/tf.nn.convolution_297/convolution/filter", "op": "Const", "attr": {"dtype": {"type": "DT_FLOAT"}, "value": {"tensor": {"dtype": "DT_FLOAT", "tensorShape": {"dim": [{"size": "1"}, {"size": "1"}, {"size": "256"}, {"size": "128"}]}}}}}, {"name": "model_109/tf.math.add_361/Add/y", "op": "Const", "attr": {"value": {"tensor": {"dtype": "DT_FLOAT", "tensorShape": {"dim": [{"size": "128"}]}}}, "dtype": {"type": "DT_FLOAT"}}}, {"name": "model_109/tf.concat_100/concat/axis", "op": "Const", "attr": {"value": {"tensor": {"dtype": "DT_INT32", "tensorShape": {}}}, "dtype": {"type": "DT_INT32"}}}, {"name": "model_109/tf.nn.convolution_298/convolution/filter", "op": "Const", "attr": {"dtype": {"type": "DT_FLOAT"}, "value": {"tensor": {"dtype": "DT_FLOAT", "tensorShape": {"dim": [{"size": "1"}, {"size": "1"}, {"size": "512"}, {"size": "256"}]}}}}}, {"name": "model_109/tf.math.add_362/Add/y", "op": "Const", "attr": {"value": {"tensor": {"dtype": "DT_FLOAT", "tensorShape": {"dim": [{"size": "256"}]}}}, "dtype": {"type": "DT_FLOAT"}}}, {"name": "model_109/tf.concat_110/concat/axis", "op": "Const", "attr": {"value": {"tensor": {"dtype": "DT_INT32", "tensorShape": {}}}, "dtype": {"type": "DT_INT32"}}}, {"name": "model_109/tf.nn.convolution_327/convolution/filter", "op": "Const", "attr": {"value": {"tensor": {"dtype": "DT_FLOAT", "tensorShape": {"dim": [{"size": "1"}, {"size": "1"}, {"size": "384"}, {"size": "256"}]}}}, "dtype": {"type": "DT_FLOAT"}}}, {"name": "model_109/tf.math.add_391/Add/y", "op": "Const", "attr": {"dtype": {"type": "DT_FLOAT"}, "value": {"tensor": {"dtype": "DT_FLOAT", "tensorShape": {"dim": [{"size": "256"}]}}}}}, {"name": "model_109/tf.strided_slice_95/ones_like/tensor", "op": "Const", "attr": {"dtype": {"type": "DT_INT64"}, "value": {"tensor": {"dtype": "DT_INT64", "tensorShape": {"dim": [{"size": "4"}]}}}}}, {"name": "model_109/tf.strided_slice_95/StridedSlice/end", "op": "Const", "attr": {"dtype": {"type": "DT_INT64"}, "value": {"tensor": {"dtype": "DT_INT64", "tensorShape": {"dim": [{"size": "4"}]}}}}}, {"name": "model_109/tf.strided_slice_95/ones_like", "op": "Const", "attr": {"value": {"tensor": {"dtype": "DT_INT64", "tensorShape": {"dim": [{"size": "4"}]}}}, "dtype": {"type": "DT_INT64"}}}, {"name": "model_109/tf.nn.convolution_330/convolution/filter", "op": "Const", "attr": {"dtype": {"type": "DT_FLOAT"}, "value": {"tensor": {"dtype": "DT_FLOAT", "tensorShape": {"dim": [{"size": "3"}, {"size": "3"}, {"size": "128"}, {"size": "128"}]}}}}}, {"name": "model_109/tf.math.add_394/Add/y", "op": "Const", "attr": {"value": {"tensor": {"dtype": "DT_FLOAT", "tensorShape": {"dim": [{"size": "128"}]}}}, "dtype": {"type": "DT_FLOAT"}}}, {"name": "model_109/tf.nn.convolution_331/convolution/filter", "op": "Const", "attr": {"dtype": {"type": "DT_FLOAT"}, "value": {"tensor": {"dtype": "DT_FLOAT", "tensorShape": {"dim": [{"size": "3"}, {"size": "3"}, {"size": "128"}, {"size": "128"}]}}}}}, {"name": "model_109/tf.math.add_395/Add/y", "op": "Const", "attr": {"dtype": {"type": "DT_FLOAT"}, "value": {"tensor": {"dtype": "DT_FLOAT", "tensorShape": {"dim": [{"size": "128"}]}}}}}, {"name": "model_109/tf.concat_112/concat/axis", "op": "Const", "attr": {"value": {"tensor": {"dtype": "DT_INT32", "tensorShape": {}}}, "dtype": {"type": "DT_INT32"}}}, {"name": "model_109/tf.nn.convolution_332/convolution/filter", "op": "Const", "attr": {"value": {"tensor": {"dtype": "DT_FLOAT", "tensorShape": {"dim": [{"size": "1"}, {"size": "1"}, {"size": "384"}, {"size": "256"}]}}}, "dtype": {"type": "DT_FLOAT"}}}, {"name": "model_109/tf.math.add_396/Add/y", "op": "Const", "attr": {"value": {"tensor": {"dtype": "DT_FLOAT", "tensorShape": {"dim": [{"size": "256"}]}}}, "dtype": {"type": "DT_FLOAT"}}}, {"name": "model_109/tf.nn.convolution_334/convolution/filter", "op": "Const", "attr": {"dtype": {"type": "DT_FLOAT"}, "value": {"tensor": {"dtype": "DT_FLOAT", "tensorShape": {"dim": [{"size": "3"}, {"size": "3"}, {"size": "256"}, {"size": "80"}]}}}}}, {"name": "model_109/tf.math.add_398/Add/y", "op": "Const", "attr": {"dtype": {"type": "DT_FLOAT"}, "value": {"tensor": {"dtype": "DT_FLOAT", "tensorShape": {"dim": [{"size": "80"}]}}}}}, {"name": "model_109/tf.nn.convolution_336/convolution/filter", "op": "Const", "attr": {"value": {"tensor": {"dtype": "DT_FLOAT", "tensorShape": {"dim": [{"size": "3"}, {"size": "3"}, {"size": "80"}, {"size": "80"}]}}}, "dtype": {"type": "DT_FLOAT"}}}, {"name": "model_109/tf.math.add_400/Add/y", "op": "Const", "attr": {"value": {"tensor": {"dtype": "DT_FLOAT", "tensorShape": {"dim": [{"size": "80"}]}}}, "dtype": {"type": "DT_FLOAT"}}}, {"name": "model_109/tf.nn.convolution_338/convolution/filter", "op": "Const", "attr": {"dtype": {"type": "DT_FLOAT"}, "value": {"tensor": {"dtype": "DT_FLOAT", "tensorShape": {"dim": [{"size": "1"}, {"size": "1"}, {"size": "80"}, {"size": "80"}]}}}}}, {"name": "model_109/tf.math.add_402/Add/y", "op": "Const", "attr": {"value": {"tensor": {"dtype": "DT_FLOAT", "tensorShape": {"dim": [{"size": "80"}]}}}, "dtype": {"type": "DT_FLOAT"}}}, {"name": "model_109/tf.concat_113/concat/axis", "op": "Const", "attr": {"value": {"tensor": {"dtype": "DT_INT32", "tensorShape": {}}}, "dtype": {"type": "DT_INT32"}}}, {"name": "model_109/tf.compat.v1.transpose_154/transpose/perm", "op": "Const", "attr": {"value": {"tensor": {"dtype": "DT_INT32", "tensorShape": {"dim": [{"size": "4"}]}}}, "dtype": {"type": "DT_INT32"}}}, {"name": "model_109/tf.reshape_68/Reshape/shape", "op": "Const", "attr": {"dtype": {"type": "DT_INT32"}, "value": {"tensor": {"dtype": "DT_INT32", "tensorShape": {"dim": [{"size": "3"}]}}}}}, {"name": "model_109/tf.concat_114/concat/axis", "op": "Const", "attr": {"value": {"tensor": {"dtype": "DT_INT32", "tensorShape": {}}}, "dtype": {"type": "DT_INT32"}}}, {"name": "model_109/tf.strided_slice_97/StridedSlice/begin", "op": "Const", "attr": {"dtype": {"type": "DT_INT64"}, "value": {"tensor": {"dtype": "DT_INT64", "tensorShape": {"dim": [{"size": "3"}]}}}}}, {"name": "model_109/tf.strided_slice_97/StridedSlice/end", "op": "Const", "attr": {"value": {"tensor": {"dtype": "DT_INT64", "tensorShape": {"dim": [{"size": "3"}]}}}, "dtype": {"type": "DT_INT64"}}}, {"name": "model_109/tf.strided_slice_97/StridedSlice/strides", "op": "Const", "attr": {"dtype": {"type": "DT_INT64"}, "value": {"tensor": {"dtype": "DT_INT64", "tensorShape": {"dim": [{"size": "3"}]}}}}}, {"name": "model_109/output0/concat/axis", "op": "Const", "attr": {"dtype": {"type": "DT_INT32"}, "value": {"tensor": {"dtype": "DT_INT32", "tensorShape": {}}}}}, {"name": "x", "op": "Placeholder", "attr": {"dtype": {"type": "DT_FLOAT"}, "shape": {"shape": {"dim": [{"size": "1"}, {"size": "640"}, {"size": "640"}, {"size": "3"}]}}}}, {"name": "model_109/tf.compat.v1.pad_28/Pad", "op": "Pad", "input": ["x", "model_109/tf.compat.v1.pad_28/Pad/paddings"], "attr": {"Tpaddings": {"type": "DT_INT32"}, "T": {"type": "DT_FLOAT"}}}, {"name": "model_109/tf.math.add_324/Add", "op": "_FusedConv2D", "input": ["model_109/tf.compat.v1.pad_28/Pad", "model_109/tf.nn.convolution_272/convolution/filter", "model_109/tf.math.add_324/Add/y"], "device": "/device:CPU:0", "attr": {"num_args": {"i": "1"}, "num_host_args": {"i": "0"}, "leakyrelu_alpha": {"f": 0.2}, "data_format": {"s": "TkhXQw=="}, "T": {"type": "DT_FLOAT"}, "padding": {"s": "VkFMSUQ="}, "TArgs": {"list": {"type": ["DT_FLOAT"]}}, "dilations": {"list": {"i": ["1", "1", "1", "1"]}}, "strides": {"list": {"i": ["1", "2", "2", "1"]}}, "explicit_paddings": {"list": {}}, "use_cudnn_on_gpu": {"b": true}, "epsilon": {"f": 0.0}, "filter_format": {"s": "SFdJTw=="}, "fused_ops": {"list": {"s": ["Qmlhc0FkZA=="]}}}}, {"name": "model_109/tf.math.sigmoid_232/Sigmoid", "op": "Sigmoid", "input": ["model_109/tf.math.add_324/Add"], "attr": {"T": {"type": "DT_FLOAT"}}}, {"name": "model_109/tf.math.multiply_1015/Mul", "op": "Mul", "input": ["model_109/tf.math.add_324/Add", "model_109/tf.math.sigmoid_232/Sigmoid"], "attr": {"T": {"type": "DT_FLOAT"}}}, {"name": "model_109/tf.compat.v1.pad_29/Pad", "op": "Pad", "input": ["model_109/tf.math.multiply_1015/Mul", "model_109/tf.compat.v1.pad_29/Pad/paddings"], "attr": {"Tpaddings": {"type": "DT_INT32"}, "T": {"type": "DT_FLOAT"}}}, {"name": "model_109/tf.math.add_325/Add", "op": "_FusedConv2D", "input": ["model_109/tf.compat.v1.pad_29/Pad", "model_109/tf.nn.convolution_273/convolution/filter", "model_109/tf.math.add_325/Add/y"], "device": "/device:CPU:0", "attr": {"epsilon": {"f": 0.0}, "num_args": {"i": "1"}, "fused_ops": {"list": {"s": ["Qmlhc0FkZA=="]}}, "padding": {"s": "VkFMSUQ="}, "use_cudnn_on_gpu": {"b": true}, "T": {"type": "DT_FLOAT"}, "strides": {"list": {"i": ["1", "2", "2", "1"]}}, "TArgs": {"list": {"type": ["DT_FLOAT"]}}, "dilations": {"list": {"i": ["1", "1", "1", "1"]}}, "leakyrelu_alpha": {"f": 0.2}, "num_host_args": {"i": "0"}, "explicit_paddings": {"list": {}}, "data_format": {"s": "TkhXQw=="}, "filter_format": {"s": "SFdJTw=="}}}, {"name": "model_109/tf.math.sigmoid_233/Sigmoid", "op": "Sigmoid", "input": ["model_109/tf.math.add_325/Add"], "attr": {"T": {"type": "DT_FLOAT"}}}, {"name": "model_109/tf.math.multiply_1019/Mul", "op": "Mul", "input": ["model_109/tf.math.add_325/Add", "model_109/tf.math.sigmoid_233/Sigmoid"], "attr": {"T": {"type": "DT_FLOAT"}}}, {"name": "model_109/tf.math.add_326/Add", "op": "_FusedConv2D", "input": ["model_109/tf.math.multiply_1019/Mul", "model_109/tf.nn.convolution_274/convolution/filter", "model_109/tf.math.add_326/Add/y"], "device": "/device:CPU:0", "attr": {"TArgs": {"list": {"type": ["DT_FLOAT"]}}, "epsilon": {"f": 0.0}, "data_format": {"s": "TkhXQw=="}, "explicit_paddings": {"list": {}}, "strides": {"list": {"i": ["1", "1", "1", "1"]}}, "fused_ops": {"list": {"s": ["Qmlhc0FkZA=="]}}, "padding": {"s": "U0FNRQ=="}, "num_host_args": {"i": "0"}, "num_args": {"i": "1"}, "leakyrelu_alpha": {"f": 0.2}, "T": {"type": "DT_FLOAT"}, "dilations": {"list": {"i": ["1", "1", "1", "1"]}}, "use_cudnn_on_gpu": {"b": true}, "filter_format": {"s": "SFdJTw=="}}}, {"name": "model_109/tf.math.sigmoid_234/Sigmoid", "op": "Sigmoid", "input": ["model_109/tf.math.add_326/Add"], "attr": {"T": {"type": "DT_FLOAT"}}}, {"name": "model_109/tf.math.multiply_1023/Mul", "op": "Mul", "input": ["model_109/tf.math.add_326/Add", "model_109/tf.math.sigmoid_234/Sigmoid"], "attr": {"T": {"type": "DT_FLOAT"}}}, {"name": "model_109/tf.strided_slice_80/StridedSlice", "op": "StridedSlice", "input": ["model_109/tf.math.multiply_1023/Mul", "model_109/tf.strided_slice_80/ones_like/tensor", "model_109/tf.strided_slice_80/StridedSlice/end", "model_109/tf.strided_slice_80/ones_like"], "attr": {"new_axis_mask": {"i": "0"}, "T": {"type": "DT_FLOAT"}, "Index": {"type": "DT_INT64"}, "end_mask": {"i": "7"}, "shrink_axis_mask": {"i": "0"}, "begin_mask": {"i": "15"}, "ellipsis_mask": {"i": "0"}}}, {"name": "model_109/tf.strided_slice_81/StridedSlice", "op": "StridedSlice", "input": ["model_109/tf.math.multiply_1023/Mul", "model_109/tf.strided_slice_81/ones_like/tensor", "model_109/tf.strided_slice_81/StridedSlice/end", "model_109/tf.strided_slice_81/ones_like"], "attr": {"new_axis_mask": {"i": "0"}, "T": {"type": "DT_FLOAT"}, "end_mask": {"i": "7"}, "shrink_axis_mask": {"i": "0"}, "Index": {"type": "DT_INT64"}, "begin_mask": {"i": "7"}, "ellipsis_mask": {"i": "0"}}}, {"name": "model_109/tf.math.add_327/Add", "op": "_FusedConv2D", "input": ["model_109/tf.strided_slice_81/StridedSlice", "model_109/tf.nn.convolution_275/convolution/filter", "model_109/tf.math.add_327/Add/y"], "device": "/device:CPU:0", "attr": {"T": {"type": "DT_FLOAT"}, "leakyrelu_alpha": {"f": 0.2}, "TArgs": {"list": {"type": ["DT_FLOAT"]}}, "num_args": {"i": "1"}, "data_format": {"s": "TkhXQw=="}, "filter_format": {"s": "SFdJTw=="}, "epsilon": {"f": 0.0}, "dilations": {"list": {"i": ["1", "1", "1", "1"]}}, "num_host_args": {"i": "0"}, "explicit_paddings": {"list": {}}, "padding": {"s": "U0FNRQ=="}, "use_cudnn_on_gpu": {"b": true}, "fused_ops": {"list": {"s": ["Qmlhc0FkZA=="]}}, "strides": {"list": {"i": ["1", "1", "1", "1"]}}}}, {"name": "model_109/tf.math.sigmoid_235/Sigmoid", "op": "Sigmoid", "input": ["model_109/tf.math.add_327/Add"], "attr": {"T": {"type": "DT_FLOAT"}}}, {"name": "model_109/tf.math.multiply_1027/Mul", "op": "Mul", "input": ["model_109/tf.math.add_327/Add", "model_109/tf.math.sigmoid_235/Sigmoid"], "attr": {"T": {"type": "DT_FLOAT"}}}, {"name": "model_109/tf.math.add_328/Add", "op": "_FusedConv2D", "input": ["model_109/tf.math.multiply_1027/Mul", "model_109/tf.nn.convolution_276/convolution/filter", "model_109/tf.math.add_328/Add/y"], "device": "/device:CPU:0", "attr": {"num_args": {"i": "1"}, "use_cudnn_on_gpu": {"b": true}, "filter_format": {"s": "SFdJTw=="}, "explicit_paddings": {"list": {}}, "data_format": {"s": "TkhXQw=="}, "strides": {"list": {"i": ["1", "1", "1", "1"]}}, "padding": {"s": "U0FNRQ=="}, "leakyrelu_alpha": {"f": 0.2}, "fused_ops": {"list": {"s": ["Qmlhc0FkZA=="]}}, "epsilon": {"f": 0.0}, "T": {"type": "DT_FLOAT"}, "num_host_args": {"i": "0"}, "dilations": {"list": {"i": ["1", "1", "1", "1"]}}, "TArgs": {"list": {"type": ["DT_FLOAT"]}}}}, {"name": "model_109/tf.math.sigmoid_236/Sigmoid", "op": "Sigmoid", "input": ["model_109/tf.math.add_328/Add"], "attr": {"T": {"type": "DT_FLOAT"}}}, {"name": "model_109/tf.math.multiply_1031/Mul", "op": "Mul", "input": ["model_109/tf.math.add_328/Add", "model_109/tf.math.sigmoid_236/Sigmoid"], "attr": {"T": {"type": "DT_FLOAT"}}}, {"name": "model_109/tf.math.add_330/Add", "op": "AddV2", "input": ["model_109/tf.strided_slice_81/StridedSlice", "model_109/tf.math.multiply_1031/Mul"], "attr": {"T": {"type": "DT_FLOAT"}}}, {"name": "model_109/tf.concat_96/concat", "op": "ConcatV2", "input": ["model_109/tf.strided_slice_80/StridedSlice", "model_109/tf.strided_slice_81/StridedSlice", "model_109/tf.math.add_330/Add", "model_109/tf.concat_96/concat/axis"], "attr": {"T": {"type": "DT_FLOAT"}, "N": {"i": "3"}, "Tidx": {"type": "DT_INT32"}}}, {"name": "model_109/tf.math.add_331/Add", "op": "_FusedConv2D", "input": ["model_109/tf.concat_96/concat", "model_109/tf.nn.convolution_277/convolution/filter", "model_109/tf.math.add_331/Add/y"], "device": "/device:CPU:0", "attr": {"padding": {"s": "U0FNRQ=="}, "T": {"type": "DT_FLOAT"}, "use_cudnn_on_gpu": {"b": true}, "filter_format": {"s": "SFdJTw=="}, "fused_ops": {"list": {"s": ["Qmlhc0FkZA=="]}}, "data_format": {"s": "TkhXQw=="}, "TArgs": {"list": {"type": ["DT_FLOAT"]}}, "leakyrelu_alpha": {"f": 0.2}, "explicit_paddings": {"list": {}}, "num_host_args": {"i": "0"}, "epsilon": {"f": 0.0}, "strides": {"list": {"i": ["1", "1", "1", "1"]}}, "dilations": {"list": {"i": ["1", "1", "1", "1"]}}, "num_args": {"i": "1"}}}, {"name": "model_109/tf.math.sigmoid_237/Sigmoid", "op": "Sigmoid", "input": ["model_109/tf.math.add_331/Add"], "attr": {"T": {"type": "DT_FLOAT"}}}, {"name": "model_109/tf.math.multiply_1037/Mul", "op": "Mul", "input": ["model_109/tf.math.add_331/Add", "model_109/tf.math.sigmoid_237/Sigmoid"], "attr": {"T": {"type": "DT_FLOAT"}}}, {"name": "model_109/tf.compat.v1.pad_30/Pad", "op": "Pad", "input": ["model_109/tf.math.multiply_1037/Mul", "model_109/tf.compat.v1.pad_30/Pad/paddings"], "attr": {"Tpaddings": {"type": "DT_INT32"}, "T": {"type": "DT_FLOAT"}}}, {"name": "model_109/tf.math.add_332/Add", "op": "_FusedConv2D", "input": ["model_109/tf.compat.v1.pad_30/Pad", "model_109/tf.nn.convolution_278/convolution/filter", "model_109/tf.math.add_332/Add/y"], "device": "/device:CPU:0", "attr": {"leakyrelu_alpha": {"f": 0.2}, "fused_ops": {"list": {"s": ["Qmlhc0FkZA=="]}}, "num_host_args": {"i": "0"}, "TArgs": {"list": {"type": ["DT_FLOAT"]}}, "padding": {"s": "VkFMSUQ="}, "epsilon": {"f": 0.0}, "dilations": {"list": {"i": ["1", "1", "1", "1"]}}, "strides": {"list": {"i": ["1", "2", "2", "1"]}}, "use_cudnn_on_gpu": {"b": true}, "data_format": {"s": "TkhXQw=="}, "explicit_paddings": {"list": {}}, "num_args": {"i": "1"}, "T": {"type": "DT_FLOAT"}, "filter_format": {"s": "SFdJTw=="}}}, {"name": "model_109/tf.math.sigmoid_238/Sigmoid", "op": "Sigmoid", "input": ["model_109/tf.math.add_332/Add"], "attr": {"T": {"type": "DT_FLOAT"}}}, {"name": "model_109/tf.math.multiply_1041/Mul", "op": "Mul", "input": ["model_109/tf.math.add_332/Add", "model_109/tf.math.sigmoid_238/Sigmoid"], "attr": {"T": {"type": "DT_FLOAT"}}}, {"name": "model_109/tf.math.add_333/Add", "op": "_FusedConv2D", "input": ["model_109/tf.math.multiply_1041/Mul", "model_109/tf.nn.convolution_279/convolution/filter", "model_109/tf.math.add_333/Add/y"], "device": "/device:CPU:0", "attr": {"epsilon": {"f": 0.0}, "num_host_args": {"i": "0"}, "data_format": {"s": "TkhXQw=="}, "num_args": {"i": "1"}, "dilations": {"list": {"i": ["1", "1", "1", "1"]}}, "T": {"type": "DT_FLOAT"}, "strides": {"list": {"i": ["1", "1", "1", "1"]}}, "leakyrelu_alpha": {"f": 0.2}, "padding": {"s": "U0FNRQ=="}, "TArgs": {"list": {"type": ["DT_FLOAT"]}}, "use_cudnn_on_gpu": {"b": true}, "explicit_paddings": {"list": {}}, "filter_format": {"s": "SFdJTw=="}, "fused_ops": {"list": {"s": ["Qmlhc0FkZA=="]}}}}, {"name": "model_109/tf.math.sigmoid_239/Sigmoid", "op": "Sigmoid", "input": ["model_109/tf.math.add_333/Add"], "attr": {"T": {"type": "DT_FLOAT"}}}, {"name": "model_109/tf.math.multiply_1045/Mul", "op": "Mul", "input": ["model_109/tf.math.add_333/Add", "model_109/tf.math.sigmoid_239/Sigmoid"], "attr": {"T": {"type": "DT_FLOAT"}}}, {"name": "model_109/tf.strided_slice_82/StridedSlice", "op": "StridedSlice", "input": ["model_109/tf.math.multiply_1045/Mul", "model_109/tf.strided_slice_82/ones_like/tensor", "model_109/tf.strided_slice_82/StridedSlice/end", "model_109/tf.strided_slice_82/ones_like"], "attr": {"shrink_axis_mask": {"i": "0"}, "new_axis_mask": {"i": "0"}, "begin_mask": {"i": "15"}, "Index": {"type": "DT_INT64"}, "end_mask": {"i": "7"}, "T": {"type": "DT_FLOAT"}, "ellipsis_mask": {"i": "0"}}}, {"name": "model_109/tf.strided_slice_83/StridedSlice", "op": "StridedSlice", "input": ["model_109/tf.math.multiply_1045/Mul", "model_109/tf.strided_slice_83/ones_like/tensor", "model_109/tf.strided_slice_83/StridedSlice/end", "model_109/tf.strided_slice_83/ones_like"], "attr": {"ellipsis_mask": {"i": "0"}, "T": {"type": "DT_FLOAT"}, "shrink_axis_mask": {"i": "0"}, "Index": {"type": "DT_INT64"}, "begin_mask": {"i": "7"}, "end_mask": {"i": "7"}, "new_axis_mask": {"i": "0"}}}, {"name": "model_109/tf.math.add_334/Add", "op": "_FusedConv2D", "input": ["model_109/tf.strided_slice_83/StridedSlice", "model_109/tf.nn.convolution_280/convolution/filter", "model_109/tf.math.add_334/Add/y"], "device": "/device:CPU:0", "attr": {"epsilon": {"f": 0.0}, "T": {"type": "DT_FLOAT"}, "filter_format": {"s": "SFdJTw=="}, "strides": {"list": {"i": ["1", "1", "1", "1"]}}, "dilations": {"list": {"i": ["1", "1", "1", "1"]}}, "padding": {"s": "U0FNRQ=="}, "num_host_args": {"i": "0"}, "fused_ops": {"list": {"s": ["Qmlhc0FkZA=="]}}, "explicit_paddings": {"list": {}}, "leakyrelu_alpha": {"f": 0.2}, "data_format": {"s": "TkhXQw=="}, "num_args": {"i": "1"}, "TArgs": {"list": {"type": ["DT_FLOAT"]}}, "use_cudnn_on_gpu": {"b": true}}}, {"name": "model_109/tf.math.sigmoid_240/Sigmoid", "op": "Sigmoid", "input": ["model_109/tf.math.add_334/Add"], "attr": {"T": {"type": "DT_FLOAT"}}}, {"name": "model_109/tf.math.multiply_1049/Mul", "op": "Mul", "input": ["model_109/tf.math.add_334/Add", "model_109/tf.math.sigmoid_240/Sigmoid"], "attr": {"T": {"type": "DT_FLOAT"}}}, {"name": "model_109/tf.math.add_335/Add", "op": "_FusedConv2D", "input": ["model_109/tf.math.multiply_1049/Mul", "model_109/tf.nn.convolution_281/convolution/filter", "model_109/tf.math.add_335/Add/y"], "device": "/device:CPU:0", "attr": {"explicit_paddings": {"list": {}}, "T": {"type": "DT_FLOAT"}, "leakyrelu_alpha": {"f": 0.2}, "padding": {"s": "U0FNRQ=="}, "dilations": {"list": {"i": ["1", "1", "1", "1"]}}, "num_host_args": {"i": "0"}, "epsilon": {"f": 0.0}, "use_cudnn_on_gpu": {"b": true}, "TArgs": {"list": {"type": ["DT_FLOAT"]}}, "filter_format": {"s": "SFdJTw=="}, "fused_ops": {"list": {"s": ["Qmlhc0FkZA=="]}}, "strides": {"list": {"i": ["1", "1", "1", "1"]}}, "data_format": {"s": "TkhXQw=="}, "num_args": {"i": "1"}}}, {"name": "model_109/tf.math.sigmoid_241/Sigmoid", "op": "Sigmoid", "input": ["model_109/tf.math.add_335/Add"], "attr": {"T": {"type": "DT_FLOAT"}}}, {"name": "model_109/tf.math.multiply_1053/Mul", "op": "Mul", "input": ["model_109/tf.math.add_335/Add", "model_109/tf.math.sigmoid_241/Sigmoid"], "attr": {"T": {"type": "DT_FLOAT"}}}, {"name": "model_109/tf.math.add_337/Add", "op": "AddV2", "input": ["model_109/tf.strided_slice_83/StridedSlice", "model_109/tf.math.multiply_1053/Mul"], "attr": {"T": {"type": "DT_FLOAT"}}}, {"name": "model_109/tf.math.add_338/Add", "op": "_FusedConv2D", "input": ["model_109/tf.math.add_337/Add", "model_109/tf.nn.convolution_282/convolution/filter", "model_109/tf.math.add_338/Add/y"], "device": "/device:CPU:0", "attr": {"fused_ops": {"list": {"s": ["Qmlhc0FkZA=="]}}, "strides": {"list": {"i": ["1", "1", "1", "1"]}}, "filter_format": {"s": "SFdJTw=="}, "use_cudnn_on_gpu": {"b": true}, "padding": {"s": "U0FNRQ=="}, "TArgs": {"list": {"type": ["DT_FLOAT"]}}, "num_host_args": {"i": "0"}, "epsilon": {"f": 0.0}, "dilations": {"list": {"i": ["1", "1", "1", "1"]}}, "T": {"type": "DT_FLOAT"}, "data_format": {"s": "TkhXQw=="}, "explicit_paddings": {"list": {}}, "leakyrelu_alpha": {"f": 0.2}, "num_args": {"i": "1"}}}, {"name": "model_109/tf.math.sigmoid_242/Sigmoid", "op": "Sigmoid", "input": ["model_109/tf.math.add_338/Add"], "attr": {"T": {"type": "DT_FLOAT"}}}, {"name": "model_109/tf.math.multiply_1059/Mul", "op": "Mul", "input": ["model_109/tf.math.add_338/Add", "model_109/tf.math.sigmoid_242/Sigmoid"], "attr": {"T": {"type": "DT_FLOAT"}}}, {"name": "model_109/tf.math.add_339/Add", "op": "_FusedConv2D", "input": ["model_109/tf.math.multiply_1059/Mul", "model_109/tf.nn.convolution_283/convolution/filter", "model_109/tf.math.add_339/Add/y"], "device": "/device:CPU:0", "attr": {"use_cudnn_on_gpu": {"b": true}, "padding": {"s": "U0FNRQ=="}, "TArgs": {"list": {"type": ["DT_FLOAT"]}}, "explicit_paddings": {"list": {}}, "num_host_args": {"i": "0"}, "strides": {"list": {"i": ["1", "1", "1", "1"]}}, "filter_format": {"s": "SFdJTw=="}, "num_args": {"i": "1"}, "dilations": {"list": {"i": ["1", "1", "1", "1"]}}, "epsilon": {"f": 0.0}, "T": {"type": "DT_FLOAT"}, "data_format": {"s": "TkhXQw=="}, "fused_ops": {"list": {"s": ["Qmlhc0FkZA=="]}}, "leakyrelu_alpha": {"f": 0.2}}}, {"name": "model_109/tf.math.sigmoid_243/Sigmoid", "op": "Sigmoid", "input": ["model_109/tf.math.add_339/Add"], "attr": {"T": {"type": "DT_FLOAT"}}}, {"name": "model_109/tf.math.multiply_1063/Mul", "op": "Mul", "input": ["model_109/tf.math.add_339/Add", "model_109/tf.math.sigmoid_243/Sigmoid"], "attr": {"T": {"type": "DT_FLOAT"}}}, {"name": "model_109/tf.math.add_341/Add", "op": "AddV2", "input": ["model_109/tf.math.add_337/Add", "model_109/tf.math.multiply_1063/Mul"], "attr": {"T": {"type": "DT_FLOAT"}}}, {"name": "model_109/tf.concat_97/concat", "op": "ConcatV2", "input": ["model_109/tf.strided_slice_82/StridedSlice", "model_109/tf.strided_slice_83/StridedSlice", "model_109/tf.math.add_337/Add", "model_109/tf.math.add_341/Add", "model_109/tf.concat_97/concat/axis"], "attr": {"N": {"i": "4"}, "T": {"type": "DT_FLOAT"}, "Tidx": {"type": "DT_INT32"}}}, {"name": "model_109/tf.math.add_342/Add", "op": "_FusedConv2D", "input": ["model_109/tf.concat_97/concat", "model_109/tf.nn.convolution_284/convolution/filter", "model_109/tf.math.add_342/Add/y"], "device": "/device:CPU:0", "attr": {"epsilon": {"f": 0.0}, "data_format": {"s": "TkhXQw=="}, "fused_ops": {"list": {"s": ["Qmlhc0FkZA=="]}}, "num_args": {"i": "1"}, "use_cudnn_on_gpu": {"b": true}, "padding": {"s": "U0FNRQ=="}, "dilations": {"list": {"i": ["1", "1", "1", "1"]}}, "strides": {"list": {"i": ["1", "1", "1", "1"]}}, "filter_format": {"s": "SFdJTw=="}, "T": {"type": "DT_FLOAT"}, "leakyrelu_alpha": {"f": 0.2}, "TArgs": {"list": {"type": ["DT_FLOAT"]}}, "explicit_paddings": {"list": {}}, "num_host_args": {"i": "0"}}}, {"name": "model_109/tf.math.sigmoid_244/Sigmoid", "op": "Sigmoid", "input": ["model_109/tf.math.add_342/Add"], "attr": {"T": {"type": "DT_FLOAT"}}}, {"name": "model_109/tf.math.multiply_1069/Mul", "op": "Mul", "input": ["model_109/tf.math.add_342/Add", "model_109/tf.math.sigmoid_244/Sigmoid"], "attr": {"T": {"type": "DT_FLOAT"}}}, {"name": "model_109/tf.compat.v1.pad_31/Pad", "op": "Pad", "input": ["model_109/tf.math.multiply_1069/Mul", "model_109/tf.compat.v1.pad_31/Pad/paddings"], "attr": {"T": {"type": "DT_FLOAT"}, "Tpaddings": {"type": "DT_INT32"}}}, {"name": "model_109/tf.math.add_343/Add", "op": "_FusedConv2D", "input": ["model_109/tf.compat.v1.pad_31/Pad", "model_109/tf.nn.convolution_285/convolution/filter", "model_109/tf.math.add_343/Add/y"], "device": "/device:CPU:0", "attr": {"num_args": {"i": "1"}, "use_cudnn_on_gpu": {"b": true}, "strides": {"list": {"i": ["1", "2", "2", "1"]}}, "num_host_args": {"i": "0"}, "T": {"type": "DT_FLOAT"}, "epsilon": {"f": 0.0}, "padding": {"s": "VkFMSUQ="}, "TArgs": {"list": {"type": ["DT_FLOAT"]}}, "explicit_paddings": {"list": {}}, "data_format": {"s": "TkhXQw=="}, "leakyrelu_alpha": {"f": 0.2}, "dilations": {"list": {"i": ["1", "1", "1", "1"]}}, "filter_format": {"s": "SFdJTw=="}, "fused_ops": {"list": {"s": ["Qmlhc0FkZA=="]}}}}, {"name": "model_109/tf.math.sigmoid_245/Sigmoid", "op": "Sigmoid", "input": ["model_109/tf.math.add_343/Add"], "attr": {"T": {"type": "DT_FLOAT"}}}, {"name": "model_109/tf.math.multiply_1073/Mul", "op": "Mul", "input": ["model_109/tf.math.add_343/Add", "model_109/tf.math.sigmoid_245/Sigmoid"], "attr": {"T": {"type": "DT_FLOAT"}}}, {"name": "model_109/tf.math.add_344/Add", "op": "_FusedConv2D", "input": ["model_109/tf.math.multiply_1073/Mul", "model_109/tf.nn.convolution_286/convolution/filter", "model_109/tf.math.add_344/Add/y"], "device": "/device:CPU:0", "attr": {"leakyrelu_alpha": {"f": 0.2}, "strides": {"list": {"i": ["1", "1", "1", "1"]}}, "epsilon": {"f": 0.0}, "TArgs": {"list": {"type": ["DT_FLOAT"]}}, "fused_ops": {"list": {"s": ["Qmlhc0FkZA=="]}}, "explicit_paddings": {"list": {}}, "dilations": {"list": {"i": ["1", "1", "1", "1"]}}, "padding": {"s": "U0FNRQ=="}, "num_args": {"i": "1"}, "num_host_args": {"i": "0"}, "data_format": {"s": "TkhXQw=="}, "filter_format": {"s": "SFdJTw=="}, "use_cudnn_on_gpu": {"b": true}, "T": {"type": "DT_FLOAT"}}}, {"name": "model_109/tf.math.sigmoid_246/Sigmoid", "op": "Sigmoid", "input": ["model_109/tf.math.add_344/Add"], "attr": {"T": {"type": "DT_FLOAT"}}}, {"name": "model_109/tf.math.multiply_1077/Mul", "op": "Mul", "input": ["model_109/tf.math.add_344/Add", "model_109/tf.math.sigmoid_246/Sigmoid"], "attr": {"T": {"type": "DT_FLOAT"}}}, {"name": "model_109/tf.strided_slice_84/StridedSlice", "op": "StridedSlice", "input": ["model_109/tf.math.multiply_1077/Mul", "model_109/tf.strided_slice_84/ones_like/tensor", "model_109/tf.strided_slice_84/StridedSlice/end", "model_109/tf.strided_slice_84/ones_like"], "attr": {"Index": {"type": "DT_INT64"}, "new_axis_mask": {"i": "0"}, "ellipsis_mask": {"i": "0"}, "T": {"type": "DT_FLOAT"}, "shrink_axis_mask": {"i": "0"}, "begin_mask": {"i": "15"}, "end_mask": {"i": "7"}}}, {"name": "model_109/tf.strided_slice_85/StridedSlice", "op": "StridedSlice", "input": ["model_109/tf.math.multiply_1077/Mul", "model_109/tf.strided_slice_85/ones_like/tensor", "model_109/tf.strided_slice_85/StridedSlice/end", "model_109/tf.strided_slice_85/ones_like"], "attr": {"ellipsis_mask": {"i": "0"}, "T": {"type": "DT_FLOAT"}, "begin_mask": {"i": "7"}, "new_axis_mask": {"i": "0"}, "Index": {"type": "DT_INT64"}, "end_mask": {"i": "7"}, "shrink_axis_mask": {"i": "0"}}}, {"name": "model_109/tf.math.add_345/Add", "op": "_FusedConv2D", "input": ["model_109/tf.strided_slice_85/StridedSlice", "model_109/tf.nn.convolution_287/convolution/filter", "model_109/tf.math.add_345/Add/y"], "device": "/device:CPU:0", "attr": {"num_host_args": {"i": "0"}, "fused_ops": {"list": {"s": ["Qmlhc0FkZA=="]}}, "padding": {"s": "U0FNRQ=="}, "dilations": {"list": {"i": ["1", "1", "1", "1"]}}, "epsilon": {"f": 0.0}, "data_format": {"s": "TkhXQw=="}, "TArgs": {"list": {"type": ["DT_FLOAT"]}}, "strides": {"list": {"i": ["1", "1", "1", "1"]}}, "explicit_paddings": {"list": {}}, "use_cudnn_on_gpu": {"b": true}, "filter_format": {"s": "SFdJTw=="}, "num_args": {"i": "1"}, "T": {"type": "DT_FLOAT"}, "leakyrelu_alpha": {"f": 0.2}}}, {"name": "model_109/tf.math.sigmoid_247/Sigmoid", "op": "Sigmoid", "input": ["model_109/tf.math.add_345/Add"], "attr": {"T": {"type": "DT_FLOAT"}}}, {"name": "model_109/tf.math.multiply_1081/Mul", "op": "Mul", "input": ["model_109/tf.math.add_345/Add", "model_109/tf.math.sigmoid_247/Sigmoid"], "attr": {"T": {"type": "DT_FLOAT"}}}, {"name": "model_109/tf.math.add_346/Add", "op": "_FusedConv2D", "input": ["model_109/tf.math.multiply_1081/Mul", "model_109/tf.nn.convolution_288/convolution/filter", "model_109/tf.math.add_346/Add/y"], "device": "/device:CPU:0", "attr": {"data_format": {"s": "TkhXQw=="}, "num_host_args": {"i": "0"}, "explicit_paddings": {"list": {}}, "strides": {"list": {"i": ["1", "1", "1", "1"]}}, "fused_ops": {"list": {"s": ["Qmlhc0FkZA=="]}}, "filter_format": {"s": "SFdJTw=="}, "dilations": {"list": {"i": ["1", "1", "1", "1"]}}, "use_cudnn_on_gpu": {"b": true}, "padding": {"s": "U0FNRQ=="}, "TArgs": {"list": {"type": ["DT_FLOAT"]}}, "T": {"type": "DT_FLOAT"}, "leakyrelu_alpha": {"f": 0.2}, "epsilon": {"f": 0.0}, "num_args": {"i": "1"}}}, {"name": "model_109/tf.math.sigmoid_248/Sigmoid", "op": "Sigmoid", "input": ["model_109/tf.math.add_346/Add"], "attr": {"T": {"type": "DT_FLOAT"}}}, {"name": "model_109/tf.math.multiply_1085/Mul", "op": "Mul", "input": ["model_109/tf.math.add_346/Add", "model_109/tf.math.sigmoid_248/Sigmoid"], "attr": {"T": {"type": "DT_FLOAT"}}}, {"name": "model_109/tf.math.add_348/Add", "op": "AddV2", "input": ["model_109/tf.strided_slice_85/StridedSlice", "model_109/tf.math.multiply_1085/Mul"], "attr": {"T": {"type": "DT_FLOAT"}}}, {"name": "model_109/tf.math.add_349/Add", "op": "_FusedConv2D", "input": ["model_109/tf.math.add_348/Add", "model_109/tf.nn.convolution_289/convolution/filter", "model_109/tf.math.add_349/Add/y"], "device": "/device:CPU:0", "attr": {"explicit_paddings": {"list": {}}, "epsilon": {"f": 0.0}, "leakyrelu_alpha": {"f": 0.2}, "num_host_args": {"i": "0"}, "dilations": {"list": {"i": ["1", "1", "1", "1"]}}, "padding": {"s": "U0FNRQ=="}, "strides": {"list": {"i": ["1", "1", "1", "1"]}}, "data_format": {"s": "TkhXQw=="}, "TArgs": {"list": {"type": ["DT_FLOAT"]}}, "num_args": {"i": "1"}, "T": {"type": "DT_FLOAT"}, "filter_format": {"s": "SFdJTw=="}, "use_cudnn_on_gpu": {"b": true}, "fused_ops": {"list": {"s": ["Qmlhc0FkZA=="]}}}}, {"name": "model_109/tf.math.sigmoid_249/Sigmoid", "op": "Sigmoid", "input": ["model_109/tf.math.add_349/Add"], "attr": {"T": {"type": "DT_FLOAT"}}}, {"name": "model_109/tf.math.multiply_1091/Mul", "op": "Mul", "input": ["model_109/tf.math.add_349/Add", "model_109/tf.math.sigmoid_249/Sigmoid"], "attr": {"T": {"type": "DT_FLOAT"}}}, {"name": "model_109/tf.math.add_350/Add", "op": "_FusedConv2D", "input": ["model_109/tf.math.multiply_1091/Mul", "model_109/tf.nn.convolution_290/convolution/filter", "model_109/tf.math.add_350/Add/y"], "device": "/device:CPU:0", "attr": {"fused_ops": {"list": {"s": ["Qmlhc0FkZA=="]}}, "epsilon": {"f": 0.0}, "explicit_paddings": {"list": {}}, "filter_format": {"s": "SFdJTw=="}, "strides": {"list": {"i": ["1", "1", "1", "1"]}}, "use_cudnn_on_gpu": {"b": true}, "T": {"type": "DT_FLOAT"}, "leakyrelu_alpha": {"f": 0.2}, "num_args": {"i": "1"}, "dilations": {"list": {"i": ["1", "1", "1", "1"]}}, "num_host_args": {"i": "0"}, "data_format": {"s": "TkhXQw=="}, "padding": {"s": "U0FNRQ=="}, "TArgs": {"list": {"type": ["DT_FLOAT"]}}}}, {"name": "model_109/tf.math.sigmoid_250/Sigmoid", "op": "Sigmoid", "input": ["model_109/tf.math.add_350/Add"], "attr": {"T": {"type": "DT_FLOAT"}}}, {"name": "model_109/tf.math.multiply_1095/Mul", "op": "Mul", "input": ["model_109/tf.math.add_350/Add", "model_109/tf.math.sigmoid_250/Sigmoid"], "attr": {"T": {"type": "DT_FLOAT"}}}, {"name": "model_109/tf.math.add_352/Add", "op": "AddV2", "input": ["model_109/tf.math.add_348/Add", "model_109/tf.math.multiply_1095/Mul"], "attr": {"T": {"type": "DT_FLOAT"}}}, {"name": "model_109/tf.concat_98/concat", "op": "ConcatV2", "input": ["model_109/tf.strided_slice_84/StridedSlice", "model_109/tf.strided_slice_85/StridedSlice", "model_109/tf.math.add_348/Add", "model_109/tf.math.add_352/Add", "model_109/tf.concat_98/concat/axis"], "attr": {"N": {"i": "4"}, "T": {"type": "DT_FLOAT"}, "Tidx": {"type": "DT_INT32"}}}, {"name": "model_109/tf.math.add_353/Add", "op": "_FusedConv2D", "input": ["model_109/tf.concat_98/concat", "model_109/tf.nn.convolution_291/convolution/filter", "model_109/tf.math.add_353/Add/y"], "device": "/device:CPU:0", "attr": {"filter_format": {"s": "SFdJTw=="}, "strides": {"list": {"i": ["1", "1", "1", "1"]}}, "TArgs": {"list": {"type": ["DT_FLOAT"]}}, "T": {"type": "DT_FLOAT"}, "data_format": {"s": "TkhXQw=="}, "explicit_paddings": {"list": {}}, "fused_ops": {"list": {"s": ["Qmlhc0FkZA=="]}}, "num_host_args": {"i": "0"}, "num_args": {"i": "1"}, "use_cudnn_on_gpu": {"b": true}, "epsilon": {"f": 0.0}, "leakyrelu_alpha": {"f": 0.2}, "padding": {"s": "U0FNRQ=="}, "dilations": {"list": {"i": ["1", "1", "1", "1"]}}}}, {"name": "model_109/tf.math.sigmoid_251/Sigmoid", "op": "Sigmoid", "input": ["model_109/tf.math.add_353/Add"], "attr": {"T": {"type": "DT_FLOAT"}}}, {"name": "model_109/tf.math.multiply_1101/Mul", "op": "Mul", "input": ["model_109/tf.math.add_353/Add", "model_109/tf.math.sigmoid_251/Sigmoid"], "attr": {"T": {"type": "DT_FLOAT"}}}, {"name": "model_109/tf.compat.v1.pad_32/Pad", "op": "Pad", "input": ["model_109/tf.math.multiply_1101/Mul", "model_109/tf.compat.v1.pad_32/Pad/paddings"], "attr": {"Tpaddings": {"type": "DT_INT32"}, "T": {"type": "DT_FLOAT"}}}, {"name": "model_109/tf.math.add_354/Add", "op": "_FusedConv2D", "input": ["model_109/tf.compat.v1.pad_32/Pad", "model_109/tf.nn.convolution_292/convolution/filter", "model_109/tf.math.add_354/Add/y"], "device": "/device:CPU:0", "attr": {"num_args": {"i": "1"}, "fused_ops": {"list": {"s": ["Qmlhc0FkZA=="]}}, "TArgs": {"list": {"type": ["DT_FLOAT"]}}, "num_host_args": {"i": "0"}, "dilations": {"list": {"i": ["1", "1", "1", "1"]}}, "use_cudnn_on_gpu": {"b": true}, "filter_format": {"s": "SFdJTw=="}, "explicit_paddings": {"list": {}}, "leakyrelu_alpha": {"f": 0.2}, "epsilon": {"f": 0.0}, "data_format": {"s": "TkhXQw=="}, "strides": {"list": {"i": ["1", "2", "2", "1"]}}, "T": {"type": "DT_FLOAT"}, "padding": {"s": "VkFMSUQ="}}}, {"name": "model_109/tf.math.sigmoid_252/Sigmoid", "op": "Sigmoid", "input": ["model_109/tf.math.add_354/Add"], "attr": {"T": {"type": "DT_FLOAT"}}}, {"name": "model_109/tf.math.multiply_1105/Mul", "op": "Mul", "input": ["model_109/tf.math.add_354/Add", "model_109/tf.math.sigmoid_252/Sigmoid"], "attr": {"T": {"type": "DT_FLOAT"}}}, {"name": "model_109/tf.math.add_355/Add", "op": "_FusedConv2D", "input": ["model_109/tf.math.multiply_1105/Mul", "model_109/tf.nn.convolution_293/convolution/filter", "model_109/tf.math.add_355/Add/y"], "device": "/device:CPU:0", "attr": {"data_format": {"s": "TkhXQw=="}, "num_args": {"i": "1"}, "explicit_paddings": {"list": {}}, "padding": {"s": "U0FNRQ=="}, "epsilon": {"f": 0.0}, "num_host_args": {"i": "0"}, "TArgs": {"list": {"type": ["DT_FLOAT"]}}, "dilations": {"list": {"i": ["1", "1", "1", "1"]}}, "fused_ops": {"list": {"s": ["Qmlhc0FkZA=="]}}, "strides": {"list": {"i": ["1", "1", "1", "1"]}}, "use_cudnn_on_gpu": {"b": true}, "T": {"type": "DT_FLOAT"}, "filter_format": {"s": "SFdJTw=="}, "leakyrelu_alpha": {"f": 0.2}}}, {"name": "model_109/tf.math.sigmoid_253/Sigmoid", "op": "Sigmoid", "input": ["model_109/tf.math.add_355/Add"], "attr": {"T": {"type": "DT_FLOAT"}}}, {"name": "model_109/tf.math.multiply_1109/Mul", "op": "Mul", "input": ["model_109/tf.math.add_355/Add", "model_109/tf.math.sigmoid_253/Sigmoid"], "attr": {"T": {"type": "DT_FLOAT"}}}, {"name": "model_109/tf.strided_slice_86/StridedSlice", "op": "StridedSlice", "input": ["model_109/tf.math.multiply_1109/Mul", "model_109/tf.strided_slice_86/ones_like/tensor", "model_109/tf.strided_slice_86/StridedSlice/end", "model_109/tf.strided_slice_86/ones_like"], "attr": {"new_axis_mask": {"i": "0"}, "T": {"type": "DT_FLOAT"}, "end_mask": {"i": "7"}, "shrink_axis_mask": {"i": "0"}, "ellipsis_mask": {"i": "0"}, "begin_mask": {"i": "15"}, "Index": {"type": "DT_INT64"}}}, {"name": "model_109/tf.strided_slice_87/StridedSlice", "op": "StridedSlice", "input": ["model_109/tf.math.multiply_1109/Mul", "model_109/tf.strided_slice_87/ones_like/tensor", "model_109/tf.strided_slice_87/StridedSlice/end", "model_109/tf.strided_slice_87/ones_like"], "attr": {"end_mask": {"i": "7"}, "new_axis_mask": {"i": "0"}, "Index": {"type": "DT_INT64"}, "ellipsis_mask": {"i": "0"}, "begin_mask": {"i": "7"}, "T": {"type": "DT_FLOAT"}, "shrink_axis_mask": {"i": "0"}}}, {"name": "model_109/tf.math.add_356/Add", "op": "_FusedConv2D", "input": ["model_109/tf.strided_slice_87/StridedSlice", "model_109/tf.nn.convolution_294/convolution/filter", "model_109/tf.math.add_356/Add/y"], "device": "/device:CPU:0", "attr": {"dilations": {"list": {"i": ["1", "1", "1", "1"]}}, "strides": {"list": {"i": ["1", "1", "1", "1"]}}, "explicit_paddings": {"list": {}}, "epsilon": {"f": 0.0}, "padding": {"s": "U0FNRQ=="}, "fused_ops": {"list": {"s": ["Qmlhc0FkZA=="]}}, "num_args": {"i": "1"}, "T": {"type": "DT_FLOAT"}, "data_format": {"s": "TkhXQw=="}, "filter_format": {"s": "SFdJTw=="}, "TArgs": {"list": {"type": ["DT_FLOAT"]}}, "num_host_args": {"i": "0"}, "use_cudnn_on_gpu": {"b": true}, "leakyrelu_alpha": {"f": 0.2}}}, {"name": "model_109/tf.math.sigmoid_254/Sigmoid", "op": "Sigmoid", "input": ["model_109/tf.math.add_356/Add"], "attr": {"T": {"type": "DT_FLOAT"}}}, {"name": "model_109/tf.math.multiply_1113/Mul", "op": "Mul", "input": ["model_109/tf.math.add_356/Add", "model_109/tf.math.sigmoid_254/Sigmoid"], "attr": {"T": {"type": "DT_FLOAT"}}}, {"name": "model_109/tf.math.add_357/Add", "op": "_FusedConv2D", "input": ["model_109/tf.math.multiply_1113/Mul", "model_109/tf.nn.convolution_295/convolution/filter", "model_109/tf.math.add_357/Add/y"], "device": "/device:CPU:0", "attr": {"epsilon": {"f": 0.0}, "filter_format": {"s": "SFdJTw=="}, "padding": {"s": "U0FNRQ=="}, "data_format": {"s": "TkhXQw=="}, "dilations": {"list": {"i": ["1", "1", "1", "1"]}}, "num_host_args": {"i": "0"}, "T": {"type": "DT_FLOAT"}, "fused_ops": {"list": {"s": ["Qmlhc0FkZA=="]}}, "strides": {"list": {"i": ["1", "1", "1", "1"]}}, "num_args": {"i": "1"}, "use_cudnn_on_gpu": {"b": true}, "leakyrelu_alpha": {"f": 0.2}, "TArgs": {"list": {"type": ["DT_FLOAT"]}}, "explicit_paddings": {"list": {}}}}, {"name": "model_109/tf.math.sigmoid_255/Sigmoid", "op": "Sigmoid", "input": ["model_109/tf.math.add_357/Add"], "attr": {"T": {"type": "DT_FLOAT"}}}, {"name": "model_109/tf.math.multiply_1117/Mul", "op": "Mul", "input": ["model_109/tf.math.add_357/Add", "model_109/tf.math.sigmoid_255/Sigmoid"], "attr": {"T": {"type": "DT_FLOAT"}}}, {"name": "model_109/tf.math.add_359/Add", "op": "AddV2", "input": ["model_109/tf.strided_slice_87/StridedSlice", "model_109/tf.math.multiply_1117/Mul"], "attr": {"T": {"type": "DT_FLOAT"}}}, {"name": "model_109/tf.concat_99/concat", "op": "ConcatV2", "input": ["model_109/tf.strided_slice_86/StridedSlice", "model_109/tf.strided_slice_87/StridedSlice", "model_109/tf.math.add_359/Add", "model_109/tf.concat_99/concat/axis"], "attr": {"N": {"i": "3"}, "Tidx": {"type": "DT_INT32"}, "T": {"type": "DT_FLOAT"}}}, {"name": "model_109/tf.math.add_360/Add", "op": "_FusedConv2D", "input": ["model_109/tf.concat_99/concat", "model_109/tf.nn.convolution_296/convolution/filter", "model_109/tf.math.add_360/Add/y"], "device": "/device:CPU:0", "attr": {"leakyrelu_alpha": {"f": 0.2}, "use_cudnn_on_gpu": {"b": true}, "epsilon": {"f": 0.0}, "padding": {"s": "U0FNRQ=="}, "explicit_paddings": {"list": {}}, "strides": {"list": {"i": ["1", "1", "1", "1"]}}, "TArgs": {"list": {"type": ["DT_FLOAT"]}}, "num_host_args": {"i": "0"}, "fused_ops": {"list": {"s": ["Qmlhc0FkZA=="]}}, "num_args": {"i": "1"}, "data_format": {"s": "TkhXQw=="}, "filter_format": {"s": "SFdJTw=="}, "dilations": {"list": {"i": ["1", "1", "1", "1"]}}, "T": {"type": "DT_FLOAT"}}}, {"name": "model_109/tf.math.sigmoid_256/Sigmoid", "op": "Sigmoid", "input": ["model_109/tf.math.add_360/Add"], "attr": {"T": {"type": "DT_FLOAT"}}}, {"name": "model_109/tf.math.multiply_1123/Mul", "op": "Mul", "input": ["model_109/tf.math.add_360/Add", "model_109/tf.math.sigmoid_256/Sigmoid"], "attr": {"T": {"type": "DT_FLOAT"}}}, {"name": "model_109/tf.math.add_361/Add", "op": "_FusedConv2D", "input": ["model_109/tf.math.multiply_1123/Mul", "model_109/tf.nn.convolution_297/convolution/filter", "model_109/tf.math.add_361/Add/y"], "device": "/device:CPU:0", "attr": {"TArgs": {"list": {"type": ["DT_FLOAT"]}}, "strides": {"list": {"i": ["1", "1", "1", "1"]}}, "leakyrelu_alpha": {"f": 0.2}, "use_cudnn_on_gpu": {"b": true}, "num_host_args": {"i": "0"}, "epsilon": {"f": 0.0}, "dilations": {"list": {"i": ["1", "1", "1", "1"]}}, "T": {"type": "DT_FLOAT"}, "filter_format": {"s": "SFdJTw=="}, "explicit_paddings": {"list": {}}, "data_format": {"s": "TkhXQw=="}, "fused_ops": {"list": {"s": ["Qmlhc0FkZA=="]}}, "num_args": {"i": "1"}, "padding": {"s": "U0FNRQ=="}}}, {"name": "model_109/tf.math.sigmoid_257/Sigmoid", "op": "Sigmoid", "input": ["model_109/tf.math.add_361/Add"], "attr": {"T": {"type": "DT_FLOAT"}}}, {"name": "model_109/tf.math.multiply_1127/Mul", "op": "Mul", "input": ["model_109/tf.math.add_361/Add", "model_109/tf.math.sigmoid_257/Sigmoid"], "attr": {"T": {"type": "DT_FLOAT"}}}, {"name": "model_109/tf.compat.v1.nn.pool_12/max_pool", "op": "MaxPool", "input": ["model_109/tf.math.multiply_1127/Mul"], "attr": {"explicit_paddings": {"list": {}}, "ksize": {"list": {"i": ["1", "5", "5", "1"]}}, "T": {"type": "DT_FLOAT"}, "strides": {"list": {"i": ["1", "1", "1", "1"]}}, "padding": {"s": "U0FNRQ=="}, "data_format": {"s": "TkhXQw=="}}}, {"name": "model_109/tf.compat.v1.nn.pool_13/max_pool", "op": "MaxPool", "input": ["model_109/tf.compat.v1.nn.pool_12/max_pool"], "attr": {"explicit_paddings": {"list": {}}, "strides": {"list": {"i": ["1", "1", "1", "1"]}}, "ksize": {"list": {"i": ["1", "5", "5", "1"]}}, "T": {"type": "DT_FLOAT"}, "data_format": {"s": "TkhXQw=="}, "padding": {"s": "U0FNRQ=="}}}, {"name": "model_109/tf.compat.v1.nn.pool_14/max_pool", "op": "MaxPool", "input": ["model_109/tf.compat.v1.nn.pool_13/max_pool"], "attr": {"T": {"type": "DT_FLOAT"}, "explicit_paddings": {"list": {}}, "strides": {"list": {"i": ["1", "1", "1", "1"]}}, "ksize": {"list": {"i": ["1", "5", "5", "1"]}}, "data_format": {"s": "TkhXQw=="}, "padding": {"s": "U0FNRQ=="}}}, {"name": "model_109/tf.concat_100/concat", "op": "ConcatV2", "input": ["model_109/tf.math.multiply_1127/Mul", "model_109/tf.compat.v1.nn.pool_12/max_pool", "model_109/tf.compat.v1.nn.pool_13/max_pool", "model_109/tf.compat.v1.nn.pool_14/max_pool", "model_109/tf.concat_100/concat/axis"], "attr": {"Tidx": {"type": "DT_INT32"}, "T": {"type": "DT_FLOAT"}, "N": {"i": "4"}}}, {"name": "model_109/tf.math.add_362/Add", "op": "_FusedConv2D", "input": ["model_109/tf.concat_100/concat", "model_109/tf.nn.convolution_298/convolution/filter", "model_109/tf.math.add_362/Add/y"], "device": "/device:CPU:0", "attr": {"TArgs": {"list": {"type": ["DT_FLOAT"]}}, "explicit_paddings": {"list": {}}, "num_args": {"i": "1"}, "use_cudnn_on_gpu": {"b": true}, "epsilon": {"f": 0.0}, "T": {"type": "DT_FLOAT"}, "data_format": {"s": "TkhXQw=="}, "dilations": {"list": {"i": ["1", "1", "1", "1"]}}, "num_host_args": {"i": "0"}, "leakyrelu_alpha": {"f": 0.2}, "strides": {"list": {"i": ["1", "1", "1", "1"]}}, "padding": {"s": "U0FNRQ=="}, "fused_ops": {"list": {"s": ["Qmlhc0FkZA=="]}}, "filter_format": {"s": "SFdJTw=="}}}, {"name": "model_109/tf.math.sigmoid_258/Sigmoid", "op": "Sigmoid", "input": ["model_109/tf.math.add_362/Add"], "attr": {"T": {"type": "DT_FLOAT"}}}, {"name": "model_109/tf.math.multiply_1131/Mul", "op": "Mul", "input": ["model_109/tf.math.add_362/Add", "model_109/tf.math.sigmoid_258/Sigmoid"], "attr": {"T": {"type": "DT_FLOAT"}}}, {"name": "model_109/tf.image.resize_8/resize/ResizeNearestNeighbor", "op": "ResizeNearestNeighbor", "input": ["model_109/tf.math.multiply_1131/Mul", "model_109/tf.image.resize_8/resize/size"], "attr": {"T": {"type": "DT_FLOAT"}, "align_corners": {"b": false}, "half_pixel_centers": {"b": true}}}, {"name": "model_109/tf.concat_101/concat", "op": "ConcatV2", "input": ["model_109/tf.image.resize_8/resize/ResizeNearestNeighbor", "model_109/tf.math.multiply_1101/Mul", "model_109/tf.concat_101/concat/axis"], "attr": {"N": {"i": "2"}, "Tidx": {"type": "DT_INT32"}, "T": {"type": "DT_FLOAT"}}}, {"name": "model_109/tf.math.add_363/Add", "op": "_FusedConv2D", "input": ["model_109/tf.concat_101/concat", "model_109/tf.nn.convolution_299/convolution/filter", "model_109/tf.math.add_363/Add/y"], "device": "/device:CPU:0", "attr": {"explicit_paddings": {"list": {}}, "num_args": {"i": "1"}, "strides": {"list": {"i": ["1", "1", "1", "1"]}}, "data_format": {"s": "TkhXQw=="}, "filter_format": {"s": "SFdJTw=="}, "epsilon": {"f": 0.0}, "TArgs": {"list": {"type": ["DT_FLOAT"]}}, "fused_ops": {"list": {"s": ["Qmlhc0FkZA=="]}}, "use_cudnn_on_gpu": {"b": true}, "padding": {"s": "U0FNRQ=="}, "T": {"type": "DT_FLOAT"}, "leakyrelu_alpha": {"f": 0.2}, "num_host_args": {"i": "0"}, "dilations": {"list": {"i": ["1", "1", "1", "1"]}}}}, {"name": "model_109/tf.math.sigmoid_259/Sigmoid", "op": "Sigmoid", "input": ["model_109/tf.math.add_363/Add"], "attr": {"T": {"type": "DT_FLOAT"}}}, {"name": "model_109/tf.math.multiply_1135/Mul", "op": "Mul", "input": ["model_109/tf.math.add_363/Add", "model_109/tf.math.sigmoid_259/Sigmoid"], "attr": {"T": {"type": "DT_FLOAT"}}}, {"name": "model_109/tf.strided_slice_88/StridedSlice", "op": "StridedSlice", "input": ["model_109/tf.math.multiply_1135/Mul", "model_109/tf.strided_slice_88/ones_like/tensor", "model_109/tf.strided_slice_88/StridedSlice/end", "model_109/tf.strided_slice_88/ones_like"], "attr": {"ellipsis_mask": {"i": "0"}, "begin_mask": {"i": "15"}, "Index": {"type": "DT_INT64"}, "end_mask": {"i": "7"}, "shrink_axis_mask": {"i": "0"}, "new_axis_mask": {"i": "0"}, "T": {"type": "DT_FLOAT"}}}, {"name": "model_109/tf.strided_slice_89/StridedSlice", "op": "StridedSlice", "input": ["model_109/tf.math.multiply_1135/Mul", "model_109/tf.strided_slice_89/ones_like/tensor", "model_109/tf.strided_slice_89/StridedSlice/end", "model_109/tf.strided_slice_89/ones_like"], "attr": {"T": {"type": "DT_FLOAT"}, "Index": {"type": "DT_INT64"}, "begin_mask": {"i": "7"}, "end_mask": {"i": "7"}, "new_axis_mask": {"i": "0"}, "ellipsis_mask": {"i": "0"}, "shrink_axis_mask": {"i": "0"}}}, {"name": "model_109/tf.math.add_364/Add", "op": "_FusedConv2D", "input": ["model_109/tf.strided_slice_89/StridedSlice", "model_109/tf.nn.convolution_300/convolution/filter", "model_109/tf.math.add_364/Add/y"], "device": "/device:CPU:0", "attr": {"TArgs": {"list": {"type": ["DT_FLOAT"]}}, "padding": {"s": "U0FNRQ=="}, "data_format": {"s": "TkhXQw=="}, "leakyrelu_alpha": {"f": 0.2}, "dilations": {"list": {"i": ["1", "1", "1", "1"]}}, "fused_ops": {"list": {"s": ["Qmlhc0FkZA=="]}}, "num_args": {"i": "1"}, "num_host_args": {"i": "0"}, "T": {"type": "DT_FLOAT"}, "epsilon": {"f": 0.0}, "explicit_paddings": {"list": {}}, "filter_format": {"s": "SFdJTw=="}, "strides": {"list": {"i": ["1", "1", "1", "1"]}}, "use_cudnn_on_gpu": {"b": true}}}, {"name": "model_109/tf.math.sigmoid_260/Sigmoid", "op": "Sigmoid", "input": ["model_109/tf.math.add_364/Add"], "attr": {"T": {"type": "DT_FLOAT"}}}, {"name": "model_109/tf.math.multiply_1139/Mul", "op": "Mul", "input": ["model_109/tf.math.add_364/Add", "model_109/tf.math.sigmoid_260/Sigmoid"], "attr": {"T": {"type": "DT_FLOAT"}}}, {"name": "model_109/tf.math.add_365/Add", "op": "_FusedConv2D", "input": ["model_109/tf.math.multiply_1139/Mul", "model_109/tf.nn.convolution_301/convolution/filter", "model_109/tf.math.add_365/Add/y"], "device": "/device:CPU:0", "attr": {"TArgs": {"list": {"type": ["DT_FLOAT"]}}, "epsilon": {"f": 0.0}, "padding": {"s": "U0FNRQ=="}, "T": {"type": "DT_FLOAT"}, "data_format": {"s": "TkhXQw=="}, "leakyrelu_alpha": {"f": 0.2}, "fused_ops": {"list": {"s": ["Qmlhc0FkZA=="]}}, "use_cudnn_on_gpu": {"b": true}, "strides": {"list": {"i": ["1", "1", "1", "1"]}}, "num_host_args": {"i": "0"}, "explicit_paddings": {"list": {}}, "dilations": {"list": {"i": ["1", "1", "1", "1"]}}, "num_args": {"i": "1"}, "filter_format": {"s": "SFdJTw=="}}}, {"name": "model_109/tf.math.sigmoid_261/Sigmoid", "op": "Sigmoid", "input": ["model_109/tf.math.add_365/Add"], "attr": {"T": {"type": "DT_FLOAT"}}}, {"name": "model_109/tf.math.multiply_1143/Mul", "op": "Mul", "input": ["model_109/tf.math.add_365/Add", "model_109/tf.math.sigmoid_261/Sigmoid"], "attr": {"T": {"type": "DT_FLOAT"}}}, {"name": "model_109/tf.concat_102/concat", "op": "ConcatV2", "input": ["model_109/tf.strided_slice_88/StridedSlice", "model_109/tf.strided_slice_89/StridedSlice", "model_109/tf.math.multiply_1143/Mul", "model_109/tf.concat_102/concat/axis"], "attr": {"T": {"type": "DT_FLOAT"}, "Tidx": {"type": "DT_INT32"}, "N": {"i": "3"}}}, {"name": "model_109/tf.math.add_366/Add", "op": "_FusedConv2D", "input": ["model_109/tf.concat_102/concat", "model_109/tf.nn.convolution_302/convolution/filter", "model_109/tf.math.add_366/Add/y"], "device": "/device:CPU:0", "attr": {"num_args": {"i": "1"}, "leakyrelu_alpha": {"f": 0.2}, "use_cudnn_on_gpu": {"b": true}, "filter_format": {"s": "SFdJTw=="}, "num_host_args": {"i": "0"}, "TArgs": {"list": {"type": ["DT_FLOAT"]}}, "T": {"type": "DT_FLOAT"}, "strides": {"list": {"i": ["1", "1", "1", "1"]}}, "padding": {"s": "U0FNRQ=="}, "dilations": {"list": {"i": ["1", "1", "1", "1"]}}, "fused_ops": {"list": {"s": ["Qmlhc0FkZA=="]}}, "explicit_paddings": {"list": {}}, "data_format": {"s": "TkhXQw=="}, "epsilon": {"f": 0.0}}}, {"name": "model_109/tf.math.sigmoid_262/Sigmoid", "op": "Sigmoid", "input": ["model_109/tf.math.add_366/Add"], "attr": {"T": {"type": "DT_FLOAT"}}}, {"name": "model_109/tf.math.multiply_1147/Mul", "op": "Mul", "input": ["model_109/tf.math.add_366/Add", "model_109/tf.math.sigmoid_262/Sigmoid"], "attr": {"T": {"type": "DT_FLOAT"}}}, {"name": "model_109/tf.image.resize_9/resize/ResizeNearestNeighbor", "op": "ResizeNearestNeighbor", "input": ["model_109/tf.math.multiply_1147/Mul", "model_109/tf.image.resize_9/resize/size"], "attr": {"half_pixel_centers": {"b": true}, "align_corners": {"b": false}, "T": {"type": "DT_FLOAT"}}}, {"name": "model_109/tf.concat_103/concat", "op": "ConcatV2", "input": ["model_109/tf.image.resize_9/resize/ResizeNearestNeighbor", "model_109/tf.math.multiply_1069/Mul", "model_109/tf.concat_103/concat/axis"], "attr": {"Tidx": {"type": "DT_INT32"}, "T": {"type": "DT_FLOAT"}, "N": {"i": "2"}}}, {"name": "model_109/tf.math.add_367/Add", "op": "_FusedConv2D", "input": ["model_109/tf.concat_103/concat", "model_109/tf.nn.convolution_303/convolution/filter", "model_109/tf.math.add_367/Add/y"], "device": "/device:CPU:0", "attr": {"leakyrelu_alpha": {"f": 0.2}, "num_host_args": {"i": "0"}, "epsilon": {"f": 0.0}, "T": {"type": "DT_FLOAT"}, "explicit_paddings": {"list": {}}, "dilations": {"list": {"i": ["1", "1", "1", "1"]}}, "num_args": {"i": "1"}, "strides": {"list": {"i": ["1", "1", "1", "1"]}}, "padding": {"s": "U0FNRQ=="}, "filter_format": {"s": "SFdJTw=="}, "fused_ops": {"list": {"s": ["Qmlhc0FkZA=="]}}, "data_format": {"s": "TkhXQw=="}, "use_cudnn_on_gpu": {"b": true}, "TArgs": {"list": {"type": ["DT_FLOAT"]}}}}, {"name": "model_109/tf.math.sigmoid_263/Sigmoid", "op": "Sigmoid", "input": ["model_109/tf.math.add_367/Add"], "attr": {"T": {"type": "DT_FLOAT"}}}, {"name": "model_109/tf.math.multiply_1151/Mul", "op": "Mul", "input": ["model_109/tf.math.add_367/Add", "model_109/tf.math.sigmoid_263/Sigmoid"], "attr": {"T": {"type": "DT_FLOAT"}}}, {"name": "model_109/tf.strided_slice_90/StridedSlice", "op": "StridedSlice", "input": ["model_109/tf.math.multiply_1151/Mul", "model_109/tf.strided_slice_90/ones_like/tensor", "model_109/tf.strided_slice_90/StridedSlice/end", "model_109/tf.strided_slice_90/ones_like"], "attr": {"Index": {"type": "DT_INT64"}, "end_mask": {"i": "7"}, "shrink_axis_mask": {"i": "0"}, "new_axis_mask": {"i": "0"}, "ellipsis_mask": {"i": "0"}, "begin_mask": {"i": "15"}, "T": {"type": "DT_FLOAT"}}}, {"name": "model_109/tf.strided_slice_91/StridedSlice", "op": "StridedSlice", "input": ["model_109/tf.math.multiply_1151/Mul", "model_109/tf.strided_slice_91/ones_like/tensor", "model_109/tf.strided_slice_91/StridedSlice/end", "model_109/tf.strided_slice_91/ones_like"], "attr": {"shrink_axis_mask": {"i": "0"}, "new_axis_mask": {"i": "0"}, "Index": {"type": "DT_INT64"}, "ellipsis_mask": {"i": "0"}, "T": {"type": "DT_FLOAT"}, "begin_mask": {"i": "7"}, "end_mask": {"i": "7"}}}, {"name": "model_109/tf.math.add_368/Add", "op": "_FusedConv2D", "input": ["model_109/tf.strided_slice_91/StridedSlice", "model_109/tf.nn.convolution_304/convolution/filter", "model_109/tf.math.add_368/Add/y"], "device": "/device:CPU:0", "attr": {"use_cudnn_on_gpu": {"b": true}, "dilations": {"list": {"i": ["1", "1", "1", "1"]}}, "epsilon": {"f": 0.0}, "num_args": {"i": "1"}, "padding": {"s": "U0FNRQ=="}, "data_format": {"s": "TkhXQw=="}, "fused_ops": {"list": {"s": ["Qmlhc0FkZA=="]}}, "strides": {"list": {"i": ["1", "1", "1", "1"]}}, "explicit_paddings": {"list": {}}, "T": {"type": "DT_FLOAT"}, "filter_format": {"s": "SFdJTw=="}, "leakyrelu_alpha": {"f": 0.2}, "TArgs": {"list": {"type": ["DT_FLOAT"]}}, "num_host_args": {"i": "0"}}}, {"name": "model_109/tf.math.sigmoid_264/Sigmoid", "op": "Sigmoid", "input": ["model_109/tf.math.add_368/Add"], "attr": {"T": {"type": "DT_FLOAT"}}}, {"name": "model_109/tf.math.multiply_1155/Mul", "op": "Mul", "input": ["model_109/tf.math.add_368/Add", "model_109/tf.math.sigmoid_264/Sigmoid"], "attr": {"T": {"type": "DT_FLOAT"}}}, {"name": "model_109/tf.math.add_369/Add", "op": "_FusedConv2D", "input": ["model_109/tf.math.multiply_1155/Mul", "model_109/tf.nn.convolution_305/convolution/filter", "model_109/tf.math.add_369/Add/y"], "device": "/device:CPU:0", "attr": {"use_cudnn_on_gpu": {"b": true}, "num_args": {"i": "1"}, "dilations": {"list": {"i": ["1", "1", "1", "1"]}}, "explicit_paddings": {"list": {}}, "leakyrelu_alpha": {"f": 0.2}, "strides": {"list": {"i": ["1", "1", "1", "1"]}}, "data_format": {"s": "TkhXQw=="}, "num_host_args": {"i": "0"}, "padding": {"s": "U0FNRQ=="}, "T": {"type": "DT_FLOAT"}, "TArgs": {"list": {"type": ["DT_FLOAT"]}}, "filter_format": {"s": "SFdJTw=="}, "fused_ops": {"list": {"s": ["Qmlhc0FkZA=="]}}, "epsilon": {"f": 0.0}}}, {"name": "model_109/tf.math.sigmoid_265/Sigmoid", "op": "Sigmoid", "input": ["model_109/tf.math.add_369/Add"], "attr": {"T": {"type": "DT_FLOAT"}}}, {"name": "model_109/tf.math.multiply_1159/Mul", "op": "Mul", "input": ["model_109/tf.math.add_369/Add", "model_109/tf.math.sigmoid_265/Sigmoid"], "attr": {"T": {"type": "DT_FLOAT"}}}, {"name": "model_109/tf.concat_104/concat", "op": "ConcatV2", "input": ["model_109/tf.strided_slice_90/StridedSlice", "model_109/tf.strided_slice_91/StridedSlice", "model_109/tf.math.multiply_1159/Mul", "model_109/tf.concat_104/concat/axis"], "attr": {"Tidx": {"type": "DT_INT32"}, "N": {"i": "3"}, "T": {"type": "DT_FLOAT"}}}, {"name": "model_109/tf.math.add_370/Add", "op": "_FusedConv2D", "input": ["model_109/tf.concat_104/concat", "model_109/tf.nn.convolution_306/convolution/filter", "model_109/tf.math.add_370/Add/y"], "device": "/device:CPU:0", "attr": {"T": {"type": "DT_FLOAT"}, "explicit_paddings": {"list": {}}, "epsilon": {"f": 0.0}, "padding": {"s": "U0FNRQ=="}, "use_cudnn_on_gpu": {"b": true}, "filter_format": {"s": "SFdJTw=="}, "dilations": {"list": {"i": ["1", "1", "1", "1"]}}, "data_format": {"s": "TkhXQw=="}, "TArgs": {"list": {"type": ["DT_FLOAT"]}}, "leakyrelu_alpha": {"f": 0.2}, "num_args": {"i": "1"}, "fused_ops": {"list": {"s": ["Qmlhc0FkZA=="]}}, "num_host_args": {"i": "0"}, "strides": {"list": {"i": ["1", "1", "1", "1"]}}}}, {"name": "model_109/tf.math.sigmoid_266/Sigmoid", "op": "Sigmoid", "input": ["model_109/tf.math.add_370/Add"], "attr": {"T": {"type": "DT_FLOAT"}}}, {"name": "model_109/tf.math.multiply_1163/Mul", "op": "Mul", "input": ["model_109/tf.math.add_370/Add", "model_109/tf.math.sigmoid_266/Sigmoid"], "attr": {"T": {"type": "DT_FLOAT"}}}, {"name": "model_109/tf.math.add_372/Add", "op": "_FusedConv2D", "input": ["model_109/tf.math.multiply_1163/Mul", "model_109/tf.nn.convolution_308/convolution/filter", "model_109/tf.math.add_372/Add/y"], "device": "/device:CPU:0", "attr": {"TArgs": {"list": {"type": ["DT_FLOAT"]}}, "dilations": {"list": {"i": ["1", "1", "1", "1"]}}, "fused_ops": {"list": {"s": ["Qmlhc0FkZA=="]}}, "epsilon": {"f": 0.0}, "padding": {"s": "U0FNRQ=="}, "data_format": {"s": "TkhXQw=="}, "filter_format": {"s": "SFdJTw=="}, "leakyrelu_alpha": {"f": 0.2}, "T": {"type": "DT_FLOAT"}, "num_args": {"i": "1"}, "num_host_args": {"i": "0"}, "use_cudnn_on_gpu": {"b": true}, "explicit_paddings": {"list": {}}, "strides": {"list": {"i": ["1", "1", "1", "1"]}}}}, {"name": "model_109/tf.math.add_373/Add", "op": "_FusedConv2D", "input": ["model_109/tf.math.multiply_1163/Mul", "model_109/tf.nn.convolution_309/convolution/filter", "model_109/tf.math.add_373/Add/y"], "device": "/device:CPU:0", "attr": {"dilations": {"list": {"i": ["1", "1", "1", "1"]}}, "num_args": {"i": "1"}, "data_format": {"s": "TkhXQw=="}, "fused_ops": {"list": {"s": ["Qmlhc0FkZA=="]}}, "TArgs": {"list": {"type": ["DT_FLOAT"]}}, "epsilon": {"f": 0.0}, "use_cudnn_on_gpu": {"b": true}, "padding": {"s": "U0FNRQ=="}, "leakyrelu_alpha": {"f": 0.2}, "filter_format": {"s": "SFdJTw=="}, "T": {"type": "DT_FLOAT"}, "num_host_args": {"i": "0"}, "strides": {"list": {"i": ["1", "1", "1", "1"]}}, "explicit_paddings": {"list": {}}}}, {"name": "model_109/tf.compat.v1.pad_33/Pad", "op": "Pad", "input": ["model_109/tf.math.multiply_1163/Mul", "model_109/tf.compat.v1.pad_33/Pad/paddings"], "attr": {"T": {"type": "DT_FLOAT"}, "Tpaddings": {"type": "DT_INT32"}}}, {"name": "model_109/tf.math.sigmoid_268/Sigmoid", "op": "Sigmoid", "input": ["model_109/tf.math.add_372/Add"], "attr": {"T": {"type": "DT_FLOAT"}}}, {"name": "model_109/tf.math.sigmoid_269/Sigmoid", "op": "Sigmoid", "input": ["model_109/tf.math.add_373/Add"], "attr": {"T": {"type": "DT_FLOAT"}}}, {"name": "model_109/tf.math.add_371/Add", "op": "_FusedConv2D", "input": ["model_109/tf.compat.v1.pad_33/Pad", "model_109/tf.nn.convolution_307/convolution/filter", "model_109/tf.math.add_371/Add/y"], "device": "/device:CPU:0", "attr": {"T": {"type": "DT_FLOAT"}, "data_format": {"s": "TkhXQw=="}, "filter_format": {"s": "SFdJTw=="}, "dilations": {"list": {"i": ["1", "1", "1", "1"]}}, "explicit_paddings": {"list": {}}, "num_args": {"i": "1"}, "epsilon": {"f": 0.0}, "fused_ops": {"list": {"s": ["Qmlhc0FkZA=="]}}, "padding": {"s": "VkFMSUQ="}, "num_host_args": {"i": "0"}, "leakyrelu_alpha": {"f": 0.2}, "TArgs": {"list": {"type": ["DT_FLOAT"]}}, "use_cudnn_on_gpu": {"b": true}, "strides": {"list": {"i": ["1", "2", "2", "1"]}}}}, {"name": "model_109/tf.math.multiply_1171/Mul", "op": "Mul", "input": ["model_109/tf.math.add_372/Add", "model_109/tf.math.sigmoid_268/Sigmoid"], "attr": {"T": {"type": "DT_FLOAT"}}}, {"name": "model_109/tf.math.multiply_1175/Mul", "op": "Mul", "input": ["model_109/tf.math.add_373/Add", "model_109/tf.math.sigmoid_269/Sigmoid"], "attr": {"T": {"type": "DT_FLOAT"}}}, {"name": "model_109/tf.math.sigmoid_267/Sigmoid", "op": "Sigmoid", "input": ["model_109/tf.math.add_371/Add"], "attr": {"T": {"type": "DT_FLOAT"}}}, {"name": "model_109/tf.math.add_374/Add", "op": "_FusedConv2D", "input": ["model_109/tf.math.multiply_1171/Mul", "model_109/tf.nn.convolution_310/convolution/filter", "model_109/tf.math.add_374/Add/y"], "device": "/device:CPU:0", "attr": {"strides": {"list": {"i": ["1", "1", "1", "1"]}}, "explicit_paddings": {"list": {}}, "fused_ops": {"list": {"s": ["Qmlhc0FkZA=="]}}, "use_cudnn_on_gpu": {"b": true}, "data_format": {"s": "TkhXQw=="}, "num_args": {"i": "1"}, "TArgs": {"list": {"type": ["DT_FLOAT"]}}, "filter_format": {"s": "SFdJTw=="}, "padding": {"s": "U0FNRQ=="}, "leakyrelu_alpha": {"f": 0.2}, "dilations": {"list": {"i": ["1", "1", "1", "1"]}}, "T": {"type": "DT_FLOAT"}, "epsilon": {"f": 0.0}, "num_host_args": {"i": "0"}}}, {"name": "model_109/tf.math.add_377/Add", "op": "_FusedConv2D", "input": ["model_109/tf.math.multiply_1175/Mul", "model_109/tf.nn.convolution_313/convolution/filter", "model_109/tf.math.add_377/Add/y"], "device": "/device:CPU:0", "attr": {"padding": {"s": "U0FNRQ=="}, "filter_format": {"s": "SFdJTw=="}, "leakyrelu_alpha": {"f": 0.2}, "strides": {"list": {"i": ["1", "1", "1", "1"]}}, "explicit_paddings": {"list": {}}, "T": {"type": "DT_FLOAT"}, "epsilon": {"f": 0.0}, "TArgs": {"list": {"type": ["DT_FLOAT"]}}, "dilations": {"list": {"i": ["1", "1", "1", "1"]}}, "data_format": {"s": "TkhXQw=="}, "use_cudnn_on_gpu": {"b": true}, "num_host_args": {"i": "0"}, "fused_ops": {"list": {"s": ["Qmlhc0FkZA=="]}}, "num_args": {"i": "1"}}}, {"name": "model_109/tf.math.multiply_1167/Mul", "op": "Mul", "input": ["model_109/tf.math.add_371/Add", "model_109/tf.math.sigmoid_267/Sigmoid"], "attr": {"T": {"type": "DT_FLOAT"}}}, {"name": "model_109/tf.math.sigmoid_270/Sigmoid", "op": "Sigmoid", "input": ["model_109/tf.math.add_374/Add"], "attr": {"T": {"type": "DT_FLOAT"}}}, {"name": "model_109/tf.math.sigmoid_271/Sigmoid", "op": "Sigmoid", "input": ["model_109/tf.math.add_377/Add"], "attr": {"T": {"type": "DT_FLOAT"}}}, {"name": "model_109/tf.concat_105/concat", "op": "ConcatV2", "input": ["model_109/tf.math.multiply_1167/Mul", "model_109/tf.math.multiply_1147/Mul", "model_109/tf.concat_105/concat/axis"], "attr": {"N": {"i": "2"}, "T": {"type": "DT_FLOAT"}, "Tidx": {"type": "DT_INT32"}}}, {"name": "model_109/tf.math.multiply_1179/Mul", "op": "Mul", "input": ["model_109/tf.math.add_374/Add", "model_109/tf.math.sigmoid_270/Sigmoid"], "attr": {"T": {"type": "DT_FLOAT"}}}, {"name": "model_109/tf.math.multiply_1183/Mul", "op": "Mul", "input": ["model_109/tf.math.add_377/Add", "model_109/tf.math.sigmoid_271/Sigmoid"], "attr": {"T": {"type": "DT_FLOAT"}}}, {"name": "model_109/tf.math.add_378/Add", "op": "_FusedConv2D", "input": ["model_109/tf.concat_105/concat", "model_109/tf.nn.convolution_314/convolution/filter", "model_109/tf.math.add_378/Add/y"], "device": "/device:CPU:0", "attr": {"fused_ops": {"list": {"s": ["Qmlhc0FkZA=="]}}, "T": {"type": "DT_FLOAT"}, "leakyrelu_alpha": {"f": 0.2}, "num_host_args": {"i": "0"}, "explicit_paddings": {"list": {}}, "use_cudnn_on_gpu": {"b": true}, "num_args": {"i": "1"}, "padding": {"s": "U0FNRQ=="}, "filter_format": {"s": "SFdJTw=="}, "dilations": {"list": {"i": ["1", "1", "1", "1"]}}, "data_format": {"s": "TkhXQw=="}, "strides": {"list": {"i": ["1", "1", "1", "1"]}}, "epsilon": {"f": 0.0}, "TArgs": {"list": {"type": ["DT_FLOAT"]}}}}, {"name": "model_109/tf.math.add_379/Add", "op": "_FusedConv2D", "input": ["model_109/tf.math.multiply_1179/Mul", "model_109/tf.nn.convolution_315/convolution/filter", "model_109/tf.math.add_379/Add/y"], "device": "/device:CPU:0", "attr": {"num_host_args": {"i": "0"}, "num_args": {"i": "1"}, "padding": {"s": "U0FNRQ=="}, "leakyrelu_alpha": {"f": 0.2}, "TArgs": {"list": {"type": ["DT_FLOAT"]}}, "dilations": {"list": {"i": ["1", "1", "1", "1"]}}, "filter_format": {"s": "SFdJTw=="}, "data_format": {"s": "TkhXQw=="}, "epsilon": {"f": 0.0}, "strides": {"list": {"i": ["1", "1", "1", "1"]}}, "explicit_paddings": {"list": {}}, "fused_ops": {"list": {"s": ["Qmlhc0FkZA=="]}}, "use_cudnn_on_gpu": {"b": true}, "T": {"type": "DT_FLOAT"}}}, {"name": "model_109/tf.math.add_382/Add", "op": "_FusedConv2D", "input": ["model_109/tf.math.multiply_1183/Mul", "model_109/tf.nn.convolution_318/convolution/filter", "model_109/tf.math.add_382/Add/y"], "device": "/device:CPU:0", "attr": {"T": {"type": "DT_FLOAT"}, "strides": {"list": {"i": ["1", "1", "1", "1"]}}, "dilations": {"list": {"i": ["1", "1", "1", "1"]}}, "padding": {"s": "U0FNRQ=="}, "use_cudnn_on_gpu": {"b": true}, "num_host_args": {"i": "0"}, "num_args": {"i": "1"}, "epsilon": {"f": 0.0}, "explicit_paddings": {"list": {}}, "filter_format": {"s": "SFdJTw=="}, "data_format": {"s": "TkhXQw=="}, "leakyrelu_alpha": {"f": 0.2}, "TArgs": {"list": {"type": ["DT_FLOAT"]}}, "fused_ops": {"list": {"s": ["Qmlhc0FkZA=="]}}}}, {"name": "model_109/tf.math.sigmoid_272/Sigmoid", "op": "Sigmoid", "input": ["model_109/tf.math.add_378/Add"], "attr": {"T": {"type": "DT_FLOAT"}}}, {"name": "model_109/tf.concat_108/concat", "op": "ConcatV2", "input": ["model_109/tf.math.add_379/Add", "model_109/tf.math.add_382/Add", "model_109/tf.concat_108/concat/axis"], "attr": {"Tidx": {"type": "DT_INT32"}, "T": {"type": "DT_FLOAT"}, "N": {"i": "2"}}}, {"name": "model_109/tf.math.multiply_1187/Mul", "op": "Mul", "input": ["model_109/tf.math.add_378/Add", "model_109/tf.math.sigmoid_272/Sigmoid"], "attr": {"T": {"type": "DT_FLOAT"}}}, {"name": "model_109/tf.compat.v1.transpose_144/transpose", "op": "Transpose", "input": ["model_109/tf.concat_108/concat", "model_109/tf.compat.v1.transpose_144/transpose/perm"], "attr": {"T": {"type": "DT_FLOAT"}, "Tperm": {"type": "DT_INT32"}}}, {"name": "model_109/tf.strided_slice_92/StridedSlice", "op": "StridedSlice", "input": ["model_109/tf.math.multiply_1187/Mul", "model_109/tf.strided_slice_92/ones_like/tensor", "model_109/tf.strided_slice_92/StridedSlice/end", "model_109/tf.strided_slice_92/ones_like"], "attr": {"T": {"type": "DT_FLOAT"}, "new_axis_mask": {"i": "0"}, "shrink_axis_mask": {"i": "0"}, "Index": {"type": "DT_INT64"}, "ellipsis_mask": {"i": "0"}, "begin_mask": {"i": "15"}, "end_mask": {"i": "7"}}}, {"name": "model_109/tf.strided_slice_93/StridedSlice", "op": "StridedSlice", "input": ["model_109/tf.math.multiply_1187/Mul", "model_109/tf.strided_slice_93/ones_like/tensor", "model_109/tf.strided_slice_93/StridedSlice/end", "model_109/tf.strided_slice_93/ones_like"], "attr": {"T": {"type": "DT_FLOAT"}, "ellipsis_mask": {"i": "0"}, "Index": {"type": "DT_INT64"}, "begin_mask": {"i": "7"}, "shrink_axis_mask": {"i": "0"}, "new_axis_mask": {"i": "0"}, "end_mask": {"i": "7"}}}, {"name": "model_109/tf.reshape_62/Reshape", "op": "Reshape", "input": ["model_109/tf.compat.v1.transpose_144/transpose", "model_109/tf.reshape_62/Reshape/shape"], "attr": {"Tshape": {"type": "DT_INT32"}, "T": {"type": "DT_FLOAT"}}}, {"name": "model_109/tf.math.add_383/Add", "op": "_FusedConv2D", "input": ["model_109/tf.strided_slice_93/StridedSlice", "model_109/tf.nn.convolution_319/convolution/filter", "model_109/tf.math.add_383/Add/y"], "device": "/device:CPU:0", "attr": {"strides": {"list": {"i": ["1", "1", "1", "1"]}}, "leakyrelu_alpha": {"f": 0.2}, "num_args": {"i": "1"}, "T": {"type": "DT_FLOAT"}, "dilations": {"list": {"i": ["1", "1", "1", "1"]}}, "fused_ops": {"list": {"s": ["Qmlhc0FkZA=="]}}, "data_format": {"s": "TkhXQw=="}, "explicit_paddings": {"list": {}}, "TArgs": {"list": {"type": ["DT_FLOAT"]}}, "padding": {"s": "U0FNRQ=="}, "num_host_args": {"i": "0"}, "epsilon": {"f": 0.0}, "use_cudnn_on_gpu": {"b": true}, "filter_format": {"s": "SFdJTw=="}}}, {"name": "model_109/tf.math.sigmoid_273/Sigmoid", "op": "Sigmoid", "input": ["model_109/tf.math.add_383/Add"], "attr": {"T": {"type": "DT_FLOAT"}}}, {"name": "model_109/tf.math.multiply_1191/Mul", "op": "Mul", "input": ["model_109/tf.math.add_383/Add", "model_109/tf.math.sigmoid_273/Sigmoid"], "attr": {"T": {"type": "DT_FLOAT"}}}, {"name": "model_109/tf.math.add_384/Add", "op": "_FusedConv2D", "input": ["model_109/tf.math.multiply_1191/Mul", "model_109/tf.nn.convolution_320/convolution/filter", "model_109/tf.math.add_384/Add/y"], "device": "/device:CPU:0", "attr": {"fused_ops": {"list": {"s": ["Qmlhc0FkZA=="]}}, "use_cudnn_on_gpu": {"b": true}, "TArgs": {"list": {"type": ["DT_FLOAT"]}}, "leakyrelu_alpha": {"f": 0.2}, "data_format": {"s": "TkhXQw=="}, "filter_format": {"s": "SFdJTw=="}, "dilations": {"list": {"i": ["1", "1", "1", "1"]}}, "T": {"type": "DT_FLOAT"}, "explicit_paddings": {"list": {}}, "num_args": {"i": "1"}, "num_host_args": {"i": "0"}, "epsilon": {"f": 0.0}, "padding": {"s": "U0FNRQ=="}, "strides": {"list": {"i": ["1", "1", "1", "1"]}}}}, {"name": "model_109/tf.math.sigmoid_274/Sigmoid", "op": "Sigmoid", "input": ["model_109/tf.math.add_384/Add"], "attr": {"T": {"type": "DT_FLOAT"}}}, {"name": "model_109/tf.math.multiply_1195/Mul", "op": "Mul", "input": ["model_109/tf.math.add_384/Add", "model_109/tf.math.sigmoid_274/Sigmoid"], "attr": {"T": {"type": "DT_FLOAT"}}}, {"name": "model_109/tf.concat_109/concat", "op": "ConcatV2", "input": ["model_109/tf.strided_slice_92/StridedSlice", "model_109/tf.strided_slice_93/StridedSlice", "model_109/tf.math.multiply_1195/Mul", "model_109/tf.concat_109/concat/axis"], "attr": {"T": {"type": "DT_FLOAT"}, "N": {"i": "3"}, "Tidx": {"type": "DT_INT32"}}}, {"name": "model_109/tf.math.add_385/Add", "op": "_FusedConv2D", "input": ["model_109/tf.concat_109/concat", "model_109/tf.nn.convolution_321/convolution/filter", "model_109/tf.math.add_385/Add/y"], "device": "/device:CPU:0", "attr": {"num_args": {"i": "1"}, "use_cudnn_on_gpu": {"b": true}, "T": {"type": "DT_FLOAT"}, "TArgs": {"list": {"type": ["DT_FLOAT"]}}, "data_format": {"s": "TkhXQw=="}, "filter_format": {"s": "SFdJTw=="}, "num_host_args": {"i": "0"}, "padding": {"s": "U0FNRQ=="}, "epsilon": {"f": 0.0}, "strides": {"list": {"i": ["1", "1", "1", "1"]}}, "explicit_paddings": {"list": {}}, "dilations": {"list": {"i": ["1", "1", "1", "1"]}}, "fused_ops": {"list": {"s": ["Qmlhc0FkZA=="]}}, "leakyrelu_alpha": {"f": 0.2}}}, {"name": "model_109/tf.math.sigmoid_275/Sigmoid", "op": "Sigmoid", "input": ["model_109/tf.math.add_385/Add"], "attr": {"T": {"type": "DT_FLOAT"}}}, {"name": "model_109/tf.math.multiply_1199/Mul", "op": "Mul", "input": ["model_109/tf.math.add_385/Add", "model_109/tf.math.sigmoid_275/Sigmoid"], "attr": {"T": {"type": "DT_FLOAT"}}}, {"name": "model_109/tf.math.add_387/Add", "op": "_FusedConv2D", "input": ["model_109/tf.math.multiply_1199/Mul", "model_109/tf.nn.convolution_323/convolution/filter", "model_109/tf.math.add_387/Add/y"], "device": "/device:CPU:0", "attr": {"strides": {"list": {"i": ["1", "1", "1", "1"]}}, "filter_format": {"s": "SFdJTw=="}, "explicit_paddings": {"list": {}}, "num_host_args": {"i": "0"}, "data_format": {"s": "TkhXQw=="}, "epsilon": {"f": 0.0}, "fused_ops": {"list": {"s": ["Qmlhc0FkZA=="]}}, "T": {"type": "DT_FLOAT"}, "dilations": {"list": {"i": ["1", "1", "1", "1"]}}, "TArgs": {"list": {"type": ["DT_FLOAT"]}}, "leakyrelu_alpha": {"f": 0.2}, "use_cudnn_on_gpu": {"b": true}, "padding": {"s": "U0FNRQ=="}, "num_args": {"i": "1"}}}, {"name": "model_109/tf.math.add_388/Add", "op": "_FusedConv2D", "input": ["model_109/tf.math.multiply_1199/Mul", "model_109/tf.nn.convolution_324/convolution/filter", "model_109/tf.math.add_388/Add/y"], "device": "/device:CPU:0", "attr": {"data_format": {"s": "TkhXQw=="}, "explicit_paddings": {"list": {}}, "fused_ops": {"list": {"s": ["Qmlhc0FkZA=="]}}, "use_cudnn_on_gpu": {"b": true}, "padding": {"s": "U0FNRQ=="}, "TArgs": {"list": {"type": ["DT_FLOAT"]}}, "num_args": {"i": "1"}, "T": {"type": "DT_FLOAT"}, "dilations": {"list": {"i": ["1", "1", "1", "1"]}}, "epsilon": {"f": 0.0}, "num_host_args": {"i": "0"}, "leakyrelu_alpha": {"f": 0.2}, "filter_format": {"s": "SFdJTw=="}, "strides": {"list": {"i": ["1", "1", "1", "1"]}}}}, {"name": "model_109/tf.compat.v1.pad_34/Pad", "op": "Pad", "input": ["model_109/tf.math.multiply_1199/Mul", "model_109/tf.compat.v1.pad_34/Pad/paddings"], "attr": {"T": {"type": "DT_FLOAT"}, "Tpaddings": {"type": "DT_INT32"}}}, {"name": "model_109/tf.math.sigmoid_277/Sigmoid", "op": "Sigmoid", "input": ["model_109/tf.math.add_387/Add"], "attr": {"T": {"type": "DT_FLOAT"}}}, {"name": "model_109/tf.math.sigmoid_278/Sigmoid", "op": "Sigmoid", "input": ["model_109/tf.math.add_388/Add"], "attr": {"T": {"type": "DT_FLOAT"}}}, {"name": "model_109/tf.math.add_386/Add", "op": "_FusedConv2D", "input": ["model_109/tf.compat.v1.pad_34/Pad", "model_109/tf.nn.convolution_322/convolution/filter", "model_109/tf.math.add_386/Add/y"], "device": "/device:CPU:0", "attr": {"num_args": {"i": "1"}, "TArgs": {"list": {"type": ["DT_FLOAT"]}}, "strides": {"list": {"i": ["1", "2", "2", "1"]}}, "use_cudnn_on_gpu": {"b": true}, "num_host_args": {"i": "0"}, "dilations": {"list": {"i": ["1", "1", "1", "1"]}}, "data_format": {"s": "TkhXQw=="}, "epsilon": {"f": 0.0}, "fused_ops": {"list": {"s": ["Qmlhc0FkZA=="]}}, "padding": {"s": "VkFMSUQ="}, "leakyrelu_alpha": {"f": 0.2}, "explicit_paddings": {"list": {}}, "filter_format": {"s": "SFdJTw=="}, "T": {"type": "DT_FLOAT"}}}, {"name": "model_109/tf.math.multiply_1207/Mul", "op": "Mul", "input": ["model_109/tf.math.add_387/Add", "model_109/tf.math.sigmoid_277/Sigmoid"], "attr": {"T": {"type": "DT_FLOAT"}}}, {"name": "model_109/tf.math.multiply_1211/Mul", "op": "Mul", "input": ["model_109/tf.math.add_388/Add", "model_109/tf.math.sigmoid_278/Sigmoid"], "attr": {"T": {"type": "DT_FLOAT"}}}, {"name": "model_109/tf.math.sigmoid_276/Sigmoid", "op": "Sigmoid", "input": ["model_109/tf.math.add_386/Add"], "attr": {"T": {"type": "DT_FLOAT"}}}, {"name": "model_109/tf.math.add_389/Add", "op": "_FusedConv2D", "input": ["model_109/tf.math.multiply_1207/Mul", "model_109/tf.nn.convolution_325/convolution/filter", "model_109/tf.math.add_389/Add/y"], "device": "/device:CPU:0", "attr": {"T": {"type": "DT_FLOAT"}, "padding": {"s": "U0FNRQ=="}, "data_format": {"s": "TkhXQw=="}, "leakyrelu_alpha": {"f": 0.2}, "fused_ops": {"list": {"s": ["Qmlhc0FkZA=="]}}, "num_host_args": {"i": "0"}, "strides": {"list": {"i": ["1", "1", "1", "1"]}}, "dilations": {"list": {"i": ["1", "1", "1", "1"]}}, "use_cudnn_on_gpu": {"b": true}, "TArgs": {"list": {"type": ["DT_FLOAT"]}}, "filter_format": {"s": "SFdJTw=="}, "epsilon": {"f": 0.0}, "num_args": {"i": "1"}, "explicit_paddings": {"list": {}}}}, {"name": "model_109/tf.math.add_390/Add", "op": "_FusedConv2D", "input": ["model_109/tf.math.multiply_1211/Mul", "model_109/tf.nn.convolution_326/convolution/filter", "model_109/tf.math.add_390/Add/y"], "device": "/device:CPU:0", "attr": {"filter_format": {"s": "SFdJTw=="}, "TArgs": {"list": {"type": ["DT_FLOAT"]}}, "explicit_paddings": {"list": {}}, "epsilon": {"f": 0.0}, "strides": {"list": {"i": ["1", "1", "1", "1"]}}, "leakyrelu_alpha": {"f": 0.2}, "data_format": {"s": "TkhXQw=="}, "fused_ops": {"list": {"s": ["Qmlhc0FkZA=="]}}, "num_args": {"i": "1"}, "dilations": {"list": {"i": ["1", "1", "1", "1"]}}, "num_host_args": {"i": "0"}, "T": {"type": "DT_FLOAT"}, "padding": {"s": "U0FNRQ=="}, "use_cudnn_on_gpu": {"b": true}}}, {"name": "model_109/tf.math.multiply_1203/Mul", "op": "Mul", "input": ["model_109/tf.math.add_386/Add", "model_109/tf.math.sigmoid_276/Sigmoid"], "attr": {"T": {"type": "DT_FLOAT"}}}, {"name": "model_109/tf.math.sigmoid_279/Sigmoid", "op": "Sigmoid", "input": ["model_109/tf.math.add_389/Add"], "attr": {"T": {"type": "DT_FLOAT"}}}, {"name": "model_109/tf.math.sigmoid_280/Sigmoid", "op": "Sigmoid", "input": ["model_109/tf.math.add_390/Add"], "attr": {"T": {"type": "DT_FLOAT"}}}, {"name": "model_109/tf.concat_110/concat", "op": "ConcatV2", "input": ["model_109/tf.math.multiply_1203/Mul", "model_109/tf.math.multiply_1131/Mul", "model_109/tf.concat_110/concat/axis"], "attr": {"N": {"i": "2"}, "Tidx": {"type": "DT_INT32"}, "T": {"type": "DT_FLOAT"}}}, {"name": "model_109/tf.math.multiply_1215/Mul", "op": "Mul", "input": ["model_109/tf.math.add_389/Add", "model_109/tf.math.sigmoid_279/Sigmoid"], "attr": {"T": {"type": "DT_FLOAT"}}}, {"name": "model_109/tf.math.multiply_1219/Mul", "op": "Mul", "input": ["model_109/tf.math.add_390/Add", "model_109/tf.math.sigmoid_280/Sigmoid"], "attr": {"T": {"type": "DT_FLOAT"}}}, {"name": "model_109/tf.math.add_391/Add", "op": "_FusedConv2D", "input": ["model_109/tf.concat_110/concat", "model_109/tf.nn.convolution_327/convolution/filter", "model_109/tf.math.add_391/Add/y"], "device": "/device:CPU:0", "attr": {"padding": {"s": "U0FNRQ=="}, "filter_format": {"s": "SFdJTw=="}, "explicit_paddings": {"list": {}}, "dilations": {"list": {"i": ["1", "1", "1", "1"]}}, "num_args": {"i": "1"}, "strides": {"list": {"i": ["1", "1", "1", "1"]}}, "use_cudnn_on_gpu": {"b": true}, "num_host_args": {"i": "0"}, "T": {"type": "DT_FLOAT"}, "leakyrelu_alpha": {"f": 0.2}, "fused_ops": {"list": {"s": ["Qmlhc0FkZA=="]}}, "epsilon": {"f": 0.0}, "data_format": {"s": "TkhXQw=="}, "TArgs": {"list": {"type": ["DT_FLOAT"]}}}}, {"name": "model_109/tf.math.add_392/Add", "op": "_FusedConv2D", "input": ["model_109/tf.math.multiply_1215/Mul", "model_109/tf.nn.convolution_328/convolution/filter", "model_109/tf.math.add_392/Add/y"], "device": "/device:CPU:0", "attr": {"data_format": {"s": "TkhXQw=="}, "use_cudnn_on_gpu": {"b": true}, "TArgs": {"list": {"type": ["DT_FLOAT"]}}, "leakyrelu_alpha": {"f": 0.2}, "T": {"type": "DT_FLOAT"}, "strides": {"list": {"i": ["1", "1", "1", "1"]}}, "padding": {"s": "U0FNRQ=="}, "num_args": {"i": "1"}, "filter_format": {"s": "SFdJTw=="}, "dilations": {"list": {"i": ["1", "1", "1", "1"]}}, "epsilon": {"f": 0.0}, "explicit_paddings": {"list": {}}, "fused_ops": {"list": {"s": ["Qmlhc0FkZA=="]}}, "num_host_args": {"i": "0"}}}, {"name": "model_109/tf.math.add_393/Add", "op": "_FusedConv2D", "input": ["model_109/tf.math.multiply_1219/Mul", "model_109/tf.nn.convolution_329/convolution/filter", "model_109/tf.math.add_393/Add/y"], "device": "/device:CPU:0", "attr": {"explicit_paddings": {"list": {}}, "TArgs": {"list": {"type": ["DT_FLOAT"]}}, "fused_ops": {"list": {"s": ["Qmlhc0FkZA=="]}}, "dilations": {"list": {"i": ["1", "1", "1", "1"]}}, "epsilon": {"f": 0.0}, "leakyrelu_alpha": {"f": 0.2}, "strides": {"list": {"i": ["1", "1", "1", "1"]}}, "num_host_args": {"i": "0"}, "num_args": {"i": "1"}, "use_cudnn_on_gpu": {"b": true}, "data_format": {"s": "TkhXQw=="}, "T": {"type": "DT_FLOAT"}, "filter_format": {"s": "SFdJTw=="}, "padding": {"s": "U0FNRQ=="}}}, {"name": "model_109/tf.math.sigmoid_281/Sigmoid", "op": "Sigmoid", "input": ["model_109/tf.math.add_391/Add"], "attr": {"T": {"type": "DT_FLOAT"}}}, {"name": "model_109/tf.concat_111/concat", "op": "ConcatV2", "input": ["model_109/tf.math.add_392/Add", "model_109/tf.math.add_393/Add", "model_109/tf.concat_111/concat/axis"], "attr": {"Tidx": {"type": "DT_INT32"}, "N": {"i": "2"}, "T": {"type": "DT_FLOAT"}}}, {"name": "model_109/tf.math.multiply_1223/Mul", "op": "Mul", "input": ["model_109/tf.math.add_391/Add", "model_109/tf.math.sigmoid_281/Sigmoid"], "attr": {"T": {"type": "DT_FLOAT"}}}, {"name": "model_109/tf.compat.v1.transpose_149/transpose", "op": "Transpose", "input": ["model_109/tf.concat_111/concat", "model_109/tf.compat.v1.transpose_149/transpose/perm"], "attr": {"Tperm": {"type": "DT_INT32"}, "T": {"type": "DT_FLOAT"}}}, {"name": "model_109/tf.strided_slice_94/StridedSlice", "op": "StridedSlice", "input": ["model_109/tf.math.multiply_1223/Mul", "model_109/tf.strided_slice_94/ones_like/tensor", "model_109/tf.strided_slice_94/StridedSlice/end", "model_109/tf.strided_slice_94/ones_like"], "attr": {"new_axis_mask": {"i": "0"}, "end_mask": {"i": "7"}, "begin_mask": {"i": "15"}, "Index": {"type": "DT_INT64"}, "T": {"type": "DT_FLOAT"}, "ellipsis_mask": {"i": "0"}, "shrink_axis_mask": {"i": "0"}}}, {"name": "model_109/tf.strided_slice_95/StridedSlice", "op": "StridedSlice", "input": ["model_109/tf.math.multiply_1223/Mul", "model_109/tf.strided_slice_95/ones_like/tensor", "model_109/tf.strided_slice_95/StridedSlice/end", "model_109/tf.strided_slice_95/ones_like"], "attr": {"end_mask": {"i": "7"}, "ellipsis_mask": {"i": "0"}, "shrink_axis_mask": {"i": "0"}, "new_axis_mask": {"i": "0"}, "T": {"type": "DT_FLOAT"}, "Index": {"type": "DT_INT64"}, "begin_mask": {"i": "7"}}}, {"name": "model_109/tf.reshape_65/Reshape", "op": "Reshape", "input": ["model_109/tf.compat.v1.transpose_149/transpose", "model_109/tf.reshape_65/Reshape/shape"], "attr": {"Tshape": {"type": "DT_INT32"}, "T": {"type": "DT_FLOAT"}}}, {"name": "model_109/tf.math.add_394/Add", "op": "_FusedConv2D", "input": ["model_109/tf.strided_slice_95/StridedSlice", "model_109/tf.nn.convolution_330/convolution/filter", "model_109/tf.math.add_394/Add/y"], "device": "/device:CPU:0", "attr": {"TArgs": {"list": {"type": ["DT_FLOAT"]}}, "data_format": {"s": "TkhXQw=="}, "dilations": {"list": {"i": ["1", "1", "1", "1"]}}, "epsilon": {"f": 0.0}, "fused_ops": {"list": {"s": ["Qmlhc0FkZA=="]}}, "use_cudnn_on_gpu": {"b": true}, "leakyrelu_alpha": {"f": 0.2}, "num_args": {"i": "1"}, "explicit_paddings": {"list": {}}, "filter_format": {"s": "SFdJTw=="}, "strides": {"list": {"i": ["1", "1", "1", "1"]}}, "padding": {"s": "U0FNRQ=="}, "num_host_args": {"i": "0"}, "T": {"type": "DT_FLOAT"}}}, {"name": "model_109/tf.math.sigmoid_282/Sigmoid", "op": "Sigmoid", "input": ["model_109/tf.math.add_394/Add"], "attr": {"T": {"type": "DT_FLOAT"}}}, {"name": "model_109/tf.math.multiply_1227/Mul", "op": "Mul", "input": ["model_109/tf.math.add_394/Add", "model_109/tf.math.sigmoid_282/Sigmoid"], "attr": {"T": {"type": "DT_FLOAT"}}}, {"name": "model_109/tf.math.add_395/Add", "op": "_FusedConv2D", "input": ["model_109/tf.math.multiply_1227/Mul", "model_109/tf.nn.convolution_331/convolution/filter", "model_109/tf.math.add_395/Add/y"], "device": "/device:CPU:0", "attr": {"filter_format": {"s": "SFdJTw=="}, "num_host_args": {"i": "0"}, "data_format": {"s": "TkhXQw=="}, "TArgs": {"list": {"type": ["DT_FLOAT"]}}, "epsilon": {"f": 0.0}, "use_cudnn_on_gpu": {"b": true}, "strides": {"list": {"i": ["1", "1", "1", "1"]}}, "padding": {"s": "U0FNRQ=="}, "num_args": {"i": "1"}, "fused_ops": {"list": {"s": ["Qmlhc0FkZA=="]}}, "leakyrelu_alpha": {"f": 0.2}, "T": {"type": "DT_FLOAT"}, "dilations": {"list": {"i": ["1", "1", "1", "1"]}}, "explicit_paddings": {"list": {}}}}, {"name": "model_109/tf.math.sigmoid_283/Sigmoid", "op": "Sigmoid", "input": ["model_109/tf.math.add_395/Add"], "attr": {"T": {"type": "DT_FLOAT"}}}, {"name": "model_109/tf.math.multiply_1231/Mul", "op": "Mul", "input": ["model_109/tf.math.add_395/Add", "model_109/tf.math.sigmoid_283/Sigmoid"], "attr": {"T": {"type": "DT_FLOAT"}}}, {"name": "model_109/tf.concat_112/concat", "op": "ConcatV2", "input": ["model_109/tf.strided_slice_94/StridedSlice", "model_109/tf.strided_slice_95/StridedSlice", "model_109/tf.math.multiply_1231/Mul", "model_109/tf.concat_112/concat/axis"], "attr": {"T": {"type": "DT_FLOAT"}, "Tidx": {"type": "DT_INT32"}, "N": {"i": "3"}}}, {"name": "model_109/tf.math.add_396/Add", "op": "_FusedConv2D", "input": ["model_109/tf.concat_112/concat", "model_109/tf.nn.convolution_332/convolution/filter", "model_109/tf.math.add_396/Add/y"], "device": "/device:CPU:0", "attr": {"data_format": {"s": "TkhXQw=="}, "leakyrelu_alpha": {"f": 0.2}, "num_args": {"i": "1"}, "TArgs": {"list": {"type": ["DT_FLOAT"]}}, "explicit_paddings": {"list": {}}, "T": {"type": "DT_FLOAT"}, "num_host_args": {"i": "0"}, "epsilon": {"f": 0.0}, "filter_format": {"s": "SFdJTw=="}, "fused_ops": {"list": {"s": ["Qmlhc0FkZA=="]}}, "use_cudnn_on_gpu": {"b": true}, "padding": {"s": "U0FNRQ=="}, "strides": {"list": {"i": ["1", "1", "1", "1"]}}, "dilations": {"list": {"i": ["1", "1", "1", "1"]}}}}, {"name": "model_109/tf.math.sigmoid_284/Sigmoid", "op": "Sigmoid", "input": ["model_109/tf.math.add_396/Add"], "attr": {"T": {"type": "DT_FLOAT"}}}, {"name": "model_109/tf.math.multiply_1235/Mul", "op": "Mul", "input": ["model_109/tf.math.add_396/Add", "model_109/tf.math.sigmoid_284/Sigmoid"], "attr": {"T": {"type": "DT_FLOAT"}}}, {"name": "model_109/tf.math.add_397/Add", "op": "_FusedConv2D", "input": ["model_109/tf.math.multiply_1235/Mul", "model_109/tf.nn.convolution_333/convolution/filter", "model_109/tf.math.add_397/Add/y"], "device": "/device:CPU:0", "attr": {"strides": {"list": {"i": ["1", "1", "1", "1"]}}, "data_format": {"s": "TkhXQw=="}, "filter_format": {"s": "SFdJTw=="}, "leakyrelu_alpha": {"f": 0.2}, "TArgs": {"list": {"type": ["DT_FLOAT"]}}, "use_cudnn_on_gpu": {"b": true}, "epsilon": {"f": 0.0}, "explicit_paddings": {"list": {}}, "num_host_args": {"i": "0"}, "num_args": {"i": "1"}, "padding": {"s": "U0FNRQ=="}, "fused_ops": {"list": {"s": ["Qmlhc0FkZA=="]}}, "T": {"type": "DT_FLOAT"}, "dilations": {"list": {"i": ["1", "1", "1", "1"]}}}}, {"name": "model_109/tf.math.add_398/Add", "op": "_FusedConv2D", "input": ["model_109/tf.math.multiply_1235/Mul", "model_109/tf.nn.convolution_334/convolution/filter", "model_109/tf.math.add_398/Add/y"], "device": "/device:CPU:0", "attr": {"use_cudnn_on_gpu": {"b": true}, "T": {"type": "DT_FLOAT"}, "num_host_args": {"i": "0"}, "dilations": {"list": {"i": ["1", "1", "1", "1"]}}, "filter_format": {"s": "SFdJTw=="}, "strides": {"list": {"i": ["1", "1", "1", "1"]}}, "explicit_paddings": {"list": {}}, "leakyrelu_alpha": {"f": 0.2}, "data_format": {"s": "TkhXQw=="}, "padding": {"s": "U0FNRQ=="}, "fused_ops": {"list": {"s": ["Qmlhc0FkZA=="]}}, "num_args": {"i": "1"}, "TArgs": {"list": {"type": ["DT_FLOAT"]}}, "epsilon": {"f": 0.0}}}, {"name": "model_109/tf.math.sigmoid_285/Sigmoid", "op": "Sigmoid", "input": ["model_109/tf.math.add_397/Add"], "attr": {"T": {"type": "DT_FLOAT"}}}, {"name": "model_109/tf.math.sigmoid_286/Sigmoid", "op": "Sigmoid", "input": ["model_109/tf.math.add_398/Add"], "attr": {"T": {"type": "DT_FLOAT"}}}, {"name": "model_109/tf.math.multiply_1239/Mul", "op": "Mul", "input": ["model_109/tf.math.add_397/Add", "model_109/tf.math.sigmoid_285/Sigmoid"], "attr": {"T": {"type": "DT_FLOAT"}}}, {"name": "model_109/tf.math.multiply_1243/Mul", "op": "Mul", "input": ["model_109/tf.math.add_398/Add", "model_109/tf.math.sigmoid_286/Sigmoid"], "attr": {"T": {"type": "DT_FLOAT"}}}, {"name": "model_109/tf.math.add_399/Add", "op": "_FusedConv2D", "input": ["model_109/tf.math.multiply_1239/Mul", "model_109/tf.nn.convolution_335/convolution/filter", "model_109/tf.math.add_399/Add/y"], "device": "/device:CPU:0", "attr": {"filter_format": {"s": "SFdJTw=="}, "data_format": {"s": "TkhXQw=="}, "strides": {"list": {"i": ["1", "1", "1", "1"]}}, "num_host_args": {"i": "0"}, "use_cudnn_on_gpu": {"b": true}, "T": {"type": "DT_FLOAT"}, "num_args": {"i": "1"}, "TArgs": {"list": {"type": ["DT_FLOAT"]}}, "dilations": {"list": {"i": ["1", "1", "1", "1"]}}, "padding": {"s": "U0FNRQ=="}, "epsilon": {"f": 0.0}, "leakyrelu_alpha": {"f": 0.2}, "fused_ops": {"list": {"s": ["Qmlhc0FkZA=="]}}, "explicit_paddings": {"list": {}}}}, {"name": "model_109/tf.math.add_400/Add", "op": "_FusedConv2D", "input": ["model_109/tf.math.multiply_1243/Mul", "model_109/tf.nn.convolution_336/convolution/filter", "model_109/tf.math.add_400/Add/y"], "device": "/device:CPU:0", "attr": {"num_host_args": {"i": "0"}, "num_args": {"i": "1"}, "T": {"type": "DT_FLOAT"}, "leakyrelu_alpha": {"f": 0.2}, "filter_format": {"s": "SFdJTw=="}, "explicit_paddings": {"list": {}}, "fused_ops": {"list": {"s": ["Qmlhc0FkZA=="]}}, "epsilon": {"f": 0.0}, "use_cudnn_on_gpu": {"b": true}, "strides": {"list": {"i": ["1", "1", "1", "1"]}}, "dilations": {"list": {"i": ["1", "1", "1", "1"]}}, "padding": {"s": "U0FNRQ=="}, "data_format": {"s": "TkhXQw=="}, "TArgs": {"list": {"type": ["DT_FLOAT"]}}}}, {"name": "model_109/tf.math.sigmoid_287/Sigmoid", "op": "Sigmoid", "input": ["model_109/tf.math.add_399/Add"], "attr": {"T": {"type": "DT_FLOAT"}}}, {"name": "model_109/tf.math.sigmoid_288/Sigmoid", "op": "Sigmoid", "input": ["model_109/tf.math.add_400/Add"], "attr": {"T": {"type": "DT_FLOAT"}}}, {"name": "model_109/tf.math.multiply_1247/Mul", "op": "Mul", "input": ["model_109/tf.math.add_399/Add", "model_109/tf.math.sigmoid_287/Sigmoid"], "attr": {"T": {"type": "DT_FLOAT"}}}, {"name": "model_109/tf.math.multiply_1251/Mul", "op": "Mul", "input": ["model_109/tf.math.add_400/Add", "model_109/tf.math.sigmoid_288/Sigmoid"], "attr": {"T": {"type": "DT_FLOAT"}}}, {"name": "model_109/tf.math.add_401/Add", "op": "_FusedConv2D", "input": ["model_109/tf.math.multiply_1247/Mul", "model_109/tf.nn.convolution_337/convolution/filter", "model_109/tf.math.add_401/Add/y"], "device": "/device:CPU:0", "attr": {"fused_ops": {"list": {"s": ["Qmlhc0FkZA=="]}}, "TArgs": {"list": {"type": ["DT_FLOAT"]}}, "num_host_args": {"i": "0"}, "leakyrelu_alpha": {"f": 0.2}, "explicit_paddings": {"list": {}}, "num_args": {"i": "1"}, "strides": {"list": {"i": ["1", "1", "1", "1"]}}, "data_format": {"s": "TkhXQw=="}, "use_cudnn_on_gpu": {"b": true}, "T": {"type": "DT_FLOAT"}, "epsilon": {"f": 0.0}, "dilations": {"list": {"i": ["1", "1", "1", "1"]}}, "padding": {"s": "U0FNRQ=="}, "filter_format": {"s": "SFdJTw=="}}}, {"name": "model_109/tf.math.add_402/Add", "op": "_FusedConv2D", "input": ["model_109/tf.math.multiply_1251/Mul", "model_109/tf.nn.convolution_338/convolution/filter", "model_109/tf.math.add_402/Add/y"], "device": "/device:CPU:0", "attr": {"strides": {"list": {"i": ["1", "1", "1", "1"]}}, "epsilon": {"f": 0.0}, "explicit_paddings": {"list": {}}, "data_format": {"s": "TkhXQw=="}, "leakyrelu_alpha": {"f": 0.2}, "use_cudnn_on_gpu": {"b": true}, "filter_format": {"s": "SFdJTw=="}, "dilations": {"list": {"i": ["1", "1", "1", "1"]}}, "padding": {"s": "U0FNRQ=="}, "num_host_args": {"i": "0"}, "fused_ops": {"list": {"s": ["Qmlhc0FkZA=="]}}, "T": {"type": "DT_FLOAT"}, "num_args": {"i": "1"}, "TArgs": {"list": {"type": ["DT_FLOAT"]}}}}, {"name": "model_109/tf.concat_113/concat", "op": "ConcatV2", "input": ["model_109/tf.math.add_401/Add", "model_109/tf.math.add_402/Add", "model_109/tf.concat_113/concat/axis"], "attr": {"Tidx": {"type": "DT_INT32"}, "N": {"i": "2"}, "T": {"type": "DT_FLOAT"}}}, {"name": "model_109/tf.compat.v1.transpose_154/transpose", "op": "Transpose", "input": ["model_109/tf.concat_113/concat", "model_109/tf.compat.v1.transpose_154/transpose/perm"], "attr": {"T": {"type": "DT_FLOAT"}, "Tperm": {"type": "DT_INT32"}}}, {"name": "model_109/tf.reshape_68/Reshape", "op": "Reshape", "input": ["model_109/tf.compat.v1.transpose_154/transpose", "model_109/tf.reshape_68/Reshape/shape"], "attr": {"T": {"type": "DT_FLOAT"}, "Tshape": {"type": "DT_INT32"}}}, {"name": "model_109/tf.concat_114/concat", "op": "ConcatV2", "input": ["model_109/tf.reshape_62/Reshape", "model_109/tf.reshape_65/Reshape", "model_109/tf.reshape_68/Reshape", "model_109/tf.concat_114/concat/axis"], "attr": {"T": {"type": "DT_FLOAT"}, "N": {"i": "3"}, "Tidx": {"type": "DT_INT32"}}}, {"name": "model_109/tf.strided_slice_97/StridedSlice", "op": "StridedSlice", "input": ["model_109/tf.concat_114/concat", "model_109/tf.strided_slice_97/StridedSlice/begin", "model_109/tf.strided_slice_97/StridedSlice/end", "model_109/tf.strided_slice_97/StridedSlice/strides"], "attr": {"begin_mask": {"i": "5"}, "T": {"type": "DT_FLOAT"}, "new_axis_mask": {"i": "0"}, "ellipsis_mask": {"i": "0"}, "shrink_axis_mask": {"i": "0"}, "Index": {"type": "DT_INT64"}, "end_mask": {"i": "5"}}}, {"name": "model_109/tf.strided_slice_96/StridedSlice", "op": "StridedSlice", "input": ["model_109/tf.concat_114/concat", "model_109/tf.strided_slice_96/StridedSlice/begin", "model_109/tf.strided_slice_96/StridedSlice/end", "model_109/tf.strided_slice_96/StridedSlice/strides"], "attr": {"shrink_axis_mask": {"i": "0"}, "begin_mask": {"i": "7"}, "Index": {"type": "DT_INT64"}, "T": {"type": "DT_FLOAT"}, "new_axis_mask": {"i": "0"}, "ellipsis_mask": {"i": "0"}, "end_mask": {"i": "5"}}}, {"name": "model_109/tf.math.sigmoid_289/Sigmoid", "op": "Sigmoid", "input": ["model_109/tf.strided_slice_97/StridedSlice"], "attr": {"T": {"type": "DT_FLOAT"}}}, {"name": "model_109/tf.reshape_71/Reshape", "op": "Reshape", "input": ["model_109/tf.strided_slice_96/StridedSlice", "model_109/tf.reshape_71/Reshape/shape"], "attr": {"Tshape": {"type": "DT_INT32"}, "T": {"type": "DT_FLOAT"}}}, {"name": "model_109/tf.compat.v1.transpose_161/transpose", "op": "Transpose", "input": ["model_109/tf.reshape_71/Reshape", "model_109/tf.compat.v1.transpose_161/transpose/perm"], "attr": {"T": {"type": "DT_FLOAT"}, "Tperm": {"type": "DT_INT32"}}}, {"name": "model_109/tf.compat.v1.transpose_162/transpose", "op": "Transpose", "input": ["model_109/tf.compat.v1.transpose_161/transpose", "model_109/tf.compat.v1.transpose_162/transpose/perm"], "attr": {"Tperm": {"type": "DT_INT32"}, "T": {"type": "DT_FLOAT"}}}, {"name": "model_109/tf.nn.softmax_4//model.22/dfl/Softmax", "op": "Softmax", "input": ["model_109/tf.compat.v1.transpose_162/transpose"], "attr": {"T": {"type": "DT_FLOAT"}}}, {"name": "model_109/tf.nn.convolution_339/convolution", "op": "Conv2D", "input": ["model_109/tf.nn.softmax_4//model.22/dfl/Softmax", "model_109/tf.nn.convolution_339/convolution/filter"], "device": "/device:CPU:0", "attr": {"explicit_paddings": {"list": {}}, "use_cudnn_on_gpu": {"b": true}, "dilations": {"list": {"i": ["1", "1", "1", "1"]}}, "data_format": {"s": "TkhXQw=="}, "T": {"type": "DT_FLOAT"}, "padding": {"s": "U0FNRQ=="}, "strides": {"list": {"i": ["1", "1", "1", "1"]}}}}, {"name": "model_109/tf.compat.v1.transpose_167/transpose", "op": "Transpose", "input": ["model_109/tf.nn.convolution_339/convolution", "model_109/tf.compat.v1.transpose_167/transpose/perm"], "attr": {"T": {"type": "DT_FLOAT"}, "Tperm": {"type": "DT_INT32"}}}, {"name": "model_109/tf.reshape_74/Reshape", "op": "Reshape", "input": ["model_109/tf.compat.v1.transpose_167/transpose", "model_109/tf.reshape_74/Reshape/shape"], "attr": {"T": {"type": "DT_FLOAT"}, "Tshape": {"type": "DT_INT32"}}}, {"name": "model_109/tf.strided_slice_99/StridedSlice", "op": "StridedSlice", "input": ["model_109/tf.reshape_74/Reshape", "model_109/tf.strided_slice_99/ones_like/tensor", "model_109/tf.strided_slice_99/StridedSlice/end", "model_109/tf.strided_slice_99/ones_like"], "attr": {"begin_mask": {"i": "5"}, "ellipsis_mask": {"i": "0"}, "shrink_axis_mask": {"i": "0"}, "new_axis_mask": {"i": "0"}, "Index": {"type": "DT_INT64"}, "T": {"type": "DT_FLOAT"}, "end_mask": {"i": "5"}}}, {"name": "model_109/tf.strided_slice_98/StridedSlice", "op": "StridedSlice", "input": ["model_109/tf.reshape_74/Reshape", "model_109/tf.strided_slice_98/ones_like/tensor", "model_109/tf.strided_slice_98/StridedSlice/end", "model_109/tf.strided_slice_98/ones_like"], "attr": {"T": {"type": "DT_FLOAT"}, "Index": {"type": "DT_INT64"}, "end_mask": {"i": "5"}, "shrink_axis_mask": {"i": "0"}, "new_axis_mask": {"i": "0"}, "ellipsis_mask": {"i": "0"}, "begin_mask": {"i": "7"}}}, {"name": "model_109/tf.math.add_403/Add", "op": "AddV2", "input": ["model_109/74084", "model_109/tf.strided_slice_99/StridedSlice"], "attr": {"T": {"type": "DT_FLOAT"}}}, {"name": "model_109/tf.math.subtract_8/Sub", "op": "Sub", "input": ["model_109/74087", "model_109/tf.strided_slice_98/StridedSlice"], "attr": {"T": {"type": "DT_FLOAT"}}}, {"name": "model_109/tf.math.add_404/Add", "op": "AddV2", "input": ["model_109/tf.math.subtract_8/Sub", "model_109/tf.math.add_403/Add"], "attr": {"T": {"type": "DT_FLOAT"}}}, {"name": "model_109/tf.math.subtract_9/Sub", "op": "Sub", "input": ["model_109/tf.math.add_403/Add", "model_109/tf.math.subtract_8/Sub"], "attr": {"T": {"type": "DT_FLOAT"}}}, {"name": "model_109/tf.math.divide_4/truediv", "op": "Mul", "input": ["model_109/tf.math.add_404/Add", "ConstantFolding/model_109/tf.math.divide_4/truediv_recip"], "attr": {"T": {"type": "DT_FLOAT"}}}, {"name": "model_109/tf.concat_118/concat", "op": "ConcatV2", "input": ["model_109/tf.math.divide_4/truediv", "model_109/tf.math.subtract_9/Sub", "model_109/tf.concat_118/concat/axis"], "attr": {"T": {"type": "DT_FLOAT"}, "N": {"i": "2"}, "Tidx": {"type": "DT_INT32"}}}, {"name": "model_109/tf.math.multiply_1264/Mul", "op": "Mul", "input": ["model_109/tf.concat_118/concat", "model_109/tf.math.multiply_1264/Mul/y"], "attr": {"T": {"type": "DT_FLOAT"}}}, {"name": "model_109/output0/concat", "op": "ConcatV2", "input": ["model_109/tf.math.multiply_1264/Mul", "model_109/tf.math.sigmoid_289/Sigmoid", "model_109/output0/concat/axis"], "attr": {"N": {"i": "2"}, "T": {"type": "DT_FLOAT"}, "Tidx": {"type": "DT_INT32"}}}, {"name": "Identity", "op": "Identity", "input": ["model_109/output0/concat"], "attr": {"T": {"type": "DT_FLOAT"}}}], "library": {}, "versions": {"producer": 1645}}, "weightsManifest": [{"paths": ["group1-shard1of4.bin", "group1-shard2of4.bin", "group1-shard3of4.bin", "group1-shard4of4.bin"], "weights": [{"name": "ConstantFolding/model_109/tf.math.divide_4/truediv_recip", "shape": [1, 1, 1], "dtype": "float32"}, {"name": "model_109/74084", "shape": [1, 2, 8400], "dtype": "float32"}, {"name": "model_109/tf.strided_slice_99/ones_like/tensor", "shape": [3], "dtype": "int32"}, {"name": "model_109/tf.strided_slice_99/StridedSlice/end", "shape": [3], "dtype": "int32"}, {"name": "model_109/tf.strided_slice_99/ones_like", "shape": [3], "dtype": "int32"}, {"name": "model_109/74087", "shape": [1, 2, 8400], "dtype": "float32"}, {"name": "model_109/tf.strided_slice_96/StridedSlice/begin", "shape": [3], "dtype": "int32"}, {"name": "model_109/tf.strided_slice_96/StridedSlice/end", "shape": [3], "dtype": "int32"}, {"name": "model_109/tf.strided_slice_96/StridedSlice/strides", "shape": [3], "dtype": "int32"}, {"name": "model_109/tf.reshape_71/Reshape/shape", "shape": [4], "dtype": "int32"}, {"name": "model_109/tf.compat.v1.transpose_161/transpose/perm", "shape": [4], "dtype": "int32"}, {"name": "model_109/tf.compat.v1.transpose_162/transpose/perm", "shape": [4], "dtype": "int32"}, {"name": "model_109/tf.nn.convolution_339/convolution/filter", "shape": [1, 1, 16, 1], "dtype": "float32"}, {"name": "model_109/tf.compat.v1.transpose_167/transpose/perm", "shape": [4], "dtype": "int32"}, {"name": "model_109/tf.reshape_74/Reshape/shape", "shape": [3], "dtype": "int32"}, {"name": "model_109/tf.strided_slice_98/ones_like/tensor", "shape": [3], "dtype": "int32"}, {"name": "model_109/tf.strided_slice_98/StridedSlice/end", "shape": [3], "dtype": "int32"}, {"name": "model_109/tf.strided_slice_98/ones_like", "shape": [3], "dtype": "int32"}, {"name": "model_109/tf.concat_118/concat/axis", "shape": [], "dtype": "int32"}, {"name": "model_109/tf.math.multiply_1264/Mul/y", "shape": [1, 1, 8400], "dtype": "float32"}, {"name": "model_109/tf.nn.convolution_308/convolution/filter", "shape": [3, 3, 64, 64], "dtype": "float32"}, {"name": "model_109/tf.math.add_372/Add/y", "shape": [64], "dtype": "float32"}, {"name": "model_109/tf.nn.convolution_310/convolution/filter", "shape": [3, 3, 64, 64], "dtype": "float32"}, {"name": "model_109/tf.math.add_374/Add/y", "shape": [64], "dtype": "float32"}, {"name": "model_109/tf.nn.convolution_315/convolution/filter", "shape": [1, 1, 64, 64], "dtype": "float32"}, {"name": "model_109/tf.math.add_379/Add/y", "shape": [64], "dtype": "float32"}, {"name": "model_109/tf.nn.convolution_309/convolution/filter", "shape": [3, 3, 64, 80], "dtype": "float32"}, {"name": "model_109/tf.math.add_373/Add/y", "shape": [80], "dtype": "float32"}, {"name": "model_109/tf.nn.convolution_313/convolution/filter", "shape": [3, 3, 80, 80], "dtype": "float32"}, {"name": "model_109/tf.math.add_377/Add/y", "shape": [80], "dtype": "float32"}, {"name": "model_109/tf.nn.convolution_318/convolution/filter", "shape": [1, 1, 80, 80], "dtype": "float32"}, {"name": "model_109/tf.math.add_382/Add/y", "shape": [80], "dtype": "float32"}, {"name": "model_109/tf.concat_108/concat/axis", "shape": [], "dtype": "int32"}, {"name": "model_109/tf.compat.v1.transpose_144/transpose/perm", "shape": [4], "dtype": "int32"}, {"name": "model_109/tf.reshape_62/Reshape/shape", "shape": [3], "dtype": "int32"}, {"name": "model_109/tf.nn.convolution_323/convolution/filter", "shape": [3, 3, 128, 64], "dtype": "float32"}, {"name": "model_109/tf.math.add_387/Add/y", "shape": [64], "dtype": "float32"}, {"name": "model_109/tf.nn.convolution_325/convolution/filter", "shape": [3, 3, 64, 64], "dtype": "float32"}, {"name": "model_109/tf.math.add_389/Add/y", "shape": [64], "dtype": "float32"}, {"name": "model_109/tf.nn.convolution_328/convolution/filter", "shape": [1, 1, 64, 64], "dtype": "float32"}, {"name": "model_109/tf.math.add_392/Add/y", "shape": [64], "dtype": "float32"}, {"name": "model_109/tf.nn.convolution_324/convolution/filter", "shape": [3, 3, 128, 80], "dtype": "float32"}, {"name": "model_109/tf.math.add_388/Add/y", "shape": [80], "dtype": "float32"}, {"name": "model_109/tf.nn.convolution_326/convolution/filter", "shape": [3, 3, 80, 80], "dtype": "float32"}, {"name": "model_109/tf.math.add_390/Add/y", "shape": [80], "dtype": "float32"}, {"name": "model_109/tf.nn.convolution_329/convolution/filter", "shape": [1, 1, 80, 80], "dtype": "float32"}, {"name": "model_109/tf.math.add_393/Add/y", "shape": [80], "dtype": "float32"}, {"name": "model_109/tf.concat_111/concat/axis", "shape": [], "dtype": "int32"}, {"name": "model_109/tf.compat.v1.transpose_149/transpose/perm", "shape": [4], "dtype": "int32"}, {"name": "model_109/tf.reshape_65/Reshape/shape", "shape": [3], "dtype": "int32"}, {"name": "model_109/tf.nn.convolution_333/convolution/filter", "shape": [3, 3, 256, 64], "dtype": "float32"}, {"name": "model_109/tf.math.add_397/Add/y", "shape": [64], "dtype": "float32"}, {"name": "model_109/tf.nn.convolution_335/convolution/filter", "shape": [3, 3, 64, 64], "dtype": "float32"}, {"name": "model_109/tf.math.add_399/Add/y", "shape": [64], "dtype": "float32"}, {"name": "model_109/tf.nn.convolution_337/convolution/filter", "shape": [1, 1, 64, 64], "dtype": "float32"}, {"name": "model_109/tf.math.add_401/Add/y", "shape": [64], "dtype": "float32"}, {"name": "model_109/tf.strided_slice_94/ones_like/tensor", "shape": [4], "dtype": "int32"}, {"name": "model_109/tf.strided_slice_94/StridedSlice/end", "shape": [4], "dtype": "int32"}, {"name": "model_109/tf.strided_slice_94/ones_like", "shape": [4], "dtype": "int32"}, {"name": "model_109/tf.strided_slice_92/ones_like/tensor", "shape": [4], "dtype": "int32"}, {"name": "model_109/tf.strided_slice_92/StridedSlice/end", "shape": [4], "dtype": "int32"}, {"name": "model_109/tf.strided_slice_92/ones_like", "shape": [4], "dtype": "int32"}, {"name": "model_109/tf.strided_slice_90/ones_like/tensor", "shape": [4], "dtype": "int32"}, {"name": "model_109/tf.strided_slice_90/StridedSlice/end", "shape": [4], "dtype": "int32"}, {"name": "model_109/tf.strided_slice_90/ones_like", "shape": [4], "dtype": "int32"}, {"name": "model_109/tf.image.resize_9/resize/size", "shape": [2], "dtype": "int32"}, {"name": "model_109/tf.concat_103/concat/axis", "shape": [], "dtype": "int32"}, {"name": "model_109/tf.nn.convolution_303/convolution/filter", "shape": [1, 1, 192, 64], "dtype": "float32"}, {"name": "model_109/tf.math.add_367/Add/y", "shape": [64], "dtype": "float32"}, {"name": "model_109/tf.strided_slice_91/ones_like/tensor", "shape": [4], "dtype": "int32"}, {"name": "model_109/tf.strided_slice_91/StridedSlice/end", "shape": [4], "dtype": "int32"}, {"name": "model_109/tf.strided_slice_91/ones_like", "shape": [4], "dtype": "int32"}, {"name": "model_109/tf.nn.convolution_304/convolution/filter", "shape": [3, 3, 32, 32], "dtype": "float32"}, {"name": "model_109/tf.math.add_368/Add/y", "shape": [32], "dtype": "float32"}, {"name": "model_109/tf.nn.convolution_305/convolution/filter", "shape": [3, 3, 32, 32], "dtype": "float32"}, {"name": "model_109/tf.math.add_369/Add/y", "shape": [32], "dtype": "float32"}, {"name": "model_109/tf.concat_104/concat/axis", "shape": [], "dtype": "int32"}, {"name": "model_109/tf.nn.convolution_306/convolution/filter", "shape": [1, 1, 96, 64], "dtype": "float32"}, {"name": "model_109/tf.math.add_370/Add/y", "shape": [64], "dtype": "float32"}, {"name": "model_109/tf.compat.v1.pad_33/Pad/paddings", "shape": [4, 2], "dtype": "int32"}, {"name": "model_109/tf.nn.convolution_307/convolution/filter", "shape": [3, 3, 64, 64], "dtype": "float32"}, {"name": "model_109/tf.math.add_371/Add/y", "shape": [64], "dtype": "float32"}, {"name": "model_109/tf.strided_slice_88/ones_like/tensor", "shape": [4], "dtype": "int32"}, {"name": "model_109/tf.strided_slice_88/StridedSlice/end", "shape": [4], "dtype": "int32"}, {"name": "model_109/tf.strided_slice_88/ones_like", "shape": [4], "dtype": "int32"}, {"name": "model_109/tf.image.resize_8/resize/size", "shape": [2], "dtype": "int32"}, {"name": "model_109/tf.concat_101/concat/axis", "shape": [], "dtype": "int32"}, {"name": "model_109/tf.nn.convolution_299/convolution/filter", "shape": [1, 1, 384, 128], "dtype": "float32"}, {"name": "model_109/tf.math.add_363/Add/y", "shape": [128], "dtype": "float32"}, {"name": "model_109/tf.strided_slice_89/ones_like/tensor", "shape": [4], "dtype": "int32"}, {"name": "model_109/tf.strided_slice_89/StridedSlice/end", "shape": [4], "dtype": "int32"}, {"name": "model_109/tf.strided_slice_89/ones_like", "shape": [4], "dtype": "int32"}, {"name": "model_109/tf.nn.convolution_300/convolution/filter", "shape": [3, 3, 64, 64], "dtype": "float32"}, {"name": "model_109/tf.math.add_364/Add/y", "shape": [64], "dtype": "float32"}, {"name": "model_109/tf.nn.convolution_301/convolution/filter", "shape": [3, 3, 64, 64], "dtype": "float32"}, {"name": "model_109/tf.math.add_365/Add/y", "shape": [64], "dtype": "float32"}, {"name": "model_109/tf.concat_102/concat/axis", "shape": [], "dtype": "int32"}, {"name": "model_109/tf.nn.convolution_302/convolution/filter", "shape": [1, 1, 192, 128], "dtype": "float32"}, {"name": "model_109/tf.math.add_366/Add/y", "shape": [128], "dtype": "float32"}, {"name": "model_109/tf.concat_105/concat/axis", "shape": [], "dtype": "int32"}, {"name": "model_109/tf.nn.convolution_314/convolution/filter", "shape": [1, 1, 192, 128], "dtype": "float32"}, {"name": "model_109/tf.math.add_378/Add/y", "shape": [128], "dtype": "float32"}, {"name": "model_109/tf.strided_slice_93/ones_like/tensor", "shape": [4], "dtype": "int32"}, {"name": "model_109/tf.strided_slice_93/StridedSlice/end", "shape": [4], "dtype": "int32"}, {"name": "model_109/tf.strided_slice_93/ones_like", "shape": [4], "dtype": "int32"}, {"name": "model_109/tf.nn.convolution_319/convolution/filter", "shape": [3, 3, 64, 64], "dtype": "float32"}, {"name": "model_109/tf.math.add_383/Add/y", "shape": [64], "dtype": "float32"}, {"name": "model_109/tf.nn.convolution_320/convolution/filter", "shape": [3, 3, 64, 64], "dtype": "float32"}, {"name": "model_109/tf.math.add_384/Add/y", "shape": [64], "dtype": "float32"}, {"name": "model_109/tf.concat_109/concat/axis", "shape": [], "dtype": "int32"}, {"name": "model_109/tf.nn.convolution_321/convolution/filter", "shape": [1, 1, 192, 128], "dtype": "float32"}, {"name": "model_109/tf.math.add_385/Add/y", "shape": [128], "dtype": "float32"}, {"name": "model_109/tf.compat.v1.pad_34/Pad/paddings", "shape": [4, 2], "dtype": "int32"}, {"name": "model_109/tf.nn.convolution_322/convolution/filter", "shape": [3, 3, 128, 128], "dtype": "float32"}, {"name": "model_109/tf.math.add_386/Add/y", "shape": [128], "dtype": "float32"}, {"name": "model_109/tf.strided_slice_86/ones_like/tensor", "shape": [4], "dtype": "int32"}, {"name": "model_109/tf.strided_slice_86/StridedSlice/end", "shape": [4], "dtype": "int32"}, {"name": "model_109/tf.strided_slice_86/ones_like", "shape": [4], "dtype": "int32"}, {"name": "model_109/tf.strided_slice_84/ones_like/tensor", "shape": [4], "dtype": "int32"}, {"name": "model_109/tf.strided_slice_84/StridedSlice/end", "shape": [4], "dtype": "int32"}, {"name": "model_109/tf.strided_slice_84/ones_like", "shape": [4], "dtype": "int32"}, {"name": "model_109/tf.strided_slice_82/ones_like/tensor", "shape": [4], "dtype": "int32"}, {"name": "model_109/tf.strided_slice_82/StridedSlice/end", "shape": [4], "dtype": "int32"}, {"name": "model_109/tf.strided_slice_82/ones_like", "shape": [4], "dtype": "int32"}, {"name": "model_109/tf.strided_slice_80/ones_like/tensor", "shape": [4], "dtype": "int32"}, {"name": "model_109/tf.strided_slice_80/StridedSlice/end", "shape": [4], "dtype": "int32"}, {"name": "model_109/tf.strided_slice_80/ones_like", "shape": [4], "dtype": "int32"}, {"name": "model_109/tf.compat.v1.pad_28/Pad/paddings", "shape": [4, 2], "dtype": "int32"}, {"name": "model_109/tf.nn.convolution_272/convolution/filter", "shape": [3, 3, 3, 16], "dtype": "float32"}, {"name": "model_109/tf.math.add_324/Add/y", "shape": [16], "dtype": "float32"}, {"name": "model_109/tf.compat.v1.pad_29/Pad/paddings", "shape": [4, 2], "dtype": "int32"}, {"name": "model_109/tf.nn.convolution_273/convolution/filter", "shape": [3, 3, 16, 32], "dtype": "float32"}, {"name": "model_109/tf.math.add_325/Add/y", "shape": [32], "dtype": "float32"}, {"name": "model_109/tf.nn.convolution_274/convolution/filter", "shape": [1, 1, 32, 32], "dtype": "float32"}, {"name": "model_109/tf.math.add_326/Add/y", "shape": [32], "dtype": "float32"}, {"name": "model_109/tf.strided_slice_81/ones_like/tensor", "shape": [4], "dtype": "int32"}, {"name": "model_109/tf.strided_slice_81/StridedSlice/end", "shape": [4], "dtype": "int32"}, {"name": "model_109/tf.strided_slice_81/ones_like", "shape": [4], "dtype": "int32"}, {"name": "model_109/tf.nn.convolution_275/convolution/filter", "shape": [3, 3, 16, 16], "dtype": "float32"}, {"name": "model_109/tf.math.add_327/Add/y", "shape": [16], "dtype": "float32"}, {"name": "model_109/tf.nn.convolution_276/convolution/filter", "shape": [3, 3, 16, 16], "dtype": "float32"}, {"name": "model_109/tf.math.add_328/Add/y", "shape": [16], "dtype": "float32"}, {"name": "model_109/tf.concat_96/concat/axis", "shape": [], "dtype": "int32"}, {"name": "model_109/tf.nn.convolution_277/convolution/filter", "shape": [1, 1, 48, 32], "dtype": "float32"}, {"name": "model_109/tf.math.add_331/Add/y", "shape": [32], "dtype": "float32"}, {"name": "model_109/tf.compat.v1.pad_30/Pad/paddings", "shape": [4, 2], "dtype": "int32"}, {"name": "model_109/tf.nn.convolution_278/convolution/filter", "shape": [3, 3, 32, 64], "dtype": "float32"}, {"name": "model_109/tf.math.add_332/Add/y", "shape": [64], "dtype": "float32"}, {"name": "model_109/tf.nn.convolution_279/convolution/filter", "shape": [1, 1, 64, 64], "dtype": "float32"}, {"name": "model_109/tf.math.add_333/Add/y", "shape": [64], "dtype": "float32"}, {"name": "model_109/tf.strided_slice_83/ones_like/tensor", "shape": [4], "dtype": "int32"}, {"name": "model_109/tf.strided_slice_83/StridedSlice/end", "shape": [4], "dtype": "int32"}, {"name": "model_109/tf.strided_slice_83/ones_like", "shape": [4], "dtype": "int32"}, {"name": "model_109/tf.nn.convolution_280/convolution/filter", "shape": [3, 3, 32, 32], "dtype": "float32"}, {"name": "model_109/tf.math.add_334/Add/y", "shape": [32], "dtype": "float32"}, {"name": "model_109/tf.nn.convolution_281/convolution/filter", "shape": [3, 3, 32, 32], "dtype": "float32"}, {"name": "model_109/tf.math.add_335/Add/y", "shape": [32], "dtype": "float32"}, {"name": "model_109/tf.nn.convolution_282/convolution/filter", "shape": [3, 3, 32, 32], "dtype": "float32"}, {"name": "model_109/tf.math.add_338/Add/y", "shape": [32], "dtype": "float32"}, {"name": "model_109/tf.nn.convolution_283/convolution/filter", "shape": [3, 3, 32, 32], "dtype": "float32"}, {"name": "model_109/tf.math.add_339/Add/y", "shape": [32], "dtype": "float32"}, {"name": "model_109/tf.concat_97/concat/axis", "shape": [], "dtype": "int32"}, {"name": "model_109/tf.nn.convolution_284/convolution/filter", "shape": [1, 1, 128, 64], "dtype": "float32"}, {"name": "model_109/tf.math.add_342/Add/y", "shape": [64], "dtype": "float32"}, {"name": "model_109/tf.compat.v1.pad_31/Pad/paddings", "shape": [4, 2], "dtype": "int32"}, {"name": "model_109/tf.nn.convolution_285/convolution/filter", "shape": [3, 3, 64, 128], "dtype": "float32"}, {"name": "model_109/tf.math.add_343/Add/y", "shape": [128], "dtype": "float32"}, {"name": "model_109/tf.nn.convolution_286/convolution/filter", "shape": [1, 1, 128, 128], "dtype": "float32"}, {"name": "model_109/tf.math.add_344/Add/y", "shape": [128], "dtype": "float32"}, {"name": "model_109/tf.strided_slice_85/ones_like/tensor", "shape": [4], "dtype": "int32"}, {"name": "model_109/tf.strided_slice_85/StridedSlice/end", "shape": [4], "dtype": "int32"}, {"name": "model_109/tf.strided_slice_85/ones_like", "shape": [4], "dtype": "int32"}, {"name": "model_109/tf.nn.convolution_287/convolution/filter", "shape": [3, 3, 64, 64], "dtype": "float32"}, {"name": "model_109/tf.math.add_345/Add/y", "shape": [64], "dtype": "float32"}, {"name": "model_109/tf.nn.convolution_288/convolution/filter", "shape": [3, 3, 64, 64], "dtype": "float32"}, {"name": "model_109/tf.math.add_346/Add/y", "shape": [64], "dtype": "float32"}, {"name": "model_109/tf.nn.convolution_289/convolution/filter", "shape": [3, 3, 64, 64], "dtype": "float32"}, {"name": "model_109/tf.math.add_349/Add/y", "shape": [64], "dtype": "float32"}, {"name": "model_109/tf.nn.convolution_290/convolution/filter", "shape": [3, 3, 64, 64], "dtype": "float32"}, {"name": "model_109/tf.math.add_350/Add/y", "shape": [64], "dtype": "float32"}, {"name": "model_109/tf.concat_98/concat/axis", "shape": [], "dtype": "int32"}, {"name": "model_109/tf.nn.convolution_291/convolution/filter", "shape": [1, 1, 256, 128], "dtype": "float32"}, {"name": "model_109/tf.math.add_353/Add/y", "shape": [128], "dtype": "float32"}, {"name": "model_109/tf.compat.v1.pad_32/Pad/paddings", "shape": [4, 2], "dtype": "int32"}, {"name": "model_109/tf.nn.convolution_292/convolution/filter", "shape": [3, 3, 128, 256], "dtype": "float32"}, {"name": "model_109/tf.math.add_354/Add/y", "shape": [256], "dtype": "float32"}, {"name": "model_109/tf.nn.convolution_293/convolution/filter", "shape": [1, 1, 256, 256], "dtype": "float32"}, {"name": "model_109/tf.math.add_355/Add/y", "shape": [256], "dtype": "float32"}, {"name": "model_109/tf.strided_slice_87/ones_like/tensor", "shape": [4], "dtype": "int32"}, {"name": "model_109/tf.strided_slice_87/StridedSlice/end", "shape": [4], "dtype": "int32"}, {"name": "model_109/tf.strided_slice_87/ones_like", "shape": [4], "dtype": "int32"}, {"name": "model_109/tf.nn.convolution_294/convolution/filter", "shape": [3, 3, 128, 128], "dtype": "float32"}, {"name": "model_109/tf.math.add_356/Add/y", "shape": [128], "dtype": "float32"}, {"name": "model_109/tf.nn.convolution_295/convolution/filter", "shape": [3, 3, 128, 128], "dtype": "float32"}, {"name": "model_109/tf.math.add_357/Add/y", "shape": [128], "dtype": "float32"}, {"name": "model_109/tf.concat_99/concat/axis", "shape": [], "dtype": "int32"}, {"name": "model_109/tf.nn.convolution_296/convolution/filter", "shape": [1, 1, 384, 256], "dtype": "float32"}, {"name": "model_109/tf.math.add_360/Add/y", "shape": [256], "dtype": "float32"}, {"name": "model_109/tf.nn.convolution_297/convolution/filter", "shape": [1, 1, 256, 128], "dtype": "float32"}, {"name": "model_109/tf.math.add_361/Add/y", "shape": [128], "dtype": "float32"}, {"name": "model_109/tf.concat_100/concat/axis", "shape": [], "dtype": "int32"}, {"name": "model_109/tf.nn.convolution_298/convolution/filter", "shape": [1, 1, 512, 256], "dtype": "float32"}, {"name": "model_109/tf.math.add_362/Add/y", "shape": [256], "dtype": "float32"}, {"name": "model_109/tf.concat_110/concat/axis", "shape": [], "dtype": "int32"}, {"name": "model_109/tf.nn.convolution_327/convolution/filter", "shape": [1, 1, 384, 256], "dtype": "float32"}, {"name": "model_109/tf.math.add_391/Add/y", "shape": [256], "dtype": "float32"}, {"name": "model_109/tf.strided_slice_95/ones_like/tensor", "shape": [4], "dtype": "int32"}, {"name": "model_109/tf.strided_slice_95/StridedSlice/end", "shape": [4], "dtype": "int32"}, {"name": "model_109/tf.strided_slice_95/ones_like", "shape": [4], "dtype": "int32"}, {"name": "model_109/tf.nn.convolution_330/convolution/filter", "shape": [3, 3, 128, 128], "dtype": "float32"}, {"name": "model_109/tf.math.add_394/Add/y", "shape": [128], "dtype": "float32"}, {"name": "model_109/tf.nn.convolution_331/convolution/filter", "shape": [3, 3, 128, 128], "dtype": "float32"}, {"name": "model_109/tf.math.add_395/Add/y", "shape": [128], "dtype": "float32"}, {"name": "model_109/tf.concat_112/concat/axis", "shape": [], "dtype": "int32"}, {"name": "model_109/tf.nn.convolution_332/convolution/filter", "shape": [1, 1, 384, 256], "dtype": "float32"}, {"name": "model_109/tf.math.add_396/Add/y", "shape": [256], "dtype": "float32"}, {"name": "model_109/tf.nn.convolution_334/convolution/filter", "shape": [3, 3, 256, 80], "dtype": "float32"}, {"name": "model_109/tf.math.add_398/Add/y", "shape": [80], "dtype": "float32"}, {"name": "model_109/tf.nn.convolution_336/convolution/filter", "shape": [3, 3, 80, 80], "dtype": "float32"}, {"name": "model_109/tf.math.add_400/Add/y", "shape": [80], "dtype": "float32"}, {"name": "model_109/tf.nn.convolution_338/convolution/filter", "shape": [1, 1, 80, 80], "dtype": "float32"}, {"name": "model_109/tf.math.add_402/Add/y", "shape": [80], "dtype": "float32"}, {"name": "model_109/tf.concat_113/concat/axis", "shape": [], "dtype": "int32"}, {"name": "model_109/tf.compat.v1.transpose_154/transpose/perm", "shape": [4], "dtype": "int32"}, {"name": "model_109/tf.reshape_68/Reshape/shape", "shape": [3], "dtype": "int32"}, {"name": "model_109/tf.concat_114/concat/axis", "shape": [], "dtype": "int32"}, {"name": "model_109/tf.strided_slice_97/StridedSlice/begin", "shape": [3], "dtype": "int32"}, {"name": "model_109/tf.strided_slice_97/StridedSlice/end", "shape": [3], "dtype": "int32"}, {"name": "model_109/tf.strided_slice_97/StridedSlice/strides", "shape": [3], "dtype": "int32"}, {"name": "model_109/output0/concat/axis", "shape": [], "dtype": "int32"}]}]}