{"format": "graph-model", "generatedBy": "2.15.0", "convertedBy": "TensorFlow.js Converter v4.21.0", "signature": {"outputs": {"Identity:0": {"name": "Identity:0"}}}, "modelTopology": {"node": [{"name": "ConstantFolding/model_43/tf.math.divide_1/truediv_recip", "op": "Const", "attr": {"value": {"tensor": {"dtype": "DT_FLOAT", "tensorShape": {"dim": [{"size": "1"}, {"size": "1"}, {"size": "1"}]}}}, "dtype": {"type": "DT_FLOAT"}}}, {"name": "model_43/28895", "op": "Const", "attr": {"value": {"tensor": {"dtype": "DT_FLOAT", "tensorShape": {"dim": [{"size": "1"}, {"size": "2"}, {"size": "8400"}]}}}, "dtype": {"type": "DT_FLOAT"}}}, {"name": "model_43/tf.strided_slice_39/ones_like/tensor", "op": "Const", "attr": {"value": {"tensor": {"dtype": "DT_INT64", "tensorShape": {"dim": [{"size": "3"}]}}}, "dtype": {"type": "DT_INT64"}}}, {"name": "model_43/tf.strided_slice_39/StridedSlice/end", "op": "Const", "attr": {"value": {"tensor": {"dtype": "DT_INT64", "tensorShape": {"dim": [{"size": "3"}]}}}, "dtype": {"type": "DT_INT64"}}}, {"name": "model_43/tf.strided_slice_39/ones_like", "op": "Const", "attr": {"value": {"tensor": {"dtype": "DT_INT64", "tensorShape": {"dim": [{"size": "3"}]}}}, "dtype": {"type": "DT_INT64"}}}, {"name": "model_43/28898", "op": "Const", "attr": {"value": {"tensor": {"dtype": "DT_FLOAT", "tensorShape": {"dim": [{"size": "1"}, {"size": "2"}, {"size": "8400"}]}}}, "dtype": {"type": "DT_FLOAT"}}}, {"name": "model_43/tf.strided_slice_36/StridedSlice/begin", "op": "Const", "attr": {"value": {"tensor": {"dtype": "DT_INT64", "tensorShape": {"dim": [{"size": "3"}]}}}, "dtype": {"type": "DT_INT64"}}}, {"name": "model_43/tf.strided_slice_36/StridedSlice/end", "op": "Const", "attr": {"value": {"tensor": {"dtype": "DT_INT64", "tensorShape": {"dim": [{"size": "3"}]}}}, "dtype": {"type": "DT_INT64"}}}, {"name": "model_43/tf.strided_slice_36/StridedSlice/strides", "op": "Const", "attr": {"dtype": {"type": "DT_INT64"}, "value": {"tensor": {"dtype": "DT_INT64", "tensorShape": {"dim": [{"size": "3"}]}}}}}, {"name": "model_43/tf.reshape_26/Reshape/shape", "op": "Const", "attr": {"dtype": {"type": "DT_INT32"}, "value": {"tensor": {"dtype": "DT_INT32", "tensorShape": {"dim": [{"size": "4"}]}}}}}, {"name": "model_43/tf.compat.v1.transpose_59/transpose/perm", "op": "Const", "attr": {"value": {"tensor": {"dtype": "DT_INT32", "tensorShape": {"dim": [{"size": "4"}]}}}, "dtype": {"type": "DT_INT32"}}}, {"name": "model_43/tf.compat.v1.transpose_60/transpose/perm", "op": "Const", "attr": {"dtype": {"type": "DT_INT32"}, "value": {"tensor": {"dtype": "DT_INT32", "tensorShape": {"dim": [{"size": "4"}]}}}}}, {"name": "model_43/tf.nn.convolution_135/convolution/filter", "op": "Const", "attr": {"dtype": {"type": "DT_FLOAT"}, "value": {"tensor": {"dtype": "DT_FLOAT", "tensorShape": {"dim": [{"size": "1"}, {"size": "1"}, {"size": "16"}, {"size": "1"}]}}}}}, {"name": "model_43/tf.compat.v1.transpose_65/transpose/perm", "op": "Const", "attr": {"value": {"tensor": {"dtype": "DT_INT32", "tensorShape": {"dim": [{"size": "4"}]}}}, "dtype": {"type": "DT_INT32"}}}, {"name": "model_43/tf.reshape_29/Reshape/shape", "op": "Const", "attr": {"dtype": {"type": "DT_INT32"}, "value": {"tensor": {"dtype": "DT_INT32", "tensorShape": {"dim": [{"size": "3"}]}}}}}, {"name": "model_43/tf.strided_slice_38/ones_like/tensor", "op": "Const", "attr": {"value": {"tensor": {"dtype": "DT_INT64", "tensorShape": {"dim": [{"size": "3"}]}}}, "dtype": {"type": "DT_INT64"}}}, {"name": "model_43/tf.strided_slice_38/StridedSlice/end", "op": "Const", "attr": {"dtype": {"type": "DT_INT64"}, "value": {"tensor": {"dtype": "DT_INT64", "tensorShape": {"dim": [{"size": "3"}]}}}}}, {"name": "model_43/tf.strided_slice_38/ones_like", "op": "Const", "attr": {"value": {"tensor": {"dtype": "DT_INT64", "tensorShape": {"dim": [{"size": "3"}]}}}, "dtype": {"type": "DT_INT64"}}}, {"name": "model_43/tf.concat_46/concat/axis", "op": "Const", "attr": {"dtype": {"type": "DT_INT32"}, "value": {"tensor": {"dtype": "DT_INT32", "tensorShape": {}}}}}, {"name": "model_43/tf.math.multiply_505/Mul/y", "op": "Const", "attr": {"value": {"tensor": {"dtype": "DT_FLOAT", "tensorShape": {"dim": [{"size": "1"}, {"size": "1"}, {"size": "8400"}]}}}, "dtype": {"type": "DT_FLOAT"}}}, {"name": "model_43/tf.nn.convolution_104/convolution/filter", "op": "Const", "attr": {"dtype": {"type": "DT_FLOAT"}, "value": {"tensor": {"dtype": "DT_FLOAT", "tensorShape": {"dim": [{"size": "3"}, {"size": "3"}, {"size": "64"}, {"size": "64"}]}}}}}, {"name": "model_43/tf.math.add_129/Add/y", "op": "Const", "attr": {"value": {"tensor": {"dtype": "DT_FLOAT", "tensorShape": {"dim": [{"size": "64"}]}}}, "dtype": {"type": "DT_FLOAT"}}}, {"name": "model_43/tf.nn.convolution_106/convolution/filter", "op": "Const", "attr": {"dtype": {"type": "DT_FLOAT"}, "value": {"tensor": {"dtype": "DT_FLOAT", "tensorShape": {"dim": [{"size": "3"}, {"size": "3"}, {"size": "64"}, {"size": "64"}]}}}}}, {"name": "model_43/tf.math.add_131/Add/y", "op": "Const", "attr": {"dtype": {"type": "DT_FLOAT"}, "value": {"tensor": {"dtype": "DT_FLOAT", "tensorShape": {"dim": [{"size": "64"}]}}}}}, {"name": "model_43/tf.nn.convolution_111/convolution/filter", "op": "Const", "attr": {"value": {"tensor": {"dtype": "DT_FLOAT", "tensorShape": {"dim": [{"size": "1"}, {"size": "1"}, {"size": "64"}, {"size": "64"}]}}}, "dtype": {"type": "DT_FLOAT"}}}, {"name": "model_43/tf.math.add_136/Add/y", "op": "Const", "attr": {"dtype": {"type": "DT_FLOAT"}, "value": {"tensor": {"dtype": "DT_FLOAT", "tensorShape": {"dim": [{"size": "64"}]}}}}}, {"name": "model_43/tf.nn.convolution_105/convolution/filter", "op": "Const", "attr": {"dtype": {"type": "DT_FLOAT"}, "value": {"tensor": {"dtype": "DT_FLOAT", "tensorShape": {"dim": [{"size": "3"}, {"size": "3"}, {"size": "64"}, {"size": "80"}]}}}}}, {"name": "model_43/tf.math.add_130/Add/y", "op": "Const", "attr": {"dtype": {"type": "DT_FLOAT"}, "value": {"tensor": {"dtype": "DT_FLOAT", "tensorShape": {"dim": [{"size": "80"}]}}}}}, {"name": "model_43/tf.nn.convolution_109/convolution/filter", "op": "Const", "attr": {"dtype": {"type": "DT_FLOAT"}, "value": {"tensor": {"dtype": "DT_FLOAT", "tensorShape": {"dim": [{"size": "3"}, {"size": "3"}, {"size": "80"}, {"size": "80"}]}}}}}, {"name": "model_43/tf.math.add_134/Add/y", "op": "Const", "attr": {"value": {"tensor": {"dtype": "DT_FLOAT", "tensorShape": {"dim": [{"size": "80"}]}}}, "dtype": {"type": "DT_FLOAT"}}}, {"name": "model_43/tf.nn.convolution_114/convolution/filter", "op": "Const", "attr": {"value": {"tensor": {"dtype": "DT_FLOAT", "tensorShape": {"dim": [{"size": "1"}, {"size": "1"}, {"size": "80"}, {"size": "80"}]}}}, "dtype": {"type": "DT_FLOAT"}}}, {"name": "model_43/tf.math.add_139/Add/y", "op": "Const", "attr": {"value": {"tensor": {"dtype": "DT_FLOAT", "tensorShape": {"dim": [{"size": "80"}]}}}, "dtype": {"type": "DT_FLOAT"}}}, {"name": "model_43/tf.concat_36/concat/axis", "op": "Const", "attr": {"dtype": {"type": "DT_INT32"}, "value": {"tensor": {"dtype": "DT_INT32", "tensorShape": {}}}}}, {"name": "model_43/tf.compat.v1.transpose_42/transpose/perm", "op": "Const", "attr": {"dtype": {"type": "DT_INT32"}, "value": {"tensor": {"dtype": "DT_INT32", "tensorShape": {"dim": [{"size": "4"}]}}}}}, {"name": "model_43/tf.reshape_17/Reshape/shape", "op": "Const", "attr": {"dtype": {"type": "DT_INT32"}, "value": {"tensor": {"dtype": "DT_INT32", "tensorShape": {"dim": [{"size": "3"}]}}}}}, {"name": "model_43/tf.nn.convolution_119/convolution/filter", "op": "Const", "attr": {"dtype": {"type": "DT_FLOAT"}, "value": {"tensor": {"dtype": "DT_FLOAT", "tensorShape": {"dim": [{"size": "3"}, {"size": "3"}, {"size": "128"}, {"size": "64"}]}}}}}, {"name": "model_43/tf.math.add_144/Add/y", "op": "Const", "attr": {"dtype": {"type": "DT_FLOAT"}, "value": {"tensor": {"dtype": "DT_FLOAT", "tensorShape": {"dim": [{"size": "64"}]}}}}}, {"name": "model_43/tf.nn.convolution_121/convolution/filter", "op": "Const", "attr": {"value": {"tensor": {"dtype": "DT_FLOAT", "tensorShape": {"dim": [{"size": "3"}, {"size": "3"}, {"size": "64"}, {"size": "64"}]}}}, "dtype": {"type": "DT_FLOAT"}}}, {"name": "model_43/tf.math.add_146/Add/y", "op": "Const", "attr": {"value": {"tensor": {"dtype": "DT_FLOAT", "tensorShape": {"dim": [{"size": "64"}]}}}, "dtype": {"type": "DT_FLOAT"}}}, {"name": "model_43/tf.nn.convolution_124/convolution/filter", "op": "Const", "attr": {"dtype": {"type": "DT_FLOAT"}, "value": {"tensor": {"dtype": "DT_FLOAT", "tensorShape": {"dim": [{"size": "1"}, {"size": "1"}, {"size": "64"}, {"size": "64"}]}}}}}, {"name": "model_43/tf.math.add_149/Add/y", "op": "Const", "attr": {"dtype": {"type": "DT_FLOAT"}, "value": {"tensor": {"dtype": "DT_FLOAT", "tensorShape": {"dim": [{"size": "64"}]}}}}}, {"name": "model_43/tf.nn.convolution_120/convolution/filter", "op": "Const", "attr": {"value": {"tensor": {"dtype": "DT_FLOAT", "tensorShape": {"dim": [{"size": "3"}, {"size": "3"}, {"size": "128"}, {"size": "80"}]}}}, "dtype": {"type": "DT_FLOAT"}}}, {"name": "model_43/tf.math.add_145/Add/y", "op": "Const", "attr": {"value": {"tensor": {"dtype": "DT_FLOAT", "tensorShape": {"dim": [{"size": "80"}]}}}, "dtype": {"type": "DT_FLOAT"}}}, {"name": "model_43/tf.nn.convolution_122/convolution/filter", "op": "Const", "attr": {"dtype": {"type": "DT_FLOAT"}, "value": {"tensor": {"dtype": "DT_FLOAT", "tensorShape": {"dim": [{"size": "3"}, {"size": "3"}, {"size": "80"}, {"size": "80"}]}}}}}, {"name": "model_43/tf.math.add_147/Add/y", "op": "Const", "attr": {"value": {"tensor": {"dtype": "DT_FLOAT", "tensorShape": {"dim": [{"size": "80"}]}}}, "dtype": {"type": "DT_FLOAT"}}}, {"name": "model_43/tf.nn.convolution_125/convolution/filter", "op": "Const", "attr": {"value": {"tensor": {"dtype": "DT_FLOAT", "tensorShape": {"dim": [{"size": "1"}, {"size": "1"}, {"size": "80"}, {"size": "80"}]}}}, "dtype": {"type": "DT_FLOAT"}}}, {"name": "model_43/tf.math.add_150/Add/y", "op": "Const", "attr": {"dtype": {"type": "DT_FLOAT"}, "value": {"tensor": {"dtype": "DT_FLOAT", "tensorShape": {"dim": [{"size": "80"}]}}}}}, {"name": "model_43/tf.concat_39/concat/axis", "op": "Const", "attr": {"value": {"tensor": {"dtype": "DT_INT32", "tensorShape": {}}}, "dtype": {"type": "DT_INT32"}}}, {"name": "model_43/tf.compat.v1.transpose_47/transpose/perm", "op": "Const", "attr": {"dtype": {"type": "DT_INT32"}, "value": {"tensor": {"dtype": "DT_INT32", "tensorShape": {"dim": [{"size": "4"}]}}}}}, {"name": "model_43/tf.reshape_20/Reshape/shape", "op": "Const", "attr": {"dtype": {"type": "DT_INT32"}, "value": {"tensor": {"dtype": "DT_INT32", "tensorShape": {"dim": [{"size": "3"}]}}}}}, {"name": "model_43/tf.nn.convolution_129/convolution/filter", "op": "Const", "attr": {"dtype": {"type": "DT_FLOAT"}, "value": {"tensor": {"dtype": "DT_FLOAT", "tensorShape": {"dim": [{"size": "3"}, {"size": "3"}, {"size": "256"}, {"size": "64"}]}}}}}, {"name": "model_43/tf.math.add_154/Add/y", "op": "Const", "attr": {"dtype": {"type": "DT_FLOAT"}, "value": {"tensor": {"dtype": "DT_FLOAT", "tensorShape": {"dim": [{"size": "64"}]}}}}}, {"name": "model_43/tf.nn.convolution_131/convolution/filter", "op": "Const", "attr": {"dtype": {"type": "DT_FLOAT"}, "value": {"tensor": {"dtype": "DT_FLOAT", "tensorShape": {"dim": [{"size": "3"}, {"size": "3"}, {"size": "64"}, {"size": "64"}]}}}}}, {"name": "model_43/tf.math.add_156/Add/y", "op": "Const", "attr": {"dtype": {"type": "DT_FLOAT"}, "value": {"tensor": {"dtype": "DT_FLOAT", "tensorShape": {"dim": [{"size": "64"}]}}}}}, {"name": "model_43/tf.nn.convolution_133/convolution/filter", "op": "Const", "attr": {"value": {"tensor": {"dtype": "DT_FLOAT", "tensorShape": {"dim": [{"size": "1"}, {"size": "1"}, {"size": "64"}, {"size": "64"}]}}}, "dtype": {"type": "DT_FLOAT"}}}, {"name": "model_43/tf.math.add_158/Add/y", "op": "Const", "attr": {"value": {"tensor": {"dtype": "DT_FLOAT", "tensorShape": {"dim": [{"size": "64"}]}}}, "dtype": {"type": "DT_FLOAT"}}}, {"name": "model_43/tf.strided_slice_34/ones_like/tensor", "op": "Const", "attr": {"dtype": {"type": "DT_INT64"}, "value": {"tensor": {"dtype": "DT_INT64", "tensorShape": {"dim": [{"size": "4"}]}}}}}, {"name": "model_43/tf.strided_slice_34/StridedSlice/end", "op": "Const", "attr": {"value": {"tensor": {"dtype": "DT_INT64", "tensorShape": {"dim": [{"size": "4"}]}}}, "dtype": {"type": "DT_INT64"}}}, {"name": "model_43/tf.strided_slice_34/ones_like", "op": "Const", "attr": {"value": {"tensor": {"dtype": "DT_INT64", "tensorShape": {"dim": [{"size": "4"}]}}}, "dtype": {"type": "DT_INT64"}}}, {"name": "model_43/tf.strided_slice_32/ones_like/tensor", "op": "Const", "attr": {"value": {"tensor": {"dtype": "DT_INT64", "tensorShape": {"dim": [{"size": "4"}]}}}, "dtype": {"type": "DT_INT64"}}}, {"name": "model_43/tf.strided_slice_32/StridedSlice/end", "op": "Const", "attr": {"value": {"tensor": {"dtype": "DT_INT64", "tensorShape": {"dim": [{"size": "4"}]}}}, "dtype": {"type": "DT_INT64"}}}, {"name": "model_43/tf.strided_slice_32/ones_like", "op": "Const", "attr": {"value": {"tensor": {"dtype": "DT_INT64", "tensorShape": {"dim": [{"size": "4"}]}}}, "dtype": {"type": "DT_INT64"}}}, {"name": "model_43/tf.strided_slice_30/ones_like/tensor", "op": "Const", "attr": {"value": {"tensor": {"dtype": "DT_INT64", "tensorShape": {"dim": [{"size": "4"}]}}}, "dtype": {"type": "DT_INT64"}}}, {"name": "model_43/tf.strided_slice_30/StridedSlice/end", "op": "Const", "attr": {"value": {"tensor": {"dtype": "DT_INT64", "tensorShape": {"dim": [{"size": "4"}]}}}, "dtype": {"type": "DT_INT64"}}}, {"name": "model_43/tf.strided_slice_30/ones_like", "op": "Const", "attr": {"value": {"tensor": {"dtype": "DT_INT64", "tensorShape": {"dim": [{"size": "4"}]}}}, "dtype": {"type": "DT_INT64"}}}, {"name": "model_43/tf.image.resize_3/resize/size", "op": "Const", "attr": {"value": {"tensor": {"dtype": "DT_INT32", "tensorShape": {"dim": [{"size": "2"}]}}}, "dtype": {"type": "DT_INT32"}}}, {"name": "model_43/tf.concat_31/concat/axis", "op": "Const", "attr": {"dtype": {"type": "DT_INT32"}, "value": {"tensor": {"dtype": "DT_INT32", "tensorShape": {}}}}}, {"name": "model_43/tf.nn.convolution_99/convolution/filter", "op": "Const", "attr": {"value": {"tensor": {"dtype": "DT_FLOAT", "tensorShape": {"dim": [{"size": "1"}, {"size": "1"}, {"size": "192"}, {"size": "64"}]}}}, "dtype": {"type": "DT_FLOAT"}}}, {"name": "model_43/tf.math.add_124/Add/y", "op": "Const", "attr": {"dtype": {"type": "DT_FLOAT"}, "value": {"tensor": {"dtype": "DT_FLOAT", "tensorShape": {"dim": [{"size": "64"}]}}}}}, {"name": "model_43/tf.strided_slice_31/ones_like/tensor", "op": "Const", "attr": {"dtype": {"type": "DT_INT64"}, "value": {"tensor": {"dtype": "DT_INT64", "tensorShape": {"dim": [{"size": "4"}]}}}}}, {"name": "model_43/tf.strided_slice_31/StridedSlice/end", "op": "Const", "attr": {"dtype": {"type": "DT_INT64"}, "value": {"tensor": {"dtype": "DT_INT64", "tensorShape": {"dim": [{"size": "4"}]}}}}}, {"name": "model_43/tf.strided_slice_31/ones_like", "op": "Const", "attr": {"value": {"tensor": {"dtype": "DT_INT64", "tensorShape": {"dim": [{"size": "4"}]}}}, "dtype": {"type": "DT_INT64"}}}, {"name": "model_43/tf.nn.convolution_100/convolution/filter", "op": "Const", "attr": {"value": {"tensor": {"dtype": "DT_FLOAT", "tensorShape": {"dim": [{"size": "3"}, {"size": "3"}, {"size": "32"}, {"size": "32"}]}}}, "dtype": {"type": "DT_FLOAT"}}}, {"name": "model_43/tf.math.add_125/Add/y", "op": "Const", "attr": {"dtype": {"type": "DT_FLOAT"}, "value": {"tensor": {"dtype": "DT_FLOAT", "tensorShape": {"dim": [{"size": "32"}]}}}}}, {"name": "model_43/tf.nn.convolution_101/convolution/filter", "op": "Const", "attr": {"value": {"tensor": {"dtype": "DT_FLOAT", "tensorShape": {"dim": [{"size": "3"}, {"size": "3"}, {"size": "32"}, {"size": "32"}]}}}, "dtype": {"type": "DT_FLOAT"}}}, {"name": "model_43/tf.math.add_126/Add/y", "op": "Const", "attr": {"value": {"tensor": {"dtype": "DT_FLOAT", "tensorShape": {"dim": [{"size": "32"}]}}}, "dtype": {"type": "DT_FLOAT"}}}, {"name": "model_43/tf.concat_32/concat/axis", "op": "Const", "attr": {"value": {"tensor": {"dtype": "DT_INT32", "tensorShape": {}}}, "dtype": {"type": "DT_INT32"}}}, {"name": "model_43/tf.nn.convolution_102/convolution/filter", "op": "Const", "attr": {"value": {"tensor": {"dtype": "DT_FLOAT", "tensorShape": {"dim": [{"size": "1"}, {"size": "1"}, {"size": "96"}, {"size": "64"}]}}}, "dtype": {"type": "DT_FLOAT"}}}, {"name": "model_43/tf.math.add_127/Add/y", "op": "Const", "attr": {"dtype": {"type": "DT_FLOAT"}, "value": {"tensor": {"dtype": "DT_FLOAT", "tensorShape": {"dim": [{"size": "64"}]}}}}}, {"name": "model_43/tf.compat.v1.pad_12/Pad/paddings", "op": "Const", "attr": {"value": {"tensor": {"dtype": "DT_INT32", "tensorShape": {"dim": [{"size": "4"}, {"size": "2"}]}}}, "dtype": {"type": "DT_INT32"}}}, {"name": "model_43/tf.nn.convolution_103/convolution/filter", "op": "Const", "attr": {"value": {"tensor": {"dtype": "DT_FLOAT", "tensorShape": {"dim": [{"size": "3"}, {"size": "3"}, {"size": "64"}, {"size": "64"}]}}}, "dtype": {"type": "DT_FLOAT"}}}, {"name": "model_43/tf.math.add_128/Add/y", "op": "Const", "attr": {"value": {"tensor": {"dtype": "DT_FLOAT", "tensorShape": {"dim": [{"size": "64"}]}}}, "dtype": {"type": "DT_FLOAT"}}}, {"name": "model_43/tf.strided_slice_28/ones_like/tensor", "op": "Const", "attr": {"value": {"tensor": {"dtype": "DT_INT64", "tensorShape": {"dim": [{"size": "4"}]}}}, "dtype": {"type": "DT_INT64"}}}, {"name": "model_43/tf.strided_slice_28/StridedSlice/end", "op": "Const", "attr": {"dtype": {"type": "DT_INT64"}, "value": {"tensor": {"dtype": "DT_INT64", "tensorShape": {"dim": [{"size": "4"}]}}}}}, {"name": "model_43/tf.strided_slice_28/ones_like", "op": "Const", "attr": {"dtype": {"type": "DT_INT64"}, "value": {"tensor": {"dtype": "DT_INT64", "tensorShape": {"dim": [{"size": "4"}]}}}}}, {"name": "model_43/tf.image.resize_2/resize/size", "op": "Const", "attr": {"value": {"tensor": {"dtype": "DT_INT32", "tensorShape": {"dim": [{"size": "2"}]}}}, "dtype": {"type": "DT_INT32"}}}, {"name": "model_43/tf.concat_29/concat/axis", "op": "Const", "attr": {"value": {"tensor": {"dtype": "DT_INT32", "tensorShape": {}}}, "dtype": {"type": "DT_INT32"}}}, {"name": "model_43/tf.nn.convolution_95/convolution/filter", "op": "Const", "attr": {"value": {"tensor": {"dtype": "DT_FLOAT", "tensorShape": {"dim": [{"size": "1"}, {"size": "1"}, {"size": "384"}, {"size": "128"}]}}}, "dtype": {"type": "DT_FLOAT"}}}, {"name": "model_43/tf.math.add_120/Add/y", "op": "Const", "attr": {"value": {"tensor": {"dtype": "DT_FLOAT", "tensorShape": {"dim": [{"size": "128"}]}}}, "dtype": {"type": "DT_FLOAT"}}}, {"name": "model_43/tf.strided_slice_29/ones_like/tensor", "op": "Const", "attr": {"dtype": {"type": "DT_INT64"}, "value": {"tensor": {"dtype": "DT_INT64", "tensorShape": {"dim": [{"size": "4"}]}}}}}, {"name": "model_43/tf.strided_slice_29/StridedSlice/end", "op": "Const", "attr": {"dtype": {"type": "DT_INT64"}, "value": {"tensor": {"dtype": "DT_INT64", "tensorShape": {"dim": [{"size": "4"}]}}}}}, {"name": "model_43/tf.strided_slice_29/ones_like", "op": "Const", "attr": {"dtype": {"type": "DT_INT64"}, "value": {"tensor": {"dtype": "DT_INT64", "tensorShape": {"dim": [{"size": "4"}]}}}}}, {"name": "model_43/tf.nn.convolution_96/convolution/filter", "op": "Const", "attr": {"value": {"tensor": {"dtype": "DT_FLOAT", "tensorShape": {"dim": [{"size": "3"}, {"size": "3"}, {"size": "64"}, {"size": "64"}]}}}, "dtype": {"type": "DT_FLOAT"}}}, {"name": "model_43/tf.math.add_121/Add/y", "op": "Const", "attr": {"value": {"tensor": {"dtype": "DT_FLOAT", "tensorShape": {"dim": [{"size": "64"}]}}}, "dtype": {"type": "DT_FLOAT"}}}, {"name": "model_43/tf.nn.convolution_97/convolution/filter", "op": "Const", "attr": {"dtype": {"type": "DT_FLOAT"}, "value": {"tensor": {"dtype": "DT_FLOAT", "tensorShape": {"dim": [{"size": "3"}, {"size": "3"}, {"size": "64"}, {"size": "64"}]}}}}}, {"name": "model_43/tf.math.add_122/Add/y", "op": "Const", "attr": {"dtype": {"type": "DT_FLOAT"}, "value": {"tensor": {"dtype": "DT_FLOAT", "tensorShape": {"dim": [{"size": "64"}]}}}}}, {"name": "model_43/tf.concat_30/concat/axis", "op": "Const", "attr": {"dtype": {"type": "DT_INT32"}, "value": {"tensor": {"dtype": "DT_INT32", "tensorShape": {}}}}}, {"name": "model_43/tf.nn.convolution_98/convolution/filter", "op": "Const", "attr": {"value": {"tensor": {"dtype": "DT_FLOAT", "tensorShape": {"dim": [{"size": "1"}, {"size": "1"}, {"size": "192"}, {"size": "128"}]}}}, "dtype": {"type": "DT_FLOAT"}}}, {"name": "model_43/tf.math.add_123/Add/y", "op": "Const", "attr": {"value": {"tensor": {"dtype": "DT_FLOAT", "tensorShape": {"dim": [{"size": "128"}]}}}, "dtype": {"type": "DT_FLOAT"}}}, {"name": "model_43/tf.concat_33/concat/axis", "op": "Const", "attr": {"dtype": {"type": "DT_INT32"}, "value": {"tensor": {"dtype": "DT_INT32", "tensorShape": {}}}}}, {"name": "model_43/tf.nn.convolution_110/convolution/filter", "op": "Const", "attr": {"value": {"tensor": {"dtype": "DT_FLOAT", "tensorShape": {"dim": [{"size": "1"}, {"size": "1"}, {"size": "192"}, {"size": "128"}]}}}, "dtype": {"type": "DT_FLOAT"}}}, {"name": "model_43/tf.math.add_135/Add/y", "op": "Const", "attr": {"dtype": {"type": "DT_FLOAT"}, "value": {"tensor": {"dtype": "DT_FLOAT", "tensorShape": {"dim": [{"size": "128"}]}}}}}, {"name": "model_43/tf.strided_slice_33/ones_like/tensor", "op": "Const", "attr": {"value": {"tensor": {"dtype": "DT_INT64", "tensorShape": {"dim": [{"size": "4"}]}}}, "dtype": {"type": "DT_INT64"}}}, {"name": "model_43/tf.strided_slice_33/StridedSlice/end", "op": "Const", "attr": {"value": {"tensor": {"dtype": "DT_INT64", "tensorShape": {"dim": [{"size": "4"}]}}}, "dtype": {"type": "DT_INT64"}}}, {"name": "model_43/tf.strided_slice_33/ones_like", "op": "Const", "attr": {"dtype": {"type": "DT_INT64"}, "value": {"tensor": {"dtype": "DT_INT64", "tensorShape": {"dim": [{"size": "4"}]}}}}}, {"name": "model_43/tf.nn.convolution_115/convolution/filter", "op": "Const", "attr": {"dtype": {"type": "DT_FLOAT"}, "value": {"tensor": {"dtype": "DT_FLOAT", "tensorShape": {"dim": [{"size": "3"}, {"size": "3"}, {"size": "64"}, {"size": "64"}]}}}}}, {"name": "model_43/tf.math.add_140/Add/y", "op": "Const", "attr": {"value": {"tensor": {"dtype": "DT_FLOAT", "tensorShape": {"dim": [{"size": "64"}]}}}, "dtype": {"type": "DT_FLOAT"}}}, {"name": "model_43/tf.nn.convolution_116/convolution/filter", "op": "Const", "attr": {"dtype": {"type": "DT_FLOAT"}, "value": {"tensor": {"dtype": "DT_FLOAT", "tensorShape": {"dim": [{"size": "3"}, {"size": "3"}, {"size": "64"}, {"size": "64"}]}}}}}, {"name": "model_43/tf.math.add_141/Add/y", "op": "Const", "attr": {"dtype": {"type": "DT_FLOAT"}, "value": {"tensor": {"dtype": "DT_FLOAT", "tensorShape": {"dim": [{"size": "64"}]}}}}}, {"name": "model_43/tf.concat_37/concat/axis", "op": "Const", "attr": {"value": {"tensor": {"dtype": "DT_INT32", "tensorShape": {}}}, "dtype": {"type": "DT_INT32"}}}, {"name": "model_43/tf.nn.convolution_117/convolution/filter", "op": "Const", "attr": {"dtype": {"type": "DT_FLOAT"}, "value": {"tensor": {"dtype": "DT_FLOAT", "tensorShape": {"dim": [{"size": "1"}, {"size": "1"}, {"size": "192"}, {"size": "128"}]}}}}}, {"name": "model_43/tf.math.add_142/Add/y", "op": "Const", "attr": {"value": {"tensor": {"dtype": "DT_FLOAT", "tensorShape": {"dim": [{"size": "128"}]}}}, "dtype": {"type": "DT_FLOAT"}}}, {"name": "model_43/tf.compat.v1.pad_13/Pad/paddings", "op": "Const", "attr": {"dtype": {"type": "DT_INT32"}, "value": {"tensor": {"dtype": "DT_INT32", "tensorShape": {"dim": [{"size": "4"}, {"size": "2"}]}}}}}, {"name": "model_43/tf.nn.convolution_118/convolution/filter", "op": "Const", "attr": {"value": {"tensor": {"dtype": "DT_FLOAT", "tensorShape": {"dim": [{"size": "3"}, {"size": "3"}, {"size": "128"}, {"size": "128"}]}}}, "dtype": {"type": "DT_FLOAT"}}}, {"name": "model_43/tf.math.add_143/Add/y", "op": "Const", "attr": {"dtype": {"type": "DT_FLOAT"}, "value": {"tensor": {"dtype": "DT_FLOAT", "tensorShape": {"dim": [{"size": "128"}]}}}}}, {"name": "model_43/tf.strided_slice_26/ones_like/tensor", "op": "Const", "attr": {"dtype": {"type": "DT_INT64"}, "value": {"tensor": {"dtype": "DT_INT64", "tensorShape": {"dim": [{"size": "4"}]}}}}}, {"name": "model_43/tf.strided_slice_26/StridedSlice/end", "op": "Const", "attr": {"dtype": {"type": "DT_INT64"}, "value": {"tensor": {"dtype": "DT_INT64", "tensorShape": {"dim": [{"size": "4"}]}}}}}, {"name": "model_43/tf.strided_slice_26/ones_like", "op": "Const", "attr": {"value": {"tensor": {"dtype": "DT_INT64", "tensorShape": {"dim": [{"size": "4"}]}}}, "dtype": {"type": "DT_INT64"}}}, {"name": "model_43/tf.strided_slice_24/ones_like/tensor", "op": "Const", "attr": {"dtype": {"type": "DT_INT64"}, "value": {"tensor": {"dtype": "DT_INT64", "tensorShape": {"dim": [{"size": "4"}]}}}}}, {"name": "model_43/tf.strided_slice_24/StridedSlice/end", "op": "Const", "attr": {"value": {"tensor": {"dtype": "DT_INT64", "tensorShape": {"dim": [{"size": "4"}]}}}, "dtype": {"type": "DT_INT64"}}}, {"name": "model_43/tf.strided_slice_24/ones_like", "op": "Const", "attr": {"value": {"tensor": {"dtype": "DT_INT64", "tensorShape": {"dim": [{"size": "4"}]}}}, "dtype": {"type": "DT_INT64"}}}, {"name": "model_43/tf.strided_slice_22/ones_like/tensor", "op": "Const", "attr": {"dtype": {"type": "DT_INT64"}, "value": {"tensor": {"dtype": "DT_INT64", "tensorShape": {"dim": [{"size": "4"}]}}}}}, {"name": "model_43/tf.strided_slice_22/StridedSlice/end", "op": "Const", "attr": {"value": {"tensor": {"dtype": "DT_INT64", "tensorShape": {"dim": [{"size": "4"}]}}}, "dtype": {"type": "DT_INT64"}}}, {"name": "model_43/tf.strided_slice_22/ones_like", "op": "Const", "attr": {"value": {"tensor": {"dtype": "DT_INT64", "tensorShape": {"dim": [{"size": "4"}]}}}, "dtype": {"type": "DT_INT64"}}}, {"name": "model_43/tf.strided_slice_20/ones_like/tensor", "op": "Const", "attr": {"value": {"tensor": {"dtype": "DT_INT64", "tensorShape": {"dim": [{"size": "4"}]}}}, "dtype": {"type": "DT_INT64"}}}, {"name": "model_43/tf.strided_slice_20/StridedSlice/end", "op": "Const", "attr": {"value": {"tensor": {"dtype": "DT_INT64", "tensorShape": {"dim": [{"size": "4"}]}}}, "dtype": {"type": "DT_INT64"}}}, {"name": "model_43/tf.strided_slice_20/ones_like", "op": "Const", "attr": {"value": {"tensor": {"dtype": "DT_INT64", "tensorShape": {"dim": [{"size": "4"}]}}}, "dtype": {"type": "DT_INT64"}}}, {"name": "model_43/tf.compat.v1.pad_7/Pad/paddings", "op": "Const", "attr": {"value": {"tensor": {"dtype": "DT_INT32", "tensorShape": {"dim": [{"size": "4"}, {"size": "2"}]}}}, "dtype": {"type": "DT_INT32"}}}, {"name": "model_43/tf.nn.convolution_68/convolution/filter", "op": "Const", "attr": {"value": {"tensor": {"dtype": "DT_FLOAT", "tensorShape": {"dim": [{"size": "3"}, {"size": "3"}, {"size": "3"}, {"size": "16"}]}}}, "dtype": {"type": "DT_FLOAT"}}}, {"name": "model_43/tf.math.add_81/Add/y", "op": "Const", "attr": {"value": {"tensor": {"dtype": "DT_FLOAT", "tensorShape": {"dim": [{"size": "16"}]}}}, "dtype": {"type": "DT_FLOAT"}}}, {"name": "model_43/tf.compat.v1.pad_8/Pad/paddings", "op": "Const", "attr": {"value": {"tensor": {"dtype": "DT_INT32", "tensorShape": {"dim": [{"size": "4"}, {"size": "2"}]}}}, "dtype": {"type": "DT_INT32"}}}, {"name": "model_43/tf.nn.convolution_69/convolution/filter", "op": "Const", "attr": {"dtype": {"type": "DT_FLOAT"}, "value": {"tensor": {"dtype": "DT_FLOAT", "tensorShape": {"dim": [{"size": "3"}, {"size": "3"}, {"size": "16"}, {"size": "32"}]}}}}}, {"name": "model_43/tf.math.add_82/Add/y", "op": "Const", "attr": {"dtype": {"type": "DT_FLOAT"}, "value": {"tensor": {"dtype": "DT_FLOAT", "tensorShape": {"dim": [{"size": "32"}]}}}}}, {"name": "model_43/tf.nn.convolution_70/convolution/filter", "op": "Const", "attr": {"value": {"tensor": {"dtype": "DT_FLOAT", "tensorShape": {"dim": [{"size": "1"}, {"size": "1"}, {"size": "32"}, {"size": "32"}]}}}, "dtype": {"type": "DT_FLOAT"}}}, {"name": "model_43/tf.math.add_83/Add/y", "op": "Const", "attr": {"value": {"tensor": {"dtype": "DT_FLOAT", "tensorShape": {"dim": [{"size": "32"}]}}}, "dtype": {"type": "DT_FLOAT"}}}, {"name": "model_43/tf.strided_slice_21/ones_like/tensor", "op": "Const", "attr": {"dtype": {"type": "DT_INT64"}, "value": {"tensor": {"dtype": "DT_INT64", "tensorShape": {"dim": [{"size": "4"}]}}}}}, {"name": "model_43/tf.strided_slice_21/StridedSlice/end", "op": "Const", "attr": {"value": {"tensor": {"dtype": "DT_INT64", "tensorShape": {"dim": [{"size": "4"}]}}}, "dtype": {"type": "DT_INT64"}}}, {"name": "model_43/tf.strided_slice_21/ones_like", "op": "Const", "attr": {"value": {"tensor": {"dtype": "DT_INT64", "tensorShape": {"dim": [{"size": "4"}]}}}, "dtype": {"type": "DT_INT64"}}}, {"name": "model_43/tf.nn.convolution_71/convolution/filter", "op": "Const", "attr": {"value": {"tensor": {"dtype": "DT_FLOAT", "tensorShape": {"dim": [{"size": "3"}, {"size": "3"}, {"size": "16"}, {"size": "16"}]}}}, "dtype": {"type": "DT_FLOAT"}}}, {"name": "model_43/tf.math.add_84/Add/y", "op": "Const", "attr": {"value": {"tensor": {"dtype": "DT_FLOAT", "tensorShape": {"dim": [{"size": "16"}]}}}, "dtype": {"type": "DT_FLOAT"}}}, {"name": "model_43/tf.nn.convolution_72/convolution/filter", "op": "Const", "attr": {"dtype": {"type": "DT_FLOAT"}, "value": {"tensor": {"dtype": "DT_FLOAT", "tensorShape": {"dim": [{"size": "3"}, {"size": "3"}, {"size": "16"}, {"size": "16"}]}}}}}, {"name": "model_43/tf.math.add_85/Add/y", "op": "Const", "attr": {"value": {"tensor": {"dtype": "DT_FLOAT", "tensorShape": {"dim": [{"size": "16"}]}}}, "dtype": {"type": "DT_FLOAT"}}}, {"name": "model_43/tf.concat_24/concat/axis", "op": "Const", "attr": {"value": {"tensor": {"dtype": "DT_INT32", "tensorShape": {}}}, "dtype": {"type": "DT_INT32"}}}, {"name": "model_43/tf.nn.convolution_73/convolution/filter", "op": "Const", "attr": {"dtype": {"type": "DT_FLOAT"}, "value": {"tensor": {"dtype": "DT_FLOAT", "tensorShape": {"dim": [{"size": "1"}, {"size": "1"}, {"size": "48"}, {"size": "32"}]}}}}}, {"name": "model_43/tf.math.add_88/Add/y", "op": "Const", "attr": {"value": {"tensor": {"dtype": "DT_FLOAT", "tensorShape": {"dim": [{"size": "32"}]}}}, "dtype": {"type": "DT_FLOAT"}}}, {"name": "model_43/tf.compat.v1.pad_9/Pad/paddings", "op": "Const", "attr": {"value": {"tensor": {"dtype": "DT_INT32", "tensorShape": {"dim": [{"size": "4"}, {"size": "2"}]}}}, "dtype": {"type": "DT_INT32"}}}, {"name": "model_43/tf.nn.convolution_74/convolution/filter", "op": "Const", "attr": {"dtype": {"type": "DT_FLOAT"}, "value": {"tensor": {"dtype": "DT_FLOAT", "tensorShape": {"dim": [{"size": "3"}, {"size": "3"}, {"size": "32"}, {"size": "64"}]}}}}}, {"name": "model_43/tf.math.add_89/Add/y", "op": "Const", "attr": {"dtype": {"type": "DT_FLOAT"}, "value": {"tensor": {"dtype": "DT_FLOAT", "tensorShape": {"dim": [{"size": "64"}]}}}}}, {"name": "model_43/tf.nn.convolution_75/convolution/filter", "op": "Const", "attr": {"dtype": {"type": "DT_FLOAT"}, "value": {"tensor": {"dtype": "DT_FLOAT", "tensorShape": {"dim": [{"size": "1"}, {"size": "1"}, {"size": "64"}, {"size": "64"}]}}}}}, {"name": "model_43/tf.math.add_90/Add/y", "op": "Const", "attr": {"value": {"tensor": {"dtype": "DT_FLOAT", "tensorShape": {"dim": [{"size": "64"}]}}}, "dtype": {"type": "DT_FLOAT"}}}, {"name": "model_43/tf.strided_slice_23/ones_like/tensor", "op": "Const", "attr": {"dtype": {"type": "DT_INT64"}, "value": {"tensor": {"dtype": "DT_INT64", "tensorShape": {"dim": [{"size": "4"}]}}}}}, {"name": "model_43/tf.strided_slice_23/StridedSlice/end", "op": "Const", "attr": {"value": {"tensor": {"dtype": "DT_INT64", "tensorShape": {"dim": [{"size": "4"}]}}}, "dtype": {"type": "DT_INT64"}}}, {"name": "model_43/tf.strided_slice_23/ones_like", "op": "Const", "attr": {"value": {"tensor": {"dtype": "DT_INT64", "tensorShape": {"dim": [{"size": "4"}]}}}, "dtype": {"type": "DT_INT64"}}}, {"name": "model_43/tf.nn.convolution_76/convolution/filter", "op": "Const", "attr": {"dtype": {"type": "DT_FLOAT"}, "value": {"tensor": {"dtype": "DT_FLOAT", "tensorShape": {"dim": [{"size": "3"}, {"size": "3"}, {"size": "32"}, {"size": "32"}]}}}}}, {"name": "model_43/tf.math.add_91/Add/y", "op": "Const", "attr": {"value": {"tensor": {"dtype": "DT_FLOAT", "tensorShape": {"dim": [{"size": "32"}]}}}, "dtype": {"type": "DT_FLOAT"}}}, {"name": "model_43/tf.nn.convolution_77/convolution/filter", "op": "Const", "attr": {"value": {"tensor": {"dtype": "DT_FLOAT", "tensorShape": {"dim": [{"size": "3"}, {"size": "3"}, {"size": "32"}, {"size": "32"}]}}}, "dtype": {"type": "DT_FLOAT"}}}, {"name": "model_43/tf.math.add_92/Add/y", "op": "Const", "attr": {"dtype": {"type": "DT_FLOAT"}, "value": {"tensor": {"dtype": "DT_FLOAT", "tensorShape": {"dim": [{"size": "32"}]}}}}}, {"name": "model_43/tf.nn.convolution_78/convolution/filter", "op": "Const", "attr": {"dtype": {"type": "DT_FLOAT"}, "value": {"tensor": {"dtype": "DT_FLOAT", "tensorShape": {"dim": [{"size": "3"}, {"size": "3"}, {"size": "32"}, {"size": "32"}]}}}}}, {"name": "model_43/tf.math.add_95/Add/y", "op": "Const", "attr": {"value": {"tensor": {"dtype": "DT_FLOAT", "tensorShape": {"dim": [{"size": "32"}]}}}, "dtype": {"type": "DT_FLOAT"}}}, {"name": "model_43/tf.nn.convolution_79/convolution/filter", "op": "Const", "attr": {"dtype": {"type": "DT_FLOAT"}, "value": {"tensor": {"dtype": "DT_FLOAT", "tensorShape": {"dim": [{"size": "3"}, {"size": "3"}, {"size": "32"}, {"size": "32"}]}}}}}, {"name": "model_43/tf.math.add_96/Add/y", "op": "Const", "attr": {"dtype": {"type": "DT_FLOAT"}, "value": {"tensor": {"dtype": "DT_FLOAT", "tensorShape": {"dim": [{"size": "32"}]}}}}}, {"name": "model_43/tf.concat_25/concat/axis", "op": "Const", "attr": {"value": {"tensor": {"dtype": "DT_INT32", "tensorShape": {}}}, "dtype": {"type": "DT_INT32"}}}, {"name": "model_43/tf.nn.convolution_80/convolution/filter", "op": "Const", "attr": {"dtype": {"type": "DT_FLOAT"}, "value": {"tensor": {"dtype": "DT_FLOAT", "tensorShape": {"dim": [{"size": "1"}, {"size": "1"}, {"size": "128"}, {"size": "64"}]}}}}}, {"name": "model_43/tf.math.add_99/Add/y", "op": "Const", "attr": {"value": {"tensor": {"dtype": "DT_FLOAT", "tensorShape": {"dim": [{"size": "64"}]}}}, "dtype": {"type": "DT_FLOAT"}}}, {"name": "model_43/tf.compat.v1.pad_10/Pad/paddings", "op": "Const", "attr": {"value": {"tensor": {"dtype": "DT_INT32", "tensorShape": {"dim": [{"size": "4"}, {"size": "2"}]}}}, "dtype": {"type": "DT_INT32"}}}, {"name": "model_43/tf.nn.convolution_81/convolution/filter", "op": "Const", "attr": {"dtype": {"type": "DT_FLOAT"}, "value": {"tensor": {"dtype": "DT_FLOAT", "tensorShape": {"dim": [{"size": "3"}, {"size": "3"}, {"size": "64"}, {"size": "128"}]}}}}}, {"name": "model_43/tf.math.add_100/Add/y", "op": "Const", "attr": {"value": {"tensor": {"dtype": "DT_FLOAT", "tensorShape": {"dim": [{"size": "128"}]}}}, "dtype": {"type": "DT_FLOAT"}}}, {"name": "model_43/tf.nn.convolution_82/convolution/filter", "op": "Const", "attr": {"value": {"tensor": {"dtype": "DT_FLOAT", "tensorShape": {"dim": [{"size": "1"}, {"size": "1"}, {"size": "128"}, {"size": "128"}]}}}, "dtype": {"type": "DT_FLOAT"}}}, {"name": "model_43/tf.math.add_101/Add/y", "op": "Const", "attr": {"dtype": {"type": "DT_FLOAT"}, "value": {"tensor": {"dtype": "DT_FLOAT", "tensorShape": {"dim": [{"size": "128"}]}}}}}, {"name": "model_43/tf.strided_slice_25/ones_like/tensor", "op": "Const", "attr": {"value": {"tensor": {"dtype": "DT_INT64", "tensorShape": {"dim": [{"size": "4"}]}}}, "dtype": {"type": "DT_INT64"}}}, {"name": "model_43/tf.strided_slice_25/StridedSlice/end", "op": "Const", "attr": {"dtype": {"type": "DT_INT64"}, "value": {"tensor": {"dtype": "DT_INT64", "tensorShape": {"dim": [{"size": "4"}]}}}}}, {"name": "model_43/tf.strided_slice_25/ones_like", "op": "Const", "attr": {"value": {"tensor": {"dtype": "DT_INT64", "tensorShape": {"dim": [{"size": "4"}]}}}, "dtype": {"type": "DT_INT64"}}}, {"name": "model_43/tf.nn.convolution_83/convolution/filter", "op": "Const", "attr": {"value": {"tensor": {"dtype": "DT_FLOAT", "tensorShape": {"dim": [{"size": "3"}, {"size": "3"}, {"size": "64"}, {"size": "64"}]}}}, "dtype": {"type": "DT_FLOAT"}}}, {"name": "model_43/tf.math.add_102/Add/y", "op": "Const", "attr": {"dtype": {"type": "DT_FLOAT"}, "value": {"tensor": {"dtype": "DT_FLOAT", "tensorShape": {"dim": [{"size": "64"}]}}}}}, {"name": "model_43/tf.nn.convolution_84/convolution/filter", "op": "Const", "attr": {"dtype": {"type": "DT_FLOAT"}, "value": {"tensor": {"dtype": "DT_FLOAT", "tensorShape": {"dim": [{"size": "3"}, {"size": "3"}, {"size": "64"}, {"size": "64"}]}}}}}, {"name": "model_43/tf.math.add_103/Add/y", "op": "Const", "attr": {"value": {"tensor": {"dtype": "DT_FLOAT", "tensorShape": {"dim": [{"size": "64"}]}}}, "dtype": {"type": "DT_FLOAT"}}}, {"name": "model_43/tf.nn.convolution_85/convolution/filter", "op": "Const", "attr": {"value": {"tensor": {"dtype": "DT_FLOAT", "tensorShape": {"dim": [{"size": "3"}, {"size": "3"}, {"size": "64"}, {"size": "64"}]}}}, "dtype": {"type": "DT_FLOAT"}}}, {"name": "model_43/tf.math.add_106/Add/y", "op": "Const", "attr": {"dtype": {"type": "DT_FLOAT"}, "value": {"tensor": {"dtype": "DT_FLOAT", "tensorShape": {"dim": [{"size": "64"}]}}}}}, {"name": "model_43/tf.nn.convolution_86/convolution/filter", "op": "Const", "attr": {"value": {"tensor": {"dtype": "DT_FLOAT", "tensorShape": {"dim": [{"size": "3"}, {"size": "3"}, {"size": "64"}, {"size": "64"}]}}}, "dtype": {"type": "DT_FLOAT"}}}, {"name": "model_43/tf.math.add_107/Add/y", "op": "Const", "attr": {"dtype": {"type": "DT_FLOAT"}, "value": {"tensor": {"dtype": "DT_FLOAT", "tensorShape": {"dim": [{"size": "64"}]}}}}}, {"name": "model_43/tf.concat_26/concat/axis", "op": "Const", "attr": {"value": {"tensor": {"dtype": "DT_INT32", "tensorShape": {}}}, "dtype": {"type": "DT_INT32"}}}, {"name": "model_43/tf.nn.convolution_87/convolution/filter", "op": "Const", "attr": {"value": {"tensor": {"dtype": "DT_FLOAT", "tensorShape": {"dim": [{"size": "1"}, {"size": "1"}, {"size": "256"}, {"size": "128"}]}}}, "dtype": {"type": "DT_FLOAT"}}}, {"name": "model_43/tf.math.add_110/Add/y", "op": "Const", "attr": {"dtype": {"type": "DT_FLOAT"}, "value": {"tensor": {"dtype": "DT_FLOAT", "tensorShape": {"dim": [{"size": "128"}]}}}}}, {"name": "model_43/tf.compat.v1.pad_11/Pad/paddings", "op": "Const", "attr": {"value": {"tensor": {"dtype": "DT_INT32", "tensorShape": {"dim": [{"size": "4"}, {"size": "2"}]}}}, "dtype": {"type": "DT_INT32"}}}, {"name": "model_43/tf.nn.convolution_88/convolution/filter", "op": "Const", "attr": {"value": {"tensor": {"dtype": "DT_FLOAT", "tensorShape": {"dim": [{"size": "3"}, {"size": "3"}, {"size": "128"}, {"size": "256"}]}}}, "dtype": {"type": "DT_FLOAT"}}}, {"name": "model_43/tf.math.add_111/Add/y", "op": "Const", "attr": {"dtype": {"type": "DT_FLOAT"}, "value": {"tensor": {"dtype": "DT_FLOAT", "tensorShape": {"dim": [{"size": "256"}]}}}}}, {"name": "model_43/tf.nn.convolution_89/convolution/filter", "op": "Const", "attr": {"dtype": {"type": "DT_FLOAT"}, "value": {"tensor": {"dtype": "DT_FLOAT", "tensorShape": {"dim": [{"size": "1"}, {"size": "1"}, {"size": "256"}, {"size": "256"}]}}}}}, {"name": "model_43/tf.math.add_112/Add/y", "op": "Const", "attr": {"dtype": {"type": "DT_FLOAT"}, "value": {"tensor": {"dtype": "DT_FLOAT", "tensorShape": {"dim": [{"size": "256"}]}}}}}, {"name": "model_43/tf.strided_slice_27/ones_like/tensor", "op": "Const", "attr": {"dtype": {"type": "DT_INT64"}, "value": {"tensor": {"dtype": "DT_INT64", "tensorShape": {"dim": [{"size": "4"}]}}}}}, {"name": "model_43/tf.strided_slice_27/StridedSlice/end", "op": "Const", "attr": {"dtype": {"type": "DT_INT64"}, "value": {"tensor": {"dtype": "DT_INT64", "tensorShape": {"dim": [{"size": "4"}]}}}}}, {"name": "model_43/tf.strided_slice_27/ones_like", "op": "Const", "attr": {"dtype": {"type": "DT_INT64"}, "value": {"tensor": {"dtype": "DT_INT64", "tensorShape": {"dim": [{"size": "4"}]}}}}}, {"name": "model_43/tf.nn.convolution_90/convolution/filter", "op": "Const", "attr": {"value": {"tensor": {"dtype": "DT_FLOAT", "tensorShape": {"dim": [{"size": "3"}, {"size": "3"}, {"size": "128"}, {"size": "128"}]}}}, "dtype": {"type": "DT_FLOAT"}}}, {"name": "model_43/tf.math.add_113/Add/y", "op": "Const", "attr": {"dtype": {"type": "DT_FLOAT"}, "value": {"tensor": {"dtype": "DT_FLOAT", "tensorShape": {"dim": [{"size": "128"}]}}}}}, {"name": "model_43/tf.nn.convolution_91/convolution/filter", "op": "Const", "attr": {"value": {"tensor": {"dtype": "DT_FLOAT", "tensorShape": {"dim": [{"size": "3"}, {"size": "3"}, {"size": "128"}, {"size": "128"}]}}}, "dtype": {"type": "DT_FLOAT"}}}, {"name": "model_43/tf.math.add_114/Add/y", "op": "Const", "attr": {"dtype": {"type": "DT_FLOAT"}, "value": {"tensor": {"dtype": "DT_FLOAT", "tensorShape": {"dim": [{"size": "128"}]}}}}}, {"name": "model_43/tf.concat_27/concat/axis", "op": "Const", "attr": {"dtype": {"type": "DT_INT32"}, "value": {"tensor": {"dtype": "DT_INT32", "tensorShape": {}}}}}, {"name": "model_43/tf.nn.convolution_92/convolution/filter", "op": "Const", "attr": {"value": {"tensor": {"dtype": "DT_FLOAT", "tensorShape": {"dim": [{"size": "1"}, {"size": "1"}, {"size": "384"}, {"size": "256"}]}}}, "dtype": {"type": "DT_FLOAT"}}}, {"name": "model_43/tf.math.add_117/Add/y", "op": "Const", "attr": {"dtype": {"type": "DT_FLOAT"}, "value": {"tensor": {"dtype": "DT_FLOAT", "tensorShape": {"dim": [{"size": "256"}]}}}}}, {"name": "model_43/tf.nn.convolution_93/convolution/filter", "op": "Const", "attr": {"dtype": {"type": "DT_FLOAT"}, "value": {"tensor": {"dtype": "DT_FLOAT", "tensorShape": {"dim": [{"size": "1"}, {"size": "1"}, {"size": "256"}, {"size": "128"}]}}}}}, {"name": "model_43/tf.math.add_118/Add/y", "op": "Const", "attr": {"value": {"tensor": {"dtype": "DT_FLOAT", "tensorShape": {"dim": [{"size": "128"}]}}}, "dtype": {"type": "DT_FLOAT"}}}, {"name": "model_43/tf.concat_28/concat/axis", "op": "Const", "attr": {"dtype": {"type": "DT_INT32"}, "value": {"tensor": {"dtype": "DT_INT32", "tensorShape": {}}}}}, {"name": "model_43/tf.nn.convolution_94/convolution/filter", "op": "Const", "attr": {"dtype": {"type": "DT_FLOAT"}, "value": {"tensor": {"dtype": "DT_FLOAT", "tensorShape": {"dim": [{"size": "1"}, {"size": "1"}, {"size": "512"}, {"size": "256"}]}}}}}, {"name": "model_43/tf.math.add_119/Add/y", "op": "Const", "attr": {"dtype": {"type": "DT_FLOAT"}, "value": {"tensor": {"dtype": "DT_FLOAT", "tensorShape": {"dim": [{"size": "256"}]}}}}}, {"name": "model_43/tf.concat_38/concat/axis", "op": "Const", "attr": {"dtype": {"type": "DT_INT32"}, "value": {"tensor": {"dtype": "DT_INT32", "tensorShape": {}}}}}, {"name": "model_43/tf.nn.convolution_123/convolution/filter", "op": "Const", "attr": {"value": {"tensor": {"dtype": "DT_FLOAT", "tensorShape": {"dim": [{"size": "1"}, {"size": "1"}, {"size": "384"}, {"size": "256"}]}}}, "dtype": {"type": "DT_FLOAT"}}}, {"name": "model_43/tf.math.add_148/Add/y", "op": "Const", "attr": {"value": {"tensor": {"dtype": "DT_FLOAT", "tensorShape": {"dim": [{"size": "256"}]}}}, "dtype": {"type": "DT_FLOAT"}}}, {"name": "model_43/tf.strided_slice_35/ones_like/tensor", "op": "Const", "attr": {"value": {"tensor": {"dtype": "DT_INT64", "tensorShape": {"dim": [{"size": "4"}]}}}, "dtype": {"type": "DT_INT64"}}}, {"name": "model_43/tf.strided_slice_35/StridedSlice/end", "op": "Const", "attr": {"dtype": {"type": "DT_INT64"}, "value": {"tensor": {"dtype": "DT_INT64", "tensorShape": {"dim": [{"size": "4"}]}}}}}, {"name": "model_43/tf.strided_slice_35/ones_like", "op": "Const", "attr": {"value": {"tensor": {"dtype": "DT_INT64", "tensorShape": {"dim": [{"size": "4"}]}}}, "dtype": {"type": "DT_INT64"}}}, {"name": "model_43/tf.nn.convolution_126/convolution/filter", "op": "Const", "attr": {"dtype": {"type": "DT_FLOAT"}, "value": {"tensor": {"dtype": "DT_FLOAT", "tensorShape": {"dim": [{"size": "3"}, {"size": "3"}, {"size": "128"}, {"size": "128"}]}}}}}, {"name": "model_43/tf.math.add_151/Add/y", "op": "Const", "attr": {"dtype": {"type": "DT_FLOAT"}, "value": {"tensor": {"dtype": "DT_FLOAT", "tensorShape": {"dim": [{"size": "128"}]}}}}}, {"name": "model_43/tf.nn.convolution_127/convolution/filter", "op": "Const", "attr": {"dtype": {"type": "DT_FLOAT"}, "value": {"tensor": {"dtype": "DT_FLOAT", "tensorShape": {"dim": [{"size": "3"}, {"size": "3"}, {"size": "128"}, {"size": "128"}]}}}}}, {"name": "model_43/tf.math.add_152/Add/y", "op": "Const", "attr": {"value": {"tensor": {"dtype": "DT_FLOAT", "tensorShape": {"dim": [{"size": "128"}]}}}, "dtype": {"type": "DT_FLOAT"}}}, {"name": "model_43/tf.concat_40/concat/axis", "op": "Const", "attr": {"value": {"tensor": {"dtype": "DT_INT32", "tensorShape": {}}}, "dtype": {"type": "DT_INT32"}}}, {"name": "model_43/tf.nn.convolution_128/convolution/filter", "op": "Const", "attr": {"value": {"tensor": {"dtype": "DT_FLOAT", "tensorShape": {"dim": [{"size": "1"}, {"size": "1"}, {"size": "384"}, {"size": "256"}]}}}, "dtype": {"type": "DT_FLOAT"}}}, {"name": "model_43/tf.math.add_153/Add/y", "op": "Const", "attr": {"value": {"tensor": {"dtype": "DT_FLOAT", "tensorShape": {"dim": [{"size": "256"}]}}}, "dtype": {"type": "DT_FLOAT"}}}, {"name": "model_43/tf.nn.convolution_130/convolution/filter", "op": "Const", "attr": {"value": {"tensor": {"dtype": "DT_FLOAT", "tensorShape": {"dim": [{"size": "3"}, {"size": "3"}, {"size": "256"}, {"size": "80"}]}}}, "dtype": {"type": "DT_FLOAT"}}}, {"name": "model_43/tf.math.add_155/Add/y", "op": "Const", "attr": {"value": {"tensor": {"dtype": "DT_FLOAT", "tensorShape": {"dim": [{"size": "80"}]}}}, "dtype": {"type": "DT_FLOAT"}}}, {"name": "model_43/tf.nn.convolution_132/convolution/filter", "op": "Const", "attr": {"value": {"tensor": {"dtype": "DT_FLOAT", "tensorShape": {"dim": [{"size": "3"}, {"size": "3"}, {"size": "80"}, {"size": "80"}]}}}, "dtype": {"type": "DT_FLOAT"}}}, {"name": "model_43/tf.math.add_157/Add/y", "op": "Const", "attr": {"value": {"tensor": {"dtype": "DT_FLOAT", "tensorShape": {"dim": [{"size": "80"}]}}}, "dtype": {"type": "DT_FLOAT"}}}, {"name": "model_43/tf.nn.convolution_134/convolution/filter", "op": "Const", "attr": {"dtype": {"type": "DT_FLOAT"}, "value": {"tensor": {"dtype": "DT_FLOAT", "tensorShape": {"dim": [{"size": "1"}, {"size": "1"}, {"size": "80"}, {"size": "80"}]}}}}}, {"name": "model_43/tf.math.add_159/Add/y", "op": "Const", "attr": {"dtype": {"type": "DT_FLOAT"}, "value": {"tensor": {"dtype": "DT_FLOAT", "tensorShape": {"dim": [{"size": "80"}]}}}}}, {"name": "model_43/tf.concat_41/concat/axis", "op": "Const", "attr": {"value": {"tensor": {"dtype": "DT_INT32", "tensorShape": {}}}, "dtype": {"type": "DT_INT32"}}}, {"name": "model_43/tf.compat.v1.transpose_52/transpose/perm", "op": "Const", "attr": {"value": {"tensor": {"dtype": "DT_INT32", "tensorShape": {"dim": [{"size": "4"}]}}}, "dtype": {"type": "DT_INT32"}}}, {"name": "model_43/tf.reshape_23/Reshape/shape", "op": "Const", "attr": {"value": {"tensor": {"dtype": "DT_INT32", "tensorShape": {"dim": [{"size": "3"}]}}}, "dtype": {"type": "DT_INT32"}}}, {"name": "model_43/tf.concat_42/concat/axis", "op": "Const", "attr": {"dtype": {"type": "DT_INT32"}, "value": {"tensor": {"dtype": "DT_INT32", "tensorShape": {}}}}}, {"name": "model_43/tf.strided_slice_37/StridedSlice/begin", "op": "Const", "attr": {"value": {"tensor": {"dtype": "DT_INT64", "tensorShape": {"dim": [{"size": "3"}]}}}, "dtype": {"type": "DT_INT64"}}}, {"name": "model_43/tf.strided_slice_37/StridedSlice/end", "op": "Const", "attr": {"dtype": {"type": "DT_INT64"}, "value": {"tensor": {"dtype": "DT_INT64", "tensorShape": {"dim": [{"size": "3"}]}}}}}, {"name": "model_43/tf.strided_slice_37/StridedSlice/strides", "op": "Const", "attr": {"dtype": {"type": "DT_INT64"}, "value": {"tensor": {"dtype": "DT_INT64", "tensorShape": {"dim": [{"size": "3"}]}}}}}, {"name": "model_43/output0/concat/axis", "op": "Const", "attr": {"value": {"tensor": {"dtype": "DT_INT32", "tensorShape": {}}}, "dtype": {"type": "DT_INT32"}}}, {"name": "x", "op": "Placeholder", "attr": {"shape": {"shape": {"dim": [{"size": "1"}, {"size": "640"}, {"size": "640"}, {"size": "3"}]}}, "dtype": {"type": "DT_FLOAT"}}}, {"name": "model_43/tf.compat.v1.pad_7/Pad", "op": "Pad", "input": ["x", "model_43/tf.compat.v1.pad_7/Pad/paddings"], "attr": {"Tpaddings": {"type": "DT_INT32"}, "T": {"type": "DT_FLOAT"}}}, {"name": "model_43/tf.math.add_81/Add", "op": "_FusedConv2D", "input": ["model_43/tf.compat.v1.pad_7/Pad", "model_43/tf.nn.convolution_68/convolution/filter", "model_43/tf.math.add_81/Add/y"], "device": "/device:CPU:0", "attr": {"data_format": {"s": "TkhXQw=="}, "use_cudnn_on_gpu": {"b": true}, "strides": {"list": {"i": ["1", "2", "2", "1"]}}, "TArgs": {"list": {"type": ["DT_FLOAT"]}}, "explicit_paddings": {"list": {}}, "padding": {"s": "VkFMSUQ="}, "T": {"type": "DT_FLOAT"}, "fused_ops": {"list": {"s": ["Qmlhc0FkZA=="]}}, "epsilon": {"f": 0.0}, "num_host_args": {"i": "0"}, "filter_format": {"s": "SFdJTw=="}, "dilations": {"list": {"i": ["1", "1", "1", "1"]}}, "num_args": {"i": "1"}, "leakyrelu_alpha": {"f": 0.2}}}, {"name": "model_43/tf.math.sigmoid_58/Sigmoid", "op": "Sigmoid", "input": ["model_43/tf.math.add_81/Add"], "attr": {"T": {"type": "DT_FLOAT"}}}, {"name": "model_43/tf.math.multiply_256/Mul", "op": "Mul", "input": ["model_43/tf.math.add_81/Add", "model_43/tf.math.sigmoid_58/Sigmoid"], "attr": {"T": {"type": "DT_FLOAT"}}}, {"name": "model_43/tf.compat.v1.pad_8/Pad", "op": "Pad", "input": ["model_43/tf.math.multiply_256/Mul", "model_43/tf.compat.v1.pad_8/Pad/paddings"], "attr": {"T": {"type": "DT_FLOAT"}, "Tpaddings": {"type": "DT_INT32"}}}, {"name": "model_43/tf.math.add_82/Add", "op": "_FusedConv2D", "input": ["model_43/tf.compat.v1.pad_8/Pad", "model_43/tf.nn.convolution_69/convolution/filter", "model_43/tf.math.add_82/Add/y"], "device": "/device:CPU:0", "attr": {"strides": {"list": {"i": ["1", "2", "2", "1"]}}, "fused_ops": {"list": {"s": ["Qmlhc0FkZA=="]}}, "leakyrelu_alpha": {"f": 0.2}, "explicit_paddings": {"list": {}}, "data_format": {"s": "TkhXQw=="}, "use_cudnn_on_gpu": {"b": true}, "TArgs": {"list": {"type": ["DT_FLOAT"]}}, "num_host_args": {"i": "0"}, "padding": {"s": "VkFMSUQ="}, "T": {"type": "DT_FLOAT"}, "epsilon": {"f": 0.0}, "num_args": {"i": "1"}, "filter_format": {"s": "SFdJTw=="}, "dilations": {"list": {"i": ["1", "1", "1", "1"]}}}}, {"name": "model_43/tf.math.sigmoid_59/Sigmoid", "op": "Sigmoid", "input": ["model_43/tf.math.add_82/Add"], "attr": {"T": {"type": "DT_FLOAT"}}}, {"name": "model_43/tf.math.multiply_260/Mul", "op": "Mul", "input": ["model_43/tf.math.add_82/Add", "model_43/tf.math.sigmoid_59/Sigmoid"], "attr": {"T": {"type": "DT_FLOAT"}}}, {"name": "model_43/tf.math.add_83/Add", "op": "_FusedConv2D", "input": ["model_43/tf.math.multiply_260/Mul", "model_43/tf.nn.convolution_70/convolution/filter", "model_43/tf.math.add_83/Add/y"], "device": "/device:CPU:0", "attr": {"TArgs": {"list": {"type": ["DT_FLOAT"]}}, "strides": {"list": {"i": ["1", "1", "1", "1"]}}, "epsilon": {"f": 0.0}, "dilations": {"list": {"i": ["1", "1", "1", "1"]}}, "data_format": {"s": "TkhXQw=="}, "fused_ops": {"list": {"s": ["Qmlhc0FkZA=="]}}, "filter_format": {"s": "SFdJTw=="}, "leakyrelu_alpha": {"f": 0.2}, "padding": {"s": "U0FNRQ=="}, "explicit_paddings": {"list": {}}, "num_host_args": {"i": "0"}, "use_cudnn_on_gpu": {"b": true}, "T": {"type": "DT_FLOAT"}, "num_args": {"i": "1"}}}, {"name": "model_43/tf.math.sigmoid_60/Sigmoid", "op": "Sigmoid", "input": ["model_43/tf.math.add_83/Add"], "attr": {"T": {"type": "DT_FLOAT"}}}, {"name": "model_43/tf.math.multiply_264/Mul", "op": "Mul", "input": ["model_43/tf.math.add_83/Add", "model_43/tf.math.sigmoid_60/Sigmoid"], "attr": {"T": {"type": "DT_FLOAT"}}}, {"name": "model_43/tf.strided_slice_20/StridedSlice", "op": "StridedSlice", "input": ["model_43/tf.math.multiply_264/Mul", "model_43/tf.strided_slice_20/ones_like/tensor", "model_43/tf.strided_slice_20/StridedSlice/end", "model_43/tf.strided_slice_20/ones_like"], "attr": {"ellipsis_mask": {"i": "0"}, "shrink_axis_mask": {"i": "0"}, "new_axis_mask": {"i": "0"}, "begin_mask": {"i": "15"}, "Index": {"type": "DT_INT64"}, "T": {"type": "DT_FLOAT"}, "end_mask": {"i": "7"}}}, {"name": "model_43/tf.strided_slice_21/StridedSlice", "op": "StridedSlice", "input": ["model_43/tf.math.multiply_264/Mul", "model_43/tf.strided_slice_21/ones_like/tensor", "model_43/tf.strided_slice_21/StridedSlice/end", "model_43/tf.strided_slice_21/ones_like"], "attr": {"begin_mask": {"i": "7"}, "Index": {"type": "DT_INT64"}, "ellipsis_mask": {"i": "0"}, "shrink_axis_mask": {"i": "0"}, "new_axis_mask": {"i": "0"}, "T": {"type": "DT_FLOAT"}, "end_mask": {"i": "7"}}}, {"name": "model_43/tf.math.add_84/Add", "op": "_FusedConv2D", "input": ["model_43/tf.strided_slice_21/StridedSlice", "model_43/tf.nn.convolution_71/convolution/filter", "model_43/tf.math.add_84/Add/y"], "device": "/device:CPU:0", "attr": {"num_args": {"i": "1"}, "leakyrelu_alpha": {"f": 0.2}, "strides": {"list": {"i": ["1", "1", "1", "1"]}}, "dilations": {"list": {"i": ["1", "1", "1", "1"]}}, "T": {"type": "DT_FLOAT"}, "filter_format": {"s": "SFdJTw=="}, "fused_ops": {"list": {"s": ["Qmlhc0FkZA=="]}}, "epsilon": {"f": 0.0}, "num_host_args": {"i": "0"}, "TArgs": {"list": {"type": ["DT_FLOAT"]}}, "data_format": {"s": "TkhXQw=="}, "explicit_paddings": {"list": {}}, "use_cudnn_on_gpu": {"b": true}, "padding": {"s": "U0FNRQ=="}}}, {"name": "model_43/tf.math.sigmoid_61/Sigmoid", "op": "Sigmoid", "input": ["model_43/tf.math.add_84/Add"], "attr": {"T": {"type": "DT_FLOAT"}}}, {"name": "model_43/tf.math.multiply_268/Mul", "op": "Mul", "input": ["model_43/tf.math.add_84/Add", "model_43/tf.math.sigmoid_61/Sigmoid"], "attr": {"T": {"type": "DT_FLOAT"}}}, {"name": "model_43/tf.math.add_85/Add", "op": "_FusedConv2D", "input": ["model_43/tf.math.multiply_268/Mul", "model_43/tf.nn.convolution_72/convolution/filter", "model_43/tf.math.add_85/Add/y"], "device": "/device:CPU:0", "attr": {"leakyrelu_alpha": {"f": 0.2}, "filter_format": {"s": "SFdJTw=="}, "T": {"type": "DT_FLOAT"}, "num_host_args": {"i": "0"}, "use_cudnn_on_gpu": {"b": true}, "dilations": {"list": {"i": ["1", "1", "1", "1"]}}, "padding": {"s": "U0FNRQ=="}, "explicit_paddings": {"list": {}}, "data_format": {"s": "TkhXQw=="}, "fused_ops": {"list": {"s": ["Qmlhc0FkZA=="]}}, "num_args": {"i": "1"}, "strides": {"list": {"i": ["1", "1", "1", "1"]}}, "epsilon": {"f": 0.0}, "TArgs": {"list": {"type": ["DT_FLOAT"]}}}}, {"name": "model_43/tf.math.sigmoid_62/Sigmoid", "op": "Sigmoid", "input": ["model_43/tf.math.add_85/Add"], "attr": {"T": {"type": "DT_FLOAT"}}}, {"name": "model_43/tf.math.multiply_272/Mul", "op": "Mul", "input": ["model_43/tf.math.add_85/Add", "model_43/tf.math.sigmoid_62/Sigmoid"], "attr": {"T": {"type": "DT_FLOAT"}}}, {"name": "model_43/tf.math.add_87/Add", "op": "AddV2", "input": ["model_43/tf.strided_slice_21/StridedSlice", "model_43/tf.math.multiply_272/Mul"], "attr": {"T": {"type": "DT_FLOAT"}}}, {"name": "model_43/tf.concat_24/concat", "op": "ConcatV2", "input": ["model_43/tf.strided_slice_20/StridedSlice", "model_43/tf.strided_slice_21/StridedSlice", "model_43/tf.math.add_87/Add", "model_43/tf.concat_24/concat/axis"], "attr": {"T": {"type": "DT_FLOAT"}, "Tidx": {"type": "DT_INT32"}, "N": {"i": "3"}}}, {"name": "model_43/tf.math.add_88/Add", "op": "_FusedConv2D", "input": ["model_43/tf.concat_24/concat", "model_43/tf.nn.convolution_73/convolution/filter", "model_43/tf.math.add_88/Add/y"], "device": "/device:CPU:0", "attr": {"dilations": {"list": {"i": ["1", "1", "1", "1"]}}, "filter_format": {"s": "SFdJTw=="}, "data_format": {"s": "TkhXQw=="}, "epsilon": {"f": 0.0}, "num_args": {"i": "1"}, "num_host_args": {"i": "0"}, "strides": {"list": {"i": ["1", "1", "1", "1"]}}, "leakyrelu_alpha": {"f": 0.2}, "TArgs": {"list": {"type": ["DT_FLOAT"]}}, "use_cudnn_on_gpu": {"b": true}, "padding": {"s": "U0FNRQ=="}, "explicit_paddings": {"list": {}}, "T": {"type": "DT_FLOAT"}, "fused_ops": {"list": {"s": ["Qmlhc0FkZA=="]}}}}, {"name": "model_43/tf.math.sigmoid_63/Sigmoid", "op": "Sigmoid", "input": ["model_43/tf.math.add_88/Add"], "attr": {"T": {"type": "DT_FLOAT"}}}, {"name": "model_43/tf.math.multiply_278/Mul", "op": "Mul", "input": ["model_43/tf.math.add_88/Add", "model_43/tf.math.sigmoid_63/Sigmoid"], "attr": {"T": {"type": "DT_FLOAT"}}}, {"name": "model_43/tf.compat.v1.pad_9/Pad", "op": "Pad", "input": ["model_43/tf.math.multiply_278/Mul", "model_43/tf.compat.v1.pad_9/Pad/paddings"], "attr": {"T": {"type": "DT_FLOAT"}, "Tpaddings": {"type": "DT_INT32"}}}, {"name": "model_43/tf.math.add_89/Add", "op": "_FusedConv2D", "input": ["model_43/tf.compat.v1.pad_9/Pad", "model_43/tf.nn.convolution_74/convolution/filter", "model_43/tf.math.add_89/Add/y"], "device": "/device:CPU:0", "attr": {"padding": {"s": "VkFMSUQ="}, "data_format": {"s": "TkhXQw=="}, "T": {"type": "DT_FLOAT"}, "filter_format": {"s": "SFdJTw=="}, "num_args": {"i": "1"}, "explicit_paddings": {"list": {}}, "leakyrelu_alpha": {"f": 0.2}, "strides": {"list": {"i": ["1", "2", "2", "1"]}}, "num_host_args": {"i": "0"}, "epsilon": {"f": 0.0}, "use_cudnn_on_gpu": {"b": true}, "TArgs": {"list": {"type": ["DT_FLOAT"]}}, "dilations": {"list": {"i": ["1", "1", "1", "1"]}}, "fused_ops": {"list": {"s": ["Qmlhc0FkZA=="]}}}}, {"name": "model_43/tf.math.sigmoid_64/Sigmoid", "op": "Sigmoid", "input": ["model_43/tf.math.add_89/Add"], "attr": {"T": {"type": "DT_FLOAT"}}}, {"name": "model_43/tf.math.multiply_282/Mul", "op": "Mul", "input": ["model_43/tf.math.add_89/Add", "model_43/tf.math.sigmoid_64/Sigmoid"], "attr": {"T": {"type": "DT_FLOAT"}}}, {"name": "model_43/tf.math.add_90/Add", "op": "_FusedConv2D", "input": ["model_43/tf.math.multiply_282/Mul", "model_43/tf.nn.convolution_75/convolution/filter", "model_43/tf.math.add_90/Add/y"], "device": "/device:CPU:0", "attr": {"num_host_args": {"i": "0"}, "fused_ops": {"list": {"s": ["Qmlhc0FkZA=="]}}, "T": {"type": "DT_FLOAT"}, "strides": {"list": {"i": ["1", "1", "1", "1"]}}, "dilations": {"list": {"i": ["1", "1", "1", "1"]}}, "leakyrelu_alpha": {"f": 0.2}, "use_cudnn_on_gpu": {"b": true}, "explicit_paddings": {"list": {}}, "filter_format": {"s": "SFdJTw=="}, "data_format": {"s": "TkhXQw=="}, "padding": {"s": "U0FNRQ=="}, "epsilon": {"f": 0.0}, "TArgs": {"list": {"type": ["DT_FLOAT"]}}, "num_args": {"i": "1"}}}, {"name": "model_43/tf.math.sigmoid_65/Sigmoid", "op": "Sigmoid", "input": ["model_43/tf.math.add_90/Add"], "attr": {"T": {"type": "DT_FLOAT"}}}, {"name": "model_43/tf.math.multiply_286/Mul", "op": "Mul", "input": ["model_43/tf.math.add_90/Add", "model_43/tf.math.sigmoid_65/Sigmoid"], "attr": {"T": {"type": "DT_FLOAT"}}}, {"name": "model_43/tf.strided_slice_22/StridedSlice", "op": "StridedSlice", "input": ["model_43/tf.math.multiply_286/Mul", "model_43/tf.strided_slice_22/ones_like/tensor", "model_43/tf.strided_slice_22/StridedSlice/end", "model_43/tf.strided_slice_22/ones_like"], "attr": {"end_mask": {"i": "7"}, "ellipsis_mask": {"i": "0"}, "begin_mask": {"i": "15"}, "shrink_axis_mask": {"i": "0"}, "T": {"type": "DT_FLOAT"}, "new_axis_mask": {"i": "0"}, "Index": {"type": "DT_INT64"}}}, {"name": "model_43/tf.strided_slice_23/StridedSlice", "op": "StridedSlice", "input": ["model_43/tf.math.multiply_286/Mul", "model_43/tf.strided_slice_23/ones_like/tensor", "model_43/tf.strided_slice_23/StridedSlice/end", "model_43/tf.strided_slice_23/ones_like"], "attr": {"Index": {"type": "DT_INT64"}, "new_axis_mask": {"i": "0"}, "shrink_axis_mask": {"i": "0"}, "T": {"type": "DT_FLOAT"}, "end_mask": {"i": "7"}, "begin_mask": {"i": "7"}, "ellipsis_mask": {"i": "0"}}}, {"name": "model_43/tf.math.add_91/Add", "op": "_FusedConv2D", "input": ["model_43/tf.strided_slice_23/StridedSlice", "model_43/tf.nn.convolution_76/convolution/filter", "model_43/tf.math.add_91/Add/y"], "device": "/device:CPU:0", "attr": {"filter_format": {"s": "SFdJTw=="}, "T": {"type": "DT_FLOAT"}, "explicit_paddings": {"list": {}}, "padding": {"s": "U0FNRQ=="}, "TArgs": {"list": {"type": ["DT_FLOAT"]}}, "use_cudnn_on_gpu": {"b": true}, "leakyrelu_alpha": {"f": 0.2}, "strides": {"list": {"i": ["1", "1", "1", "1"]}}, "epsilon": {"f": 0.0}, "num_args": {"i": "1"}, "dilations": {"list": {"i": ["1", "1", "1", "1"]}}, "num_host_args": {"i": "0"}, "data_format": {"s": "TkhXQw=="}, "fused_ops": {"list": {"s": ["Qmlhc0FkZA=="]}}}}, {"name": "model_43/tf.math.sigmoid_66/Sigmoid", "op": "Sigmoid", "input": ["model_43/tf.math.add_91/Add"], "attr": {"T": {"type": "DT_FLOAT"}}}, {"name": "model_43/tf.math.multiply_290/Mul", "op": "Mul", "input": ["model_43/tf.math.add_91/Add", "model_43/tf.math.sigmoid_66/Sigmoid"], "attr": {"T": {"type": "DT_FLOAT"}}}, {"name": "model_43/tf.math.add_92/Add", "op": "_FusedConv2D", "input": ["model_43/tf.math.multiply_290/Mul", "model_43/tf.nn.convolution_77/convolution/filter", "model_43/tf.math.add_92/Add/y"], "device": "/device:CPU:0", "attr": {"strides": {"list": {"i": ["1", "1", "1", "1"]}}, "TArgs": {"list": {"type": ["DT_FLOAT"]}}, "leakyrelu_alpha": {"f": 0.2}, "use_cudnn_on_gpu": {"b": true}, "num_host_args": {"i": "0"}, "dilations": {"list": {"i": ["1", "1", "1", "1"]}}, "filter_format": {"s": "SFdJTw=="}, "num_args": {"i": "1"}, "epsilon": {"f": 0.0}, "T": {"type": "DT_FLOAT"}, "fused_ops": {"list": {"s": ["Qmlhc0FkZA=="]}}, "padding": {"s": "U0FNRQ=="}, "data_format": {"s": "TkhXQw=="}, "explicit_paddings": {"list": {}}}}, {"name": "model_43/tf.math.sigmoid_67/Sigmoid", "op": "Sigmoid", "input": ["model_43/tf.math.add_92/Add"], "attr": {"T": {"type": "DT_FLOAT"}}}, {"name": "model_43/tf.math.multiply_294/Mul", "op": "Mul", "input": ["model_43/tf.math.add_92/Add", "model_43/tf.math.sigmoid_67/Sigmoid"], "attr": {"T": {"type": "DT_FLOAT"}}}, {"name": "model_43/tf.math.add_94/Add", "op": "AddV2", "input": ["model_43/tf.strided_slice_23/StridedSlice", "model_43/tf.math.multiply_294/Mul"], "attr": {"T": {"type": "DT_FLOAT"}}}, {"name": "model_43/tf.math.add_95/Add", "op": "_FusedConv2D", "input": ["model_43/tf.math.add_94/Add", "model_43/tf.nn.convolution_78/convolution/filter", "model_43/tf.math.add_95/Add/y"], "device": "/device:CPU:0", "attr": {"num_args": {"i": "1"}, "explicit_paddings": {"list": {}}, "data_format": {"s": "TkhXQw=="}, "leakyrelu_alpha": {"f": 0.2}, "num_host_args": {"i": "0"}, "padding": {"s": "U0FNRQ=="}, "epsilon": {"f": 0.0}, "dilations": {"list": {"i": ["1", "1", "1", "1"]}}, "fused_ops": {"list": {"s": ["Qmlhc0FkZA=="]}}, "strides": {"list": {"i": ["1", "1", "1", "1"]}}, "filter_format": {"s": "SFdJTw=="}, "TArgs": {"list": {"type": ["DT_FLOAT"]}}, "T": {"type": "DT_FLOAT"}, "use_cudnn_on_gpu": {"b": true}}}, {"name": "model_43/tf.math.sigmoid_68/Sigmoid", "op": "Sigmoid", "input": ["model_43/tf.math.add_95/Add"], "attr": {"T": {"type": "DT_FLOAT"}}}, {"name": "model_43/tf.math.multiply_300/Mul", "op": "Mul", "input": ["model_43/tf.math.add_95/Add", "model_43/tf.math.sigmoid_68/Sigmoid"], "attr": {"T": {"type": "DT_FLOAT"}}}, {"name": "model_43/tf.math.add_96/Add", "op": "_FusedConv2D", "input": ["model_43/tf.math.multiply_300/Mul", "model_43/tf.nn.convolution_79/convolution/filter", "model_43/tf.math.add_96/Add/y"], "device": "/device:CPU:0", "attr": {"TArgs": {"list": {"type": ["DT_FLOAT"]}}, "dilations": {"list": {"i": ["1", "1", "1", "1"]}}, "leakyrelu_alpha": {"f": 0.2}, "filter_format": {"s": "SFdJTw=="}, "T": {"type": "DT_FLOAT"}, "use_cudnn_on_gpu": {"b": true}, "strides": {"list": {"i": ["1", "1", "1", "1"]}}, "fused_ops": {"list": {"s": ["Qmlhc0FkZA=="]}}, "num_args": {"i": "1"}, "padding": {"s": "U0FNRQ=="}, "epsilon": {"f": 0.0}, "explicit_paddings": {"list": {}}, "num_host_args": {"i": "0"}, "data_format": {"s": "TkhXQw=="}}}, {"name": "model_43/tf.math.sigmoid_69/Sigmoid", "op": "Sigmoid", "input": ["model_43/tf.math.add_96/Add"], "attr": {"T": {"type": "DT_FLOAT"}}}, {"name": "model_43/tf.math.multiply_304/Mul", "op": "Mul", "input": ["model_43/tf.math.add_96/Add", "model_43/tf.math.sigmoid_69/Sigmoid"], "attr": {"T": {"type": "DT_FLOAT"}}}, {"name": "model_43/tf.math.add_98/Add", "op": "AddV2", "input": ["model_43/tf.math.add_94/Add", "model_43/tf.math.multiply_304/Mul"], "attr": {"T": {"type": "DT_FLOAT"}}}, {"name": "model_43/tf.concat_25/concat", "op": "ConcatV2", "input": ["model_43/tf.strided_slice_22/StridedSlice", "model_43/tf.strided_slice_23/StridedSlice", "model_43/tf.math.add_94/Add", "model_43/tf.math.add_98/Add", "model_43/tf.concat_25/concat/axis"], "attr": {"Tidx": {"type": "DT_INT32"}, "T": {"type": "DT_FLOAT"}, "N": {"i": "4"}}}, {"name": "model_43/tf.math.add_99/Add", "op": "_FusedConv2D", "input": ["model_43/tf.concat_25/concat", "model_43/tf.nn.convolution_80/convolution/filter", "model_43/tf.math.add_99/Add/y"], "device": "/device:CPU:0", "attr": {"use_cudnn_on_gpu": {"b": true}, "TArgs": {"list": {"type": ["DT_FLOAT"]}}, "T": {"type": "DT_FLOAT"}, "fused_ops": {"list": {"s": ["Qmlhc0FkZA=="]}}, "explicit_paddings": {"list": {}}, "filter_format": {"s": "SFdJTw=="}, "strides": {"list": {"i": ["1", "1", "1", "1"]}}, "num_args": {"i": "1"}, "padding": {"s": "U0FNRQ=="}, "leakyrelu_alpha": {"f": 0.2}, "epsilon": {"f": 0.0}, "dilations": {"list": {"i": ["1", "1", "1", "1"]}}, "data_format": {"s": "TkhXQw=="}, "num_host_args": {"i": "0"}}}, {"name": "model_43/tf.math.sigmoid_70/Sigmoid", "op": "Sigmoid", "input": ["model_43/tf.math.add_99/Add"], "attr": {"T": {"type": "DT_FLOAT"}}}, {"name": "model_43/tf.math.multiply_310/Mul", "op": "Mul", "input": ["model_43/tf.math.add_99/Add", "model_43/tf.math.sigmoid_70/Sigmoid"], "attr": {"T": {"type": "DT_FLOAT"}}}, {"name": "model_43/tf.compat.v1.pad_10/Pad", "op": "Pad", "input": ["model_43/tf.math.multiply_310/Mul", "model_43/tf.compat.v1.pad_10/Pad/paddings"], "attr": {"Tpaddings": {"type": "DT_INT32"}, "T": {"type": "DT_FLOAT"}}}, {"name": "model_43/tf.math.add_100/Add", "op": "_FusedConv2D", "input": ["model_43/tf.compat.v1.pad_10/Pad", "model_43/tf.nn.convolution_81/convolution/filter", "model_43/tf.math.add_100/Add/y"], "device": "/device:CPU:0", "attr": {"explicit_paddings": {"list": {}}, "strides": {"list": {"i": ["1", "2", "2", "1"]}}, "data_format": {"s": "TkhXQw=="}, "filter_format": {"s": "SFdJTw=="}, "num_host_args": {"i": "0"}, "num_args": {"i": "1"}, "T": {"type": "DT_FLOAT"}, "epsilon": {"f": 0.0}, "fused_ops": {"list": {"s": ["Qmlhc0FkZA=="]}}, "dilations": {"list": {"i": ["1", "1", "1", "1"]}}, "TArgs": {"list": {"type": ["DT_FLOAT"]}}, "padding": {"s": "VkFMSUQ="}, "use_cudnn_on_gpu": {"b": true}, "leakyrelu_alpha": {"f": 0.2}}}, {"name": "model_43/tf.math.sigmoid_71/Sigmoid", "op": "Sigmoid", "input": ["model_43/tf.math.add_100/Add"], "attr": {"T": {"type": "DT_FLOAT"}}}, {"name": "model_43/tf.math.multiply_314/Mul", "op": "Mul", "input": ["model_43/tf.math.add_100/Add", "model_43/tf.math.sigmoid_71/Sigmoid"], "attr": {"T": {"type": "DT_FLOAT"}}}, {"name": "model_43/tf.math.add_101/Add", "op": "_FusedConv2D", "input": ["model_43/tf.math.multiply_314/Mul", "model_43/tf.nn.convolution_82/convolution/filter", "model_43/tf.math.add_101/Add/y"], "device": "/device:CPU:0", "attr": {"data_format": {"s": "TkhXQw=="}, "filter_format": {"s": "SFdJTw=="}, "num_args": {"i": "1"}, "explicit_paddings": {"list": {}}, "leakyrelu_alpha": {"f": 0.2}, "num_host_args": {"i": "0"}, "padding": {"s": "U0FNRQ=="}, "epsilon": {"f": 0.0}, "fused_ops": {"list": {"s": ["Qmlhc0FkZA=="]}}, "TArgs": {"list": {"type": ["DT_FLOAT"]}}, "dilations": {"list": {"i": ["1", "1", "1", "1"]}}, "use_cudnn_on_gpu": {"b": true}, "strides": {"list": {"i": ["1", "1", "1", "1"]}}, "T": {"type": "DT_FLOAT"}}}, {"name": "model_43/tf.math.sigmoid_72/Sigmoid", "op": "Sigmoid", "input": ["model_43/tf.math.add_101/Add"], "attr": {"T": {"type": "DT_FLOAT"}}}, {"name": "model_43/tf.math.multiply_318/Mul", "op": "Mul", "input": ["model_43/tf.math.add_101/Add", "model_43/tf.math.sigmoid_72/Sigmoid"], "attr": {"T": {"type": "DT_FLOAT"}}}, {"name": "model_43/tf.strided_slice_24/StridedSlice", "op": "StridedSlice", "input": ["model_43/tf.math.multiply_318/Mul", "model_43/tf.strided_slice_24/ones_like/tensor", "model_43/tf.strided_slice_24/StridedSlice/end", "model_43/tf.strided_slice_24/ones_like"], "attr": {"Index": {"type": "DT_INT64"}, "ellipsis_mask": {"i": "0"}, "new_axis_mask": {"i": "0"}, "begin_mask": {"i": "15"}, "shrink_axis_mask": {"i": "0"}, "end_mask": {"i": "7"}, "T": {"type": "DT_FLOAT"}}}, {"name": "model_43/tf.strided_slice_25/StridedSlice", "op": "StridedSlice", "input": ["model_43/tf.math.multiply_318/Mul", "model_43/tf.strided_slice_25/ones_like/tensor", "model_43/tf.strided_slice_25/StridedSlice/end", "model_43/tf.strided_slice_25/ones_like"], "attr": {"T": {"type": "DT_FLOAT"}, "begin_mask": {"i": "7"}, "Index": {"type": "DT_INT64"}, "end_mask": {"i": "7"}, "new_axis_mask": {"i": "0"}, "ellipsis_mask": {"i": "0"}, "shrink_axis_mask": {"i": "0"}}}, {"name": "model_43/tf.math.add_102/Add", "op": "_FusedConv2D", "input": ["model_43/tf.strided_slice_25/StridedSlice", "model_43/tf.nn.convolution_83/convolution/filter", "model_43/tf.math.add_102/Add/y"], "device": "/device:CPU:0", "attr": {"fused_ops": {"list": {"s": ["Qmlhc0FkZA=="]}}, "dilations": {"list": {"i": ["1", "1", "1", "1"]}}, "use_cudnn_on_gpu": {"b": true}, "explicit_paddings": {"list": {}}, "epsilon": {"f": 0.0}, "padding": {"s": "U0FNRQ=="}, "filter_format": {"s": "SFdJTw=="}, "num_args": {"i": "1"}, "leakyrelu_alpha": {"f": 0.2}, "strides": {"list": {"i": ["1", "1", "1", "1"]}}, "TArgs": {"list": {"type": ["DT_FLOAT"]}}, "num_host_args": {"i": "0"}, "data_format": {"s": "TkhXQw=="}, "T": {"type": "DT_FLOAT"}}}, {"name": "model_43/tf.math.sigmoid_73/Sigmoid", "op": "Sigmoid", "input": ["model_43/tf.math.add_102/Add"], "attr": {"T": {"type": "DT_FLOAT"}}}, {"name": "model_43/tf.math.multiply_322/Mul", "op": "Mul", "input": ["model_43/tf.math.add_102/Add", "model_43/tf.math.sigmoid_73/Sigmoid"], "attr": {"T": {"type": "DT_FLOAT"}}}, {"name": "model_43/tf.math.add_103/Add", "op": "_FusedConv2D", "input": ["model_43/tf.math.multiply_322/Mul", "model_43/tf.nn.convolution_84/convolution/filter", "model_43/tf.math.add_103/Add/y"], "device": "/device:CPU:0", "attr": {"dilations": {"list": {"i": ["1", "1", "1", "1"]}}, "strides": {"list": {"i": ["1", "1", "1", "1"]}}, "filter_format": {"s": "SFdJTw=="}, "num_args": {"i": "1"}, "data_format": {"s": "TkhXQw=="}, "T": {"type": "DT_FLOAT"}, "num_host_args": {"i": "0"}, "use_cudnn_on_gpu": {"b": true}, "epsilon": {"f": 0.0}, "padding": {"s": "U0FNRQ=="}, "TArgs": {"list": {"type": ["DT_FLOAT"]}}, "explicit_paddings": {"list": {}}, "leakyrelu_alpha": {"f": 0.2}, "fused_ops": {"list": {"s": ["Qmlhc0FkZA=="]}}}}, {"name": "model_43/tf.math.sigmoid_74/Sigmoid", "op": "Sigmoid", "input": ["model_43/tf.math.add_103/Add"], "attr": {"T": {"type": "DT_FLOAT"}}}, {"name": "model_43/tf.math.multiply_326/Mul", "op": "Mul", "input": ["model_43/tf.math.add_103/Add", "model_43/tf.math.sigmoid_74/Sigmoid"], "attr": {"T": {"type": "DT_FLOAT"}}}, {"name": "model_43/tf.math.add_105/Add", "op": "AddV2", "input": ["model_43/tf.strided_slice_25/StridedSlice", "model_43/tf.math.multiply_326/Mul"], "attr": {"T": {"type": "DT_FLOAT"}}}, {"name": "model_43/tf.math.add_106/Add", "op": "_FusedConv2D", "input": ["model_43/tf.math.add_105/Add", "model_43/tf.nn.convolution_85/convolution/filter", "model_43/tf.math.add_106/Add/y"], "device": "/device:CPU:0", "attr": {"filter_format": {"s": "SFdJTw=="}, "strides": {"list": {"i": ["1", "1", "1", "1"]}}, "dilations": {"list": {"i": ["1", "1", "1", "1"]}}, "leakyrelu_alpha": {"f": 0.2}, "num_host_args": {"i": "0"}, "num_args": {"i": "1"}, "use_cudnn_on_gpu": {"b": true}, "explicit_paddings": {"list": {}}, "padding": {"s": "U0FNRQ=="}, "data_format": {"s": "TkhXQw=="}, "fused_ops": {"list": {"s": ["Qmlhc0FkZA=="]}}, "T": {"type": "DT_FLOAT"}, "TArgs": {"list": {"type": ["DT_FLOAT"]}}, "epsilon": {"f": 0.0}}}, {"name": "model_43/tf.math.sigmoid_75/Sigmoid", "op": "Sigmoid", "input": ["model_43/tf.math.add_106/Add"], "attr": {"T": {"type": "DT_FLOAT"}}}, {"name": "model_43/tf.math.multiply_332/Mul", "op": "Mul", "input": ["model_43/tf.math.add_106/Add", "model_43/tf.math.sigmoid_75/Sigmoid"], "attr": {"T": {"type": "DT_FLOAT"}}}, {"name": "model_43/tf.math.add_107/Add", "op": "_FusedConv2D", "input": ["model_43/tf.math.multiply_332/Mul", "model_43/tf.nn.convolution_86/convolution/filter", "model_43/tf.math.add_107/Add/y"], "device": "/device:CPU:0", "attr": {"dilations": {"list": {"i": ["1", "1", "1", "1"]}}, "fused_ops": {"list": {"s": ["Qmlhc0FkZA=="]}}, "explicit_paddings": {"list": {}}, "num_args": {"i": "1"}, "padding": {"s": "U0FNRQ=="}, "num_host_args": {"i": "0"}, "epsilon": {"f": 0.0}, "T": {"type": "DT_FLOAT"}, "data_format": {"s": "TkhXQw=="}, "use_cudnn_on_gpu": {"b": true}, "TArgs": {"list": {"type": ["DT_FLOAT"]}}, "filter_format": {"s": "SFdJTw=="}, "leakyrelu_alpha": {"f": 0.2}, "strides": {"list": {"i": ["1", "1", "1", "1"]}}}}, {"name": "model_43/tf.math.sigmoid_76/Sigmoid", "op": "Sigmoid", "input": ["model_43/tf.math.add_107/Add"], "attr": {"T": {"type": "DT_FLOAT"}}}, {"name": "model_43/tf.math.multiply_336/Mul", "op": "Mul", "input": ["model_43/tf.math.add_107/Add", "model_43/tf.math.sigmoid_76/Sigmoid"], "attr": {"T": {"type": "DT_FLOAT"}}}, {"name": "model_43/tf.math.add_109/Add", "op": "AddV2", "input": ["model_43/tf.math.add_105/Add", "model_43/tf.math.multiply_336/Mul"], "attr": {"T": {"type": "DT_FLOAT"}}}, {"name": "model_43/tf.concat_26/concat", "op": "ConcatV2", "input": ["model_43/tf.strided_slice_24/StridedSlice", "model_43/tf.strided_slice_25/StridedSlice", "model_43/tf.math.add_105/Add", "model_43/tf.math.add_109/Add", "model_43/tf.concat_26/concat/axis"], "attr": {"T": {"type": "DT_FLOAT"}, "N": {"i": "4"}, "Tidx": {"type": "DT_INT32"}}}, {"name": "model_43/tf.math.add_110/Add", "op": "_FusedConv2D", "input": ["model_43/tf.concat_26/concat", "model_43/tf.nn.convolution_87/convolution/filter", "model_43/tf.math.add_110/Add/y"], "device": "/device:CPU:0", "attr": {"strides": {"list": {"i": ["1", "1", "1", "1"]}}, "explicit_paddings": {"list": {}}, "TArgs": {"list": {"type": ["DT_FLOAT"]}}, "num_host_args": {"i": "0"}, "epsilon": {"f": 0.0}, "num_args": {"i": "1"}, "data_format": {"s": "TkhXQw=="}, "fused_ops": {"list": {"s": ["Qmlhc0FkZA=="]}}, "use_cudnn_on_gpu": {"b": true}, "leakyrelu_alpha": {"f": 0.2}, "padding": {"s": "U0FNRQ=="}, "T": {"type": "DT_FLOAT"}, "filter_format": {"s": "SFdJTw=="}, "dilations": {"list": {"i": ["1", "1", "1", "1"]}}}}, {"name": "model_43/tf.math.sigmoid_77/Sigmoid", "op": "Sigmoid", "input": ["model_43/tf.math.add_110/Add"], "attr": {"T": {"type": "DT_FLOAT"}}}, {"name": "model_43/tf.math.multiply_342/Mul", "op": "Mul", "input": ["model_43/tf.math.add_110/Add", "model_43/tf.math.sigmoid_77/Sigmoid"], "attr": {"T": {"type": "DT_FLOAT"}}}, {"name": "model_43/tf.compat.v1.pad_11/Pad", "op": "Pad", "input": ["model_43/tf.math.multiply_342/Mul", "model_43/tf.compat.v1.pad_11/Pad/paddings"], "attr": {"T": {"type": "DT_FLOAT"}, "Tpaddings": {"type": "DT_INT32"}}}, {"name": "model_43/tf.math.add_111/Add", "op": "_FusedConv2D", "input": ["model_43/tf.compat.v1.pad_11/Pad", "model_43/tf.nn.convolution_88/convolution/filter", "model_43/tf.math.add_111/Add/y"], "device": "/device:CPU:0", "attr": {"padding": {"s": "VkFMSUQ="}, "strides": {"list": {"i": ["1", "2", "2", "1"]}}, "TArgs": {"list": {"type": ["DT_FLOAT"]}}, "T": {"type": "DT_FLOAT"}, "epsilon": {"f": 0.0}, "dilations": {"list": {"i": ["1", "1", "1", "1"]}}, "data_format": {"s": "TkhXQw=="}, "leakyrelu_alpha": {"f": 0.2}, "num_host_args": {"i": "0"}, "use_cudnn_on_gpu": {"b": true}, "filter_format": {"s": "SFdJTw=="}, "fused_ops": {"list": {"s": ["Qmlhc0FkZA=="]}}, "explicit_paddings": {"list": {}}, "num_args": {"i": "1"}}}, {"name": "model_43/tf.math.sigmoid_78/Sigmoid", "op": "Sigmoid", "input": ["model_43/tf.math.add_111/Add"], "attr": {"T": {"type": "DT_FLOAT"}}}, {"name": "model_43/tf.math.multiply_346/Mul", "op": "Mul", "input": ["model_43/tf.math.add_111/Add", "model_43/tf.math.sigmoid_78/Sigmoid"], "attr": {"T": {"type": "DT_FLOAT"}}}, {"name": "model_43/tf.math.add_112/Add", "op": "_FusedConv2D", "input": ["model_43/tf.math.multiply_346/Mul", "model_43/tf.nn.convolution_89/convolution/filter", "model_43/tf.math.add_112/Add/y"], "device": "/device:CPU:0", "attr": {"num_args": {"i": "1"}, "use_cudnn_on_gpu": {"b": true}, "strides": {"list": {"i": ["1", "1", "1", "1"]}}, "fused_ops": {"list": {"s": ["Qmlhc0FkZA=="]}}, "num_host_args": {"i": "0"}, "epsilon": {"f": 0.0}, "T": {"type": "DT_FLOAT"}, "leakyrelu_alpha": {"f": 0.2}, "padding": {"s": "U0FNRQ=="}, "data_format": {"s": "TkhXQw=="}, "dilations": {"list": {"i": ["1", "1", "1", "1"]}}, "filter_format": {"s": "SFdJTw=="}, "explicit_paddings": {"list": {}}, "TArgs": {"list": {"type": ["DT_FLOAT"]}}}}, {"name": "model_43/tf.math.sigmoid_79/Sigmoid", "op": "Sigmoid", "input": ["model_43/tf.math.add_112/Add"], "attr": {"T": {"type": "DT_FLOAT"}}}, {"name": "model_43/tf.math.multiply_350/Mul", "op": "Mul", "input": ["model_43/tf.math.add_112/Add", "model_43/tf.math.sigmoid_79/Sigmoid"], "attr": {"T": {"type": "DT_FLOAT"}}}, {"name": "model_43/tf.strided_slice_26/StridedSlice", "op": "StridedSlice", "input": ["model_43/tf.math.multiply_350/Mul", "model_43/tf.strided_slice_26/ones_like/tensor", "model_43/tf.strided_slice_26/StridedSlice/end", "model_43/tf.strided_slice_26/ones_like"], "attr": {"T": {"type": "DT_FLOAT"}, "begin_mask": {"i": "15"}, "Index": {"type": "DT_INT64"}, "new_axis_mask": {"i": "0"}, "shrink_axis_mask": {"i": "0"}, "ellipsis_mask": {"i": "0"}, "end_mask": {"i": "7"}}}, {"name": "model_43/tf.strided_slice_27/StridedSlice", "op": "StridedSlice", "input": ["model_43/tf.math.multiply_350/Mul", "model_43/tf.strided_slice_27/ones_like/tensor", "model_43/tf.strided_slice_27/StridedSlice/end", "model_43/tf.strided_slice_27/ones_like"], "attr": {"new_axis_mask": {"i": "0"}, "end_mask": {"i": "7"}, "begin_mask": {"i": "7"}, "Index": {"type": "DT_INT64"}, "ellipsis_mask": {"i": "0"}, "shrink_axis_mask": {"i": "0"}, "T": {"type": "DT_FLOAT"}}}, {"name": "model_43/tf.math.add_113/Add", "op": "_FusedConv2D", "input": ["model_43/tf.strided_slice_27/StridedSlice", "model_43/tf.nn.convolution_90/convolution/filter", "model_43/tf.math.add_113/Add/y"], "device": "/device:CPU:0", "attr": {"data_format": {"s": "TkhXQw=="}, "explicit_paddings": {"list": {}}, "dilations": {"list": {"i": ["1", "1", "1", "1"]}}, "use_cudnn_on_gpu": {"b": true}, "num_host_args": {"i": "0"}, "epsilon": {"f": 0.0}, "TArgs": {"list": {"type": ["DT_FLOAT"]}}, "padding": {"s": "U0FNRQ=="}, "filter_format": {"s": "SFdJTw=="}, "num_args": {"i": "1"}, "strides": {"list": {"i": ["1", "1", "1", "1"]}}, "T": {"type": "DT_FLOAT"}, "fused_ops": {"list": {"s": ["Qmlhc0FkZA=="]}}, "leakyrelu_alpha": {"f": 0.2}}}, {"name": "model_43/tf.math.sigmoid_80/Sigmoid", "op": "Sigmoid", "input": ["model_43/tf.math.add_113/Add"], "attr": {"T": {"type": "DT_FLOAT"}}}, {"name": "model_43/tf.math.multiply_354/Mul", "op": "Mul", "input": ["model_43/tf.math.add_113/Add", "model_43/tf.math.sigmoid_80/Sigmoid"], "attr": {"T": {"type": "DT_FLOAT"}}}, {"name": "model_43/tf.math.add_114/Add", "op": "_FusedConv2D", "input": ["model_43/tf.math.multiply_354/Mul", "model_43/tf.nn.convolution_91/convolution/filter", "model_43/tf.math.add_114/Add/y"], "device": "/device:CPU:0", "attr": {"leakyrelu_alpha": {"f": 0.2}, "num_args": {"i": "1"}, "fused_ops": {"list": {"s": ["Qmlhc0FkZA=="]}}, "TArgs": {"list": {"type": ["DT_FLOAT"]}}, "padding": {"s": "U0FNRQ=="}, "dilations": {"list": {"i": ["1", "1", "1", "1"]}}, "use_cudnn_on_gpu": {"b": true}, "epsilon": {"f": 0.0}, "data_format": {"s": "TkhXQw=="}, "T": {"type": "DT_FLOAT"}, "num_host_args": {"i": "0"}, "explicit_paddings": {"list": {}}, "filter_format": {"s": "SFdJTw=="}, "strides": {"list": {"i": ["1", "1", "1", "1"]}}}}, {"name": "model_43/tf.math.sigmoid_81/Sigmoid", "op": "Sigmoid", "input": ["model_43/tf.math.add_114/Add"], "attr": {"T": {"type": "DT_FLOAT"}}}, {"name": "model_43/tf.math.multiply_358/Mul", "op": "Mul", "input": ["model_43/tf.math.add_114/Add", "model_43/tf.math.sigmoid_81/Sigmoid"], "attr": {"T": {"type": "DT_FLOAT"}}}, {"name": "model_43/tf.math.add_116/Add", "op": "AddV2", "input": ["model_43/tf.strided_slice_27/StridedSlice", "model_43/tf.math.multiply_358/Mul"], "attr": {"T": {"type": "DT_FLOAT"}}}, {"name": "model_43/tf.concat_27/concat", "op": "ConcatV2", "input": ["model_43/tf.strided_slice_26/StridedSlice", "model_43/tf.strided_slice_27/StridedSlice", "model_43/tf.math.add_116/Add", "model_43/tf.concat_27/concat/axis"], "attr": {"T": {"type": "DT_FLOAT"}, "Tidx": {"type": "DT_INT32"}, "N": {"i": "3"}}}, {"name": "model_43/tf.math.add_117/Add", "op": "_FusedConv2D", "input": ["model_43/tf.concat_27/concat", "model_43/tf.nn.convolution_92/convolution/filter", "model_43/tf.math.add_117/Add/y"], "device": "/device:CPU:0", "attr": {"data_format": {"s": "TkhXQw=="}, "num_args": {"i": "1"}, "fused_ops": {"list": {"s": ["Qmlhc0FkZA=="]}}, "explicit_paddings": {"list": {}}, "use_cudnn_on_gpu": {"b": true}, "leakyrelu_alpha": {"f": 0.2}, "num_host_args": {"i": "0"}, "strides": {"list": {"i": ["1", "1", "1", "1"]}}, "padding": {"s": "U0FNRQ=="}, "epsilon": {"f": 0.0}, "T": {"type": "DT_FLOAT"}, "dilations": {"list": {"i": ["1", "1", "1", "1"]}}, "TArgs": {"list": {"type": ["DT_FLOAT"]}}, "filter_format": {"s": "SFdJTw=="}}}, {"name": "model_43/tf.math.sigmoid_82/Sigmoid", "op": "Sigmoid", "input": ["model_43/tf.math.add_117/Add"], "attr": {"T": {"type": "DT_FLOAT"}}}, {"name": "model_43/tf.math.multiply_364/Mul", "op": "Mul", "input": ["model_43/tf.math.add_117/Add", "model_43/tf.math.sigmoid_82/Sigmoid"], "attr": {"T": {"type": "DT_FLOAT"}}}, {"name": "model_43/tf.math.add_118/Add", "op": "_FusedConv2D", "input": ["model_43/tf.math.multiply_364/Mul", "model_43/tf.nn.convolution_93/convolution/filter", "model_43/tf.math.add_118/Add/y"], "device": "/device:CPU:0", "attr": {"epsilon": {"f": 0.0}, "use_cudnn_on_gpu": {"b": true}, "T": {"type": "DT_FLOAT"}, "num_host_args": {"i": "0"}, "explicit_paddings": {"list": {}}, "num_args": {"i": "1"}, "data_format": {"s": "TkhXQw=="}, "filter_format": {"s": "SFdJTw=="}, "leakyrelu_alpha": {"f": 0.2}, "padding": {"s": "U0FNRQ=="}, "TArgs": {"list": {"type": ["DT_FLOAT"]}}, "dilations": {"list": {"i": ["1", "1", "1", "1"]}}, "fused_ops": {"list": {"s": ["Qmlhc0FkZA=="]}}, "strides": {"list": {"i": ["1", "1", "1", "1"]}}}}, {"name": "model_43/tf.math.sigmoid_83/Sigmoid", "op": "Sigmoid", "input": ["model_43/tf.math.add_118/Add"], "attr": {"T": {"type": "DT_FLOAT"}}}, {"name": "model_43/tf.math.multiply_368/Mul", "op": "Mul", "input": ["model_43/tf.math.add_118/Add", "model_43/tf.math.sigmoid_83/Sigmoid"], "attr": {"T": {"type": "DT_FLOAT"}}}, {"name": "model_43/tf.compat.v1.nn.pool_3/max_pool", "op": "MaxPool", "input": ["model_43/tf.math.multiply_368/Mul"], "attr": {"T": {"type": "DT_FLOAT"}, "explicit_paddings": {"list": {}}, "padding": {"s": "U0FNRQ=="}, "strides": {"list": {"i": ["1", "1", "1", "1"]}}, "data_format": {"s": "TkhXQw=="}, "ksize": {"list": {"i": ["1", "5", "5", "1"]}}}}, {"name": "model_43/tf.compat.v1.nn.pool_4/max_pool", "op": "MaxPool", "input": ["model_43/tf.compat.v1.nn.pool_3/max_pool"], "attr": {"padding": {"s": "U0FNRQ=="}, "data_format": {"s": "TkhXQw=="}, "strides": {"list": {"i": ["1", "1", "1", "1"]}}, "T": {"type": "DT_FLOAT"}, "ksize": {"list": {"i": ["1", "5", "5", "1"]}}, "explicit_paddings": {"list": {}}}}, {"name": "model_43/tf.compat.v1.nn.pool_5/max_pool", "op": "MaxPool", "input": ["model_43/tf.compat.v1.nn.pool_4/max_pool"], "attr": {"T": {"type": "DT_FLOAT"}, "ksize": {"list": {"i": ["1", "5", "5", "1"]}}, "strides": {"list": {"i": ["1", "1", "1", "1"]}}, "explicit_paddings": {"list": {}}, "padding": {"s": "U0FNRQ=="}, "data_format": {"s": "TkhXQw=="}}}, {"name": "model_43/tf.concat_28/concat", "op": "ConcatV2", "input": ["model_43/tf.math.multiply_368/Mul", "model_43/tf.compat.v1.nn.pool_3/max_pool", "model_43/tf.compat.v1.nn.pool_4/max_pool", "model_43/tf.compat.v1.nn.pool_5/max_pool", "model_43/tf.concat_28/concat/axis"], "attr": {"T": {"type": "DT_FLOAT"}, "N": {"i": "4"}, "Tidx": {"type": "DT_INT32"}}}, {"name": "model_43/tf.math.add_119/Add", "op": "_FusedConv2D", "input": ["model_43/tf.concat_28/concat", "model_43/tf.nn.convolution_94/convolution/filter", "model_43/tf.math.add_119/Add/y"], "device": "/device:CPU:0", "attr": {"epsilon": {"f": 0.0}, "data_format": {"s": "TkhXQw=="}, "strides": {"list": {"i": ["1", "1", "1", "1"]}}, "dilations": {"list": {"i": ["1", "1", "1", "1"]}}, "filter_format": {"s": "SFdJTw=="}, "num_host_args": {"i": "0"}, "explicit_paddings": {"list": {}}, "use_cudnn_on_gpu": {"b": true}, "TArgs": {"list": {"type": ["DT_FLOAT"]}}, "padding": {"s": "U0FNRQ=="}, "fused_ops": {"list": {"s": ["Qmlhc0FkZA=="]}}, "leakyrelu_alpha": {"f": 0.2}, "num_args": {"i": "1"}, "T": {"type": "DT_FLOAT"}}}, {"name": "model_43/tf.math.sigmoid_84/Sigmoid", "op": "Sigmoid", "input": ["model_43/tf.math.add_119/Add"], "attr": {"T": {"type": "DT_FLOAT"}}}, {"name": "model_43/tf.math.multiply_372/Mul", "op": "Mul", "input": ["model_43/tf.math.add_119/Add", "model_43/tf.math.sigmoid_84/Sigmoid"], "attr": {"T": {"type": "DT_FLOAT"}}}, {"name": "model_43/tf.image.resize_2/resize/ResizeNearestNeighbor", "op": "ResizeNearestNeighbor", "input": ["model_43/tf.math.multiply_372/Mul", "model_43/tf.image.resize_2/resize/size"], "attr": {"align_corners": {"b": false}, "T": {"type": "DT_FLOAT"}, "half_pixel_centers": {"b": true}}}, {"name": "model_43/tf.concat_29/concat", "op": "ConcatV2", "input": ["model_43/tf.image.resize_2/resize/ResizeNearestNeighbor", "model_43/tf.math.multiply_342/Mul", "model_43/tf.concat_29/concat/axis"], "attr": {"T": {"type": "DT_FLOAT"}, "N": {"i": "2"}, "Tidx": {"type": "DT_INT32"}}}, {"name": "model_43/tf.math.add_120/Add", "op": "_FusedConv2D", "input": ["model_43/tf.concat_29/concat", "model_43/tf.nn.convolution_95/convolution/filter", "model_43/tf.math.add_120/Add/y"], "device": "/device:CPU:0", "attr": {"leakyrelu_alpha": {"f": 0.2}, "T": {"type": "DT_FLOAT"}, "num_host_args": {"i": "0"}, "dilations": {"list": {"i": ["1", "1", "1", "1"]}}, "num_args": {"i": "1"}, "use_cudnn_on_gpu": {"b": true}, "padding": {"s": "U0FNRQ=="}, "TArgs": {"list": {"type": ["DT_FLOAT"]}}, "fused_ops": {"list": {"s": ["Qmlhc0FkZA=="]}}, "explicit_paddings": {"list": {}}, "strides": {"list": {"i": ["1", "1", "1", "1"]}}, "data_format": {"s": "TkhXQw=="}, "epsilon": {"f": 0.0}, "filter_format": {"s": "SFdJTw=="}}}, {"name": "model_43/tf.math.sigmoid_85/Sigmoid", "op": "Sigmoid", "input": ["model_43/tf.math.add_120/Add"], "attr": {"T": {"type": "DT_FLOAT"}}}, {"name": "model_43/tf.math.multiply_376/Mul", "op": "Mul", "input": ["model_43/tf.math.add_120/Add", "model_43/tf.math.sigmoid_85/Sigmoid"], "attr": {"T": {"type": "DT_FLOAT"}}}, {"name": "model_43/tf.strided_slice_28/StridedSlice", "op": "StridedSlice", "input": ["model_43/tf.math.multiply_376/Mul", "model_43/tf.strided_slice_28/ones_like/tensor", "model_43/tf.strided_slice_28/StridedSlice/end", "model_43/tf.strided_slice_28/ones_like"], "attr": {"begin_mask": {"i": "15"}, "new_axis_mask": {"i": "0"}, "ellipsis_mask": {"i": "0"}, "shrink_axis_mask": {"i": "0"}, "T": {"type": "DT_FLOAT"}, "Index": {"type": "DT_INT64"}, "end_mask": {"i": "7"}}}, {"name": "model_43/tf.strided_slice_29/StridedSlice", "op": "StridedSlice", "input": ["model_43/tf.math.multiply_376/Mul", "model_43/tf.strided_slice_29/ones_like/tensor", "model_43/tf.strided_slice_29/StridedSlice/end", "model_43/tf.strided_slice_29/ones_like"], "attr": {"end_mask": {"i": "7"}, "shrink_axis_mask": {"i": "0"}, "ellipsis_mask": {"i": "0"}, "T": {"type": "DT_FLOAT"}, "new_axis_mask": {"i": "0"}, "begin_mask": {"i": "7"}, "Index": {"type": "DT_INT64"}}}, {"name": "model_43/tf.math.add_121/Add", "op": "_FusedConv2D", "input": ["model_43/tf.strided_slice_29/StridedSlice", "model_43/tf.nn.convolution_96/convolution/filter", "model_43/tf.math.add_121/Add/y"], "device": "/device:CPU:0", "attr": {"epsilon": {"f": 0.0}, "filter_format": {"s": "SFdJTw=="}, "T": {"type": "DT_FLOAT"}, "use_cudnn_on_gpu": {"b": true}, "num_args": {"i": "1"}, "explicit_paddings": {"list": {}}, "TArgs": {"list": {"type": ["DT_FLOAT"]}}, "data_format": {"s": "TkhXQw=="}, "dilations": {"list": {"i": ["1", "1", "1", "1"]}}, "padding": {"s": "U0FNRQ=="}, "leakyrelu_alpha": {"f": 0.2}, "num_host_args": {"i": "0"}, "fused_ops": {"list": {"s": ["Qmlhc0FkZA=="]}}, "strides": {"list": {"i": ["1", "1", "1", "1"]}}}}, {"name": "model_43/tf.math.sigmoid_86/Sigmoid", "op": "Sigmoid", "input": ["model_43/tf.math.add_121/Add"], "attr": {"T": {"type": "DT_FLOAT"}}}, {"name": "model_43/tf.math.multiply_380/Mul", "op": "Mul", "input": ["model_43/tf.math.add_121/Add", "model_43/tf.math.sigmoid_86/Sigmoid"], "attr": {"T": {"type": "DT_FLOAT"}}}, {"name": "model_43/tf.math.add_122/Add", "op": "_FusedConv2D", "input": ["model_43/tf.math.multiply_380/Mul", "model_43/tf.nn.convolution_97/convolution/filter", "model_43/tf.math.add_122/Add/y"], "device": "/device:CPU:0", "attr": {"data_format": {"s": "TkhXQw=="}, "filter_format": {"s": "SFdJTw=="}, "fused_ops": {"list": {"s": ["Qmlhc0FkZA=="]}}, "padding": {"s": "U0FNRQ=="}, "dilations": {"list": {"i": ["1", "1", "1", "1"]}}, "num_args": {"i": "1"}, "use_cudnn_on_gpu": {"b": true}, "TArgs": {"list": {"type": ["DT_FLOAT"]}}, "explicit_paddings": {"list": {}}, "T": {"type": "DT_FLOAT"}, "leakyrelu_alpha": {"f": 0.2}, "num_host_args": {"i": "0"}, "strides": {"list": {"i": ["1", "1", "1", "1"]}}, "epsilon": {"f": 0.0}}}, {"name": "model_43/tf.math.sigmoid_87/Sigmoid", "op": "Sigmoid", "input": ["model_43/tf.math.add_122/Add"], "attr": {"T": {"type": "DT_FLOAT"}}}, {"name": "model_43/tf.math.multiply_384/Mul", "op": "Mul", "input": ["model_43/tf.math.add_122/Add", "model_43/tf.math.sigmoid_87/Sigmoid"], "attr": {"T": {"type": "DT_FLOAT"}}}, {"name": "model_43/tf.concat_30/concat", "op": "ConcatV2", "input": ["model_43/tf.strided_slice_28/StridedSlice", "model_43/tf.strided_slice_29/StridedSlice", "model_43/tf.math.multiply_384/Mul", "model_43/tf.concat_30/concat/axis"], "attr": {"N": {"i": "3"}, "T": {"type": "DT_FLOAT"}, "Tidx": {"type": "DT_INT32"}}}, {"name": "model_43/tf.math.add_123/Add", "op": "_FusedConv2D", "input": ["model_43/tf.concat_30/concat", "model_43/tf.nn.convolution_98/convolution/filter", "model_43/tf.math.add_123/Add/y"], "device": "/device:CPU:0", "attr": {"padding": {"s": "U0FNRQ=="}, "TArgs": {"list": {"type": ["DT_FLOAT"]}}, "epsilon": {"f": 0.0}, "dilations": {"list": {"i": ["1", "1", "1", "1"]}}, "strides": {"list": {"i": ["1", "1", "1", "1"]}}, "use_cudnn_on_gpu": {"b": true}, "num_args": {"i": "1"}, "T": {"type": "DT_FLOAT"}, "fused_ops": {"list": {"s": ["Qmlhc0FkZA=="]}}, "explicit_paddings": {"list": {}}, "filter_format": {"s": "SFdJTw=="}, "leakyrelu_alpha": {"f": 0.2}, "num_host_args": {"i": "0"}, "data_format": {"s": "TkhXQw=="}}}, {"name": "model_43/tf.math.sigmoid_88/Sigmoid", "op": "Sigmoid", "input": ["model_43/tf.math.add_123/Add"], "attr": {"T": {"type": "DT_FLOAT"}}}, {"name": "model_43/tf.math.multiply_388/Mul", "op": "Mul", "input": ["model_43/tf.math.add_123/Add", "model_43/tf.math.sigmoid_88/Sigmoid"], "attr": {"T": {"type": "DT_FLOAT"}}}, {"name": "model_43/tf.image.resize_3/resize/ResizeNearestNeighbor", "op": "ResizeNearestNeighbor", "input": ["model_43/tf.math.multiply_388/Mul", "model_43/tf.image.resize_3/resize/size"], "attr": {"half_pixel_centers": {"b": true}, "T": {"type": "DT_FLOAT"}, "align_corners": {"b": false}}}, {"name": "model_43/tf.concat_31/concat", "op": "ConcatV2", "input": ["model_43/tf.image.resize_3/resize/ResizeNearestNeighbor", "model_43/tf.math.multiply_310/Mul", "model_43/tf.concat_31/concat/axis"], "attr": {"Tidx": {"type": "DT_INT32"}, "N": {"i": "2"}, "T": {"type": "DT_FLOAT"}}}, {"name": "model_43/tf.math.add_124/Add", "op": "_FusedConv2D", "input": ["model_43/tf.concat_31/concat", "model_43/tf.nn.convolution_99/convolution/filter", "model_43/tf.math.add_124/Add/y"], "device": "/device:CPU:0", "attr": {"num_args": {"i": "1"}, "padding": {"s": "U0FNRQ=="}, "strides": {"list": {"i": ["1", "1", "1", "1"]}}, "TArgs": {"list": {"type": ["DT_FLOAT"]}}, "fused_ops": {"list": {"s": ["Qmlhc0FkZA=="]}}, "T": {"type": "DT_FLOAT"}, "num_host_args": {"i": "0"}, "use_cudnn_on_gpu": {"b": true}, "epsilon": {"f": 0.0}, "explicit_paddings": {"list": {}}, "data_format": {"s": "TkhXQw=="}, "leakyrelu_alpha": {"f": 0.2}, "dilations": {"list": {"i": ["1", "1", "1", "1"]}}, "filter_format": {"s": "SFdJTw=="}}}, {"name": "model_43/tf.math.sigmoid_89/Sigmoid", "op": "Sigmoid", "input": ["model_43/tf.math.add_124/Add"], "attr": {"T": {"type": "DT_FLOAT"}}}, {"name": "model_43/tf.math.multiply_392/Mul", "op": "Mul", "input": ["model_43/tf.math.add_124/Add", "model_43/tf.math.sigmoid_89/Sigmoid"], "attr": {"T": {"type": "DT_FLOAT"}}}, {"name": "model_43/tf.strided_slice_30/StridedSlice", "op": "StridedSlice", "input": ["model_43/tf.math.multiply_392/Mul", "model_43/tf.strided_slice_30/ones_like/tensor", "model_43/tf.strided_slice_30/StridedSlice/end", "model_43/tf.strided_slice_30/ones_like"], "attr": {"ellipsis_mask": {"i": "0"}, "T": {"type": "DT_FLOAT"}, "new_axis_mask": {"i": "0"}, "shrink_axis_mask": {"i": "0"}, "Index": {"type": "DT_INT64"}, "begin_mask": {"i": "15"}, "end_mask": {"i": "7"}}}, {"name": "model_43/tf.strided_slice_31/StridedSlice", "op": "StridedSlice", "input": ["model_43/tf.math.multiply_392/Mul", "model_43/tf.strided_slice_31/ones_like/tensor", "model_43/tf.strided_slice_31/StridedSlice/end", "model_43/tf.strided_slice_31/ones_like"], "attr": {"ellipsis_mask": {"i": "0"}, "new_axis_mask": {"i": "0"}, "Index": {"type": "DT_INT64"}, "T": {"type": "DT_FLOAT"}, "end_mask": {"i": "7"}, "shrink_axis_mask": {"i": "0"}, "begin_mask": {"i": "7"}}}, {"name": "model_43/tf.math.add_125/Add", "op": "_FusedConv2D", "input": ["model_43/tf.strided_slice_31/StridedSlice", "model_43/tf.nn.convolution_100/convolution/filter", "model_43/tf.math.add_125/Add/y"], "device": "/device:CPU:0", "attr": {"T": {"type": "DT_FLOAT"}, "TArgs": {"list": {"type": ["DT_FLOAT"]}}, "dilations": {"list": {"i": ["1", "1", "1", "1"]}}, "num_host_args": {"i": "0"}, "explicit_paddings": {"list": {}}, "strides": {"list": {"i": ["1", "1", "1", "1"]}}, "use_cudnn_on_gpu": {"b": true}, "epsilon": {"f": 0.0}, "num_args": {"i": "1"}, "data_format": {"s": "TkhXQw=="}, "leakyrelu_alpha": {"f": 0.2}, "padding": {"s": "U0FNRQ=="}, "filter_format": {"s": "SFdJTw=="}, "fused_ops": {"list": {"s": ["Qmlhc0FkZA=="]}}}}, {"name": "model_43/tf.math.sigmoid_90/Sigmoid", "op": "Sigmoid", "input": ["model_43/tf.math.add_125/Add"], "attr": {"T": {"type": "DT_FLOAT"}}}, {"name": "model_43/tf.math.multiply_396/Mul", "op": "Mul", "input": ["model_43/tf.math.add_125/Add", "model_43/tf.math.sigmoid_90/Sigmoid"], "attr": {"T": {"type": "DT_FLOAT"}}}, {"name": "model_43/tf.math.add_126/Add", "op": "_FusedConv2D", "input": ["model_43/tf.math.multiply_396/Mul", "model_43/tf.nn.convolution_101/convolution/filter", "model_43/tf.math.add_126/Add/y"], "device": "/device:CPU:0", "attr": {"fused_ops": {"list": {"s": ["Qmlhc0FkZA=="]}}, "leakyrelu_alpha": {"f": 0.2}, "dilations": {"list": {"i": ["1", "1", "1", "1"]}}, "use_cudnn_on_gpu": {"b": true}, "padding": {"s": "U0FNRQ=="}, "strides": {"list": {"i": ["1", "1", "1", "1"]}}, "data_format": {"s": "TkhXQw=="}, "filter_format": {"s": "SFdJTw=="}, "TArgs": {"list": {"type": ["DT_FLOAT"]}}, "num_args": {"i": "1"}, "epsilon": {"f": 0.0}, "explicit_paddings": {"list": {}}, "T": {"type": "DT_FLOAT"}, "num_host_args": {"i": "0"}}}, {"name": "model_43/tf.math.sigmoid_91/Sigmoid", "op": "Sigmoid", "input": ["model_43/tf.math.add_126/Add"], "attr": {"T": {"type": "DT_FLOAT"}}}, {"name": "model_43/tf.math.multiply_400/Mul", "op": "Mul", "input": ["model_43/tf.math.add_126/Add", "model_43/tf.math.sigmoid_91/Sigmoid"], "attr": {"T": {"type": "DT_FLOAT"}}}, {"name": "model_43/tf.concat_32/concat", "op": "ConcatV2", "input": ["model_43/tf.strided_slice_30/StridedSlice", "model_43/tf.strided_slice_31/StridedSlice", "model_43/tf.math.multiply_400/Mul", "model_43/tf.concat_32/concat/axis"], "attr": {"Tidx": {"type": "DT_INT32"}, "N": {"i": "3"}, "T": {"type": "DT_FLOAT"}}}, {"name": "model_43/tf.math.add_127/Add", "op": "_FusedConv2D", "input": ["model_43/tf.concat_32/concat", "model_43/tf.nn.convolution_102/convolution/filter", "model_43/tf.math.add_127/Add/y"], "device": "/device:CPU:0", "attr": {"padding": {"s": "U0FNRQ=="}, "T": {"type": "DT_FLOAT"}, "fused_ops": {"list": {"s": ["Qmlhc0FkZA=="]}}, "num_args": {"i": "1"}, "dilations": {"list": {"i": ["1", "1", "1", "1"]}}, "TArgs": {"list": {"type": ["DT_FLOAT"]}}, "epsilon": {"f": 0.0}, "explicit_paddings": {"list": {}}, "filter_format": {"s": "SFdJTw=="}, "strides": {"list": {"i": ["1", "1", "1", "1"]}}, "num_host_args": {"i": "0"}, "data_format": {"s": "TkhXQw=="}, "leakyrelu_alpha": {"f": 0.2}, "use_cudnn_on_gpu": {"b": true}}}, {"name": "model_43/tf.math.sigmoid_92/Sigmoid", "op": "Sigmoid", "input": ["model_43/tf.math.add_127/Add"], "attr": {"T": {"type": "DT_FLOAT"}}}, {"name": "model_43/tf.math.multiply_404/Mul", "op": "Mul", "input": ["model_43/tf.math.add_127/Add", "model_43/tf.math.sigmoid_92/Sigmoid"], "attr": {"T": {"type": "DT_FLOAT"}}}, {"name": "model_43/tf.math.add_129/Add", "op": "_FusedConv2D", "input": ["model_43/tf.math.multiply_404/Mul", "model_43/tf.nn.convolution_104/convolution/filter", "model_43/tf.math.add_129/Add/y"], "device": "/device:CPU:0", "attr": {"padding": {"s": "U0FNRQ=="}, "epsilon": {"f": 0.0}, "dilations": {"list": {"i": ["1", "1", "1", "1"]}}, "data_format": {"s": "TkhXQw=="}, "num_args": {"i": "1"}, "T": {"type": "DT_FLOAT"}, "strides": {"list": {"i": ["1", "1", "1", "1"]}}, "num_host_args": {"i": "0"}, "filter_format": {"s": "SFdJTw=="}, "explicit_paddings": {"list": {}}, "TArgs": {"list": {"type": ["DT_FLOAT"]}}, "fused_ops": {"list": {"s": ["Qmlhc0FkZA=="]}}, "leakyrelu_alpha": {"f": 0.2}, "use_cudnn_on_gpu": {"b": true}}}, {"name": "model_43/tf.math.add_130/Add", "op": "_FusedConv2D", "input": ["model_43/tf.math.multiply_404/Mul", "model_43/tf.nn.convolution_105/convolution/filter", "model_43/tf.math.add_130/Add/y"], "device": "/device:CPU:0", "attr": {"strides": {"list": {"i": ["1", "1", "1", "1"]}}, "padding": {"s": "U0FNRQ=="}, "data_format": {"s": "TkhXQw=="}, "explicit_paddings": {"list": {}}, "use_cudnn_on_gpu": {"b": true}, "num_host_args": {"i": "0"}, "filter_format": {"s": "SFdJTw=="}, "epsilon": {"f": 0.0}, "num_args": {"i": "1"}, "T": {"type": "DT_FLOAT"}, "TArgs": {"list": {"type": ["DT_FLOAT"]}}, "leakyrelu_alpha": {"f": 0.2}, "dilations": {"list": {"i": ["1", "1", "1", "1"]}}, "fused_ops": {"list": {"s": ["Qmlhc0FkZA=="]}}}}, {"name": "model_43/tf.compat.v1.pad_12/Pad", "op": "Pad", "input": ["model_43/tf.math.multiply_404/Mul", "model_43/tf.compat.v1.pad_12/Pad/paddings"], "attr": {"Tpaddings": {"type": "DT_INT32"}, "T": {"type": "DT_FLOAT"}}}, {"name": "model_43/tf.math.sigmoid_94/Sigmoid", "op": "Sigmoid", "input": ["model_43/tf.math.add_129/Add"], "attr": {"T": {"type": "DT_FLOAT"}}}, {"name": "model_43/tf.math.sigmoid_95/Sigmoid", "op": "Sigmoid", "input": ["model_43/tf.math.add_130/Add"], "attr": {"T": {"type": "DT_FLOAT"}}}, {"name": "model_43/tf.math.add_128/Add", "op": "_FusedConv2D", "input": ["model_43/tf.compat.v1.pad_12/Pad", "model_43/tf.nn.convolution_103/convolution/filter", "model_43/tf.math.add_128/Add/y"], "device": "/device:CPU:0", "attr": {"explicit_paddings": {"list": {}}, "padding": {"s": "VkFMSUQ="}, "epsilon": {"f": 0.0}, "T": {"type": "DT_FLOAT"}, "num_args": {"i": "1"}, "num_host_args": {"i": "0"}, "data_format": {"s": "TkhXQw=="}, "strides": {"list": {"i": ["1", "2", "2", "1"]}}, "dilations": {"list": {"i": ["1", "1", "1", "1"]}}, "use_cudnn_on_gpu": {"b": true}, "fused_ops": {"list": {"s": ["Qmlhc0FkZA=="]}}, "leakyrelu_alpha": {"f": 0.2}, "TArgs": {"list": {"type": ["DT_FLOAT"]}}, "filter_format": {"s": "SFdJTw=="}}}, {"name": "model_43/tf.math.multiply_412/Mul", "op": "Mul", "input": ["model_43/tf.math.add_129/Add", "model_43/tf.math.sigmoid_94/Sigmoid"], "attr": {"T": {"type": "DT_FLOAT"}}}, {"name": "model_43/tf.math.multiply_416/Mul", "op": "Mul", "input": ["model_43/tf.math.add_130/Add", "model_43/tf.math.sigmoid_95/Sigmoid"], "attr": {"T": {"type": "DT_FLOAT"}}}, {"name": "model_43/tf.math.sigmoid_93/Sigmoid", "op": "Sigmoid", "input": ["model_43/tf.math.add_128/Add"], "attr": {"T": {"type": "DT_FLOAT"}}}, {"name": "model_43/tf.math.add_131/Add", "op": "_FusedConv2D", "input": ["model_43/tf.math.multiply_412/Mul", "model_43/tf.nn.convolution_106/convolution/filter", "model_43/tf.math.add_131/Add/y"], "device": "/device:CPU:0", "attr": {"T": {"type": "DT_FLOAT"}, "explicit_paddings": {"list": {}}, "num_host_args": {"i": "0"}, "use_cudnn_on_gpu": {"b": true}, "data_format": {"s": "TkhXQw=="}, "num_args": {"i": "1"}, "strides": {"list": {"i": ["1", "1", "1", "1"]}}, "TArgs": {"list": {"type": ["DT_FLOAT"]}}, "leakyrelu_alpha": {"f": 0.2}, "fused_ops": {"list": {"s": ["Qmlhc0FkZA=="]}}, "padding": {"s": "U0FNRQ=="}, "dilations": {"list": {"i": ["1", "1", "1", "1"]}}, "filter_format": {"s": "SFdJTw=="}, "epsilon": {"f": 0.0}}}, {"name": "model_43/tf.math.add_134/Add", "op": "_FusedConv2D", "input": ["model_43/tf.math.multiply_416/Mul", "model_43/tf.nn.convolution_109/convolution/filter", "model_43/tf.math.add_134/Add/y"], "device": "/device:CPU:0", "attr": {"num_args": {"i": "1"}, "use_cudnn_on_gpu": {"b": true}, "fused_ops": {"list": {"s": ["Qmlhc0FkZA=="]}}, "strides": {"list": {"i": ["1", "1", "1", "1"]}}, "epsilon": {"f": 0.0}, "T": {"type": "DT_FLOAT"}, "explicit_paddings": {"list": {}}, "data_format": {"s": "TkhXQw=="}, "TArgs": {"list": {"type": ["DT_FLOAT"]}}, "num_host_args": {"i": "0"}, "leakyrelu_alpha": {"f": 0.2}, "padding": {"s": "U0FNRQ=="}, "filter_format": {"s": "SFdJTw=="}, "dilations": {"list": {"i": ["1", "1", "1", "1"]}}}}, {"name": "model_43/tf.math.multiply_408/Mul", "op": "Mul", "input": ["model_43/tf.math.add_128/Add", "model_43/tf.math.sigmoid_93/Sigmoid"], "attr": {"T": {"type": "DT_FLOAT"}}}, {"name": "model_43/tf.math.sigmoid_96/Sigmoid", "op": "Sigmoid", "input": ["model_43/tf.math.add_131/Add"], "attr": {"T": {"type": "DT_FLOAT"}}}, {"name": "model_43/tf.math.sigmoid_97/Sigmoid", "op": "Sigmoid", "input": ["model_43/tf.math.add_134/Add"], "attr": {"T": {"type": "DT_FLOAT"}}}, {"name": "model_43/tf.concat_33/concat", "op": "ConcatV2", "input": ["model_43/tf.math.multiply_408/Mul", "model_43/tf.math.multiply_388/Mul", "model_43/tf.concat_33/concat/axis"], "attr": {"T": {"type": "DT_FLOAT"}, "Tidx": {"type": "DT_INT32"}, "N": {"i": "2"}}}, {"name": "model_43/tf.math.multiply_420/Mul", "op": "Mul", "input": ["model_43/tf.math.add_131/Add", "model_43/tf.math.sigmoid_96/Sigmoid"], "attr": {"T": {"type": "DT_FLOAT"}}}, {"name": "model_43/tf.math.multiply_424/Mul", "op": "Mul", "input": ["model_43/tf.math.add_134/Add", "model_43/tf.math.sigmoid_97/Sigmoid"], "attr": {"T": {"type": "DT_FLOAT"}}}, {"name": "model_43/tf.math.add_135/Add", "op": "_FusedConv2D", "input": ["model_43/tf.concat_33/concat", "model_43/tf.nn.convolution_110/convolution/filter", "model_43/tf.math.add_135/Add/y"], "device": "/device:CPU:0", "attr": {"dilations": {"list": {"i": ["1", "1", "1", "1"]}}, "num_host_args": {"i": "0"}, "fused_ops": {"list": {"s": ["Qmlhc0FkZA=="]}}, "use_cudnn_on_gpu": {"b": true}, "data_format": {"s": "TkhXQw=="}, "explicit_paddings": {"list": {}}, "epsilon": {"f": 0.0}, "TArgs": {"list": {"type": ["DT_FLOAT"]}}, "padding": {"s": "U0FNRQ=="}, "strides": {"list": {"i": ["1", "1", "1", "1"]}}, "T": {"type": "DT_FLOAT"}, "filter_format": {"s": "SFdJTw=="}, "leakyrelu_alpha": {"f": 0.2}, "num_args": {"i": "1"}}}, {"name": "model_43/tf.math.add_136/Add", "op": "_FusedConv2D", "input": ["model_43/tf.math.multiply_420/Mul", "model_43/tf.nn.convolution_111/convolution/filter", "model_43/tf.math.add_136/Add/y"], "device": "/device:CPU:0", "attr": {"dilations": {"list": {"i": ["1", "1", "1", "1"]}}, "data_format": {"s": "TkhXQw=="}, "leakyrelu_alpha": {"f": 0.2}, "epsilon": {"f": 0.0}, "TArgs": {"list": {"type": ["DT_FLOAT"]}}, "num_host_args": {"i": "0"}, "fused_ops": {"list": {"s": ["Qmlhc0FkZA=="]}}, "num_args": {"i": "1"}, "filter_format": {"s": "SFdJTw=="}, "strides": {"list": {"i": ["1", "1", "1", "1"]}}, "T": {"type": "DT_FLOAT"}, "padding": {"s": "U0FNRQ=="}, "use_cudnn_on_gpu": {"b": true}, "explicit_paddings": {"list": {}}}}, {"name": "model_43/tf.math.add_139/Add", "op": "_FusedConv2D", "input": ["model_43/tf.math.multiply_424/Mul", "model_43/tf.nn.convolution_114/convolution/filter", "model_43/tf.math.add_139/Add/y"], "device": "/device:CPU:0", "attr": {"TArgs": {"list": {"type": ["DT_FLOAT"]}}, "epsilon": {"f": 0.0}, "use_cudnn_on_gpu": {"b": true}, "strides": {"list": {"i": ["1", "1", "1", "1"]}}, "T": {"type": "DT_FLOAT"}, "leakyrelu_alpha": {"f": 0.2}, "num_host_args": {"i": "0"}, "data_format": {"s": "TkhXQw=="}, "num_args": {"i": "1"}, "padding": {"s": "U0FNRQ=="}, "filter_format": {"s": "SFdJTw=="}, "dilations": {"list": {"i": ["1", "1", "1", "1"]}}, "explicit_paddings": {"list": {}}, "fused_ops": {"list": {"s": ["Qmlhc0FkZA=="]}}}}, {"name": "model_43/tf.math.sigmoid_98/Sigmoid", "op": "Sigmoid", "input": ["model_43/tf.math.add_135/Add"], "attr": {"T": {"type": "DT_FLOAT"}}}, {"name": "model_43/tf.concat_36/concat", "op": "ConcatV2", "input": ["model_43/tf.math.add_136/Add", "model_43/tf.math.add_139/Add", "model_43/tf.concat_36/concat/axis"], "attr": {"T": {"type": "DT_FLOAT"}, "N": {"i": "2"}, "Tidx": {"type": "DT_INT32"}}}, {"name": "model_43/tf.math.multiply_428/Mul", "op": "Mul", "input": ["model_43/tf.math.add_135/Add", "model_43/tf.math.sigmoid_98/Sigmoid"], "attr": {"T": {"type": "DT_FLOAT"}}}, {"name": "model_43/tf.compat.v1.transpose_42/transpose", "op": "Transpose", "input": ["model_43/tf.concat_36/concat", "model_43/tf.compat.v1.transpose_42/transpose/perm"], "attr": {"Tperm": {"type": "DT_INT32"}, "T": {"type": "DT_FLOAT"}}}, {"name": "model_43/tf.strided_slice_32/StridedSlice", "op": "StridedSlice", "input": ["model_43/tf.math.multiply_428/Mul", "model_43/tf.strided_slice_32/ones_like/tensor", "model_43/tf.strided_slice_32/StridedSlice/end", "model_43/tf.strided_slice_32/ones_like"], "attr": {"shrink_axis_mask": {"i": "0"}, "Index": {"type": "DT_INT64"}, "ellipsis_mask": {"i": "0"}, "begin_mask": {"i": "15"}, "new_axis_mask": {"i": "0"}, "T": {"type": "DT_FLOAT"}, "end_mask": {"i": "7"}}}, {"name": "model_43/tf.strided_slice_33/StridedSlice", "op": "StridedSlice", "input": ["model_43/tf.math.multiply_428/Mul", "model_43/tf.strided_slice_33/ones_like/tensor", "model_43/tf.strided_slice_33/StridedSlice/end", "model_43/tf.strided_slice_33/ones_like"], "attr": {"shrink_axis_mask": {"i": "0"}, "ellipsis_mask": {"i": "0"}, "begin_mask": {"i": "7"}, "new_axis_mask": {"i": "0"}, "Index": {"type": "DT_INT64"}, "end_mask": {"i": "7"}, "T": {"type": "DT_FLOAT"}}}, {"name": "model_43/tf.reshape_17/Reshape", "op": "Reshape", "input": ["model_43/tf.compat.v1.transpose_42/transpose", "model_43/tf.reshape_17/Reshape/shape"], "attr": {"Tshape": {"type": "DT_INT32"}, "T": {"type": "DT_FLOAT"}}}, {"name": "model_43/tf.math.add_140/Add", "op": "_FusedConv2D", "input": ["model_43/tf.strided_slice_33/StridedSlice", "model_43/tf.nn.convolution_115/convolution/filter", "model_43/tf.math.add_140/Add/y"], "device": "/device:CPU:0", "attr": {"use_cudnn_on_gpu": {"b": true}, "epsilon": {"f": 0.0}, "strides": {"list": {"i": ["1", "1", "1", "1"]}}, "TArgs": {"list": {"type": ["DT_FLOAT"]}}, "num_host_args": {"i": "0"}, "num_args": {"i": "1"}, "dilations": {"list": {"i": ["1", "1", "1", "1"]}}, "explicit_paddings": {"list": {}}, "filter_format": {"s": "SFdJTw=="}, "padding": {"s": "U0FNRQ=="}, "leakyrelu_alpha": {"f": 0.2}, "data_format": {"s": "TkhXQw=="}, "fused_ops": {"list": {"s": ["Qmlhc0FkZA=="]}}, "T": {"type": "DT_FLOAT"}}}, {"name": "model_43/tf.math.sigmoid_99/Sigmoid", "op": "Sigmoid", "input": ["model_43/tf.math.add_140/Add"], "attr": {"T": {"type": "DT_FLOAT"}}}, {"name": "model_43/tf.math.multiply_432/Mul", "op": "Mul", "input": ["model_43/tf.math.add_140/Add", "model_43/tf.math.sigmoid_99/Sigmoid"], "attr": {"T": {"type": "DT_FLOAT"}}}, {"name": "model_43/tf.math.add_141/Add", "op": "_FusedConv2D", "input": ["model_43/tf.math.multiply_432/Mul", "model_43/tf.nn.convolution_116/convolution/filter", "model_43/tf.math.add_141/Add/y"], "device": "/device:CPU:0", "attr": {"data_format": {"s": "TkhXQw=="}, "use_cudnn_on_gpu": {"b": true}, "dilations": {"list": {"i": ["1", "1", "1", "1"]}}, "num_host_args": {"i": "0"}, "explicit_paddings": {"list": {}}, "filter_format": {"s": "SFdJTw=="}, "T": {"type": "DT_FLOAT"}, "strides": {"list": {"i": ["1", "1", "1", "1"]}}, "epsilon": {"f": 0.0}, "fused_ops": {"list": {"s": ["Qmlhc0FkZA=="]}}, "leakyrelu_alpha": {"f": 0.2}, "TArgs": {"list": {"type": ["DT_FLOAT"]}}, "padding": {"s": "U0FNRQ=="}, "num_args": {"i": "1"}}}, {"name": "model_43/tf.math.sigmoid_100/Sigmoid", "op": "Sigmoid", "input": ["model_43/tf.math.add_141/Add"], "attr": {"T": {"type": "DT_FLOAT"}}}, {"name": "model_43/tf.math.multiply_436/Mul", "op": "Mul", "input": ["model_43/tf.math.add_141/Add", "model_43/tf.math.sigmoid_100/Sigmoid"], "attr": {"T": {"type": "DT_FLOAT"}}}, {"name": "model_43/tf.concat_37/concat", "op": "ConcatV2", "input": ["model_43/tf.strided_slice_32/StridedSlice", "model_43/tf.strided_slice_33/StridedSlice", "model_43/tf.math.multiply_436/Mul", "model_43/tf.concat_37/concat/axis"], "attr": {"Tidx": {"type": "DT_INT32"}, "N": {"i": "3"}, "T": {"type": "DT_FLOAT"}}}, {"name": "model_43/tf.math.add_142/Add", "op": "_FusedConv2D", "input": ["model_43/tf.concat_37/concat", "model_43/tf.nn.convolution_117/convolution/filter", "model_43/tf.math.add_142/Add/y"], "device": "/device:CPU:0", "attr": {"padding": {"s": "U0FNRQ=="}, "TArgs": {"list": {"type": ["DT_FLOAT"]}}, "strides": {"list": {"i": ["1", "1", "1", "1"]}}, "data_format": {"s": "TkhXQw=="}, "num_host_args": {"i": "0"}, "dilations": {"list": {"i": ["1", "1", "1", "1"]}}, "epsilon": {"f": 0.0}, "explicit_paddings": {"list": {}}, "leakyrelu_alpha": {"f": 0.2}, "fused_ops": {"list": {"s": ["Qmlhc0FkZA=="]}}, "T": {"type": "DT_FLOAT"}, "use_cudnn_on_gpu": {"b": true}, "num_args": {"i": "1"}, "filter_format": {"s": "SFdJTw=="}}}, {"name": "model_43/tf.math.sigmoid_101/Sigmoid", "op": "Sigmoid", "input": ["model_43/tf.math.add_142/Add"], "attr": {"T": {"type": "DT_FLOAT"}}}, {"name": "model_43/tf.math.multiply_440/Mul", "op": "Mul", "input": ["model_43/tf.math.add_142/Add", "model_43/tf.math.sigmoid_101/Sigmoid"], "attr": {"T": {"type": "DT_FLOAT"}}}, {"name": "model_43/tf.math.add_144/Add", "op": "_FusedConv2D", "input": ["model_43/tf.math.multiply_440/Mul", "model_43/tf.nn.convolution_119/convolution/filter", "model_43/tf.math.add_144/Add/y"], "device": "/device:CPU:0", "attr": {"epsilon": {"f": 0.0}, "num_args": {"i": "1"}, "data_format": {"s": "TkhXQw=="}, "num_host_args": {"i": "0"}, "T": {"type": "DT_FLOAT"}, "fused_ops": {"list": {"s": ["Qmlhc0FkZA=="]}}, "explicit_paddings": {"list": {}}, "use_cudnn_on_gpu": {"b": true}, "strides": {"list": {"i": ["1", "1", "1", "1"]}}, "TArgs": {"list": {"type": ["DT_FLOAT"]}}, "leakyrelu_alpha": {"f": 0.2}, "dilations": {"list": {"i": ["1", "1", "1", "1"]}}, "filter_format": {"s": "SFdJTw=="}, "padding": {"s": "U0FNRQ=="}}}, {"name": "model_43/tf.math.add_145/Add", "op": "_FusedConv2D", "input": ["model_43/tf.math.multiply_440/Mul", "model_43/tf.nn.convolution_120/convolution/filter", "model_43/tf.math.add_145/Add/y"], "device": "/device:CPU:0", "attr": {"epsilon": {"f": 0.0}, "T": {"type": "DT_FLOAT"}, "data_format": {"s": "TkhXQw=="}, "strides": {"list": {"i": ["1", "1", "1", "1"]}}, "leakyrelu_alpha": {"f": 0.2}, "num_args": {"i": "1"}, "dilations": {"list": {"i": ["1", "1", "1", "1"]}}, "fused_ops": {"list": {"s": ["Qmlhc0FkZA=="]}}, "padding": {"s": "U0FNRQ=="}, "filter_format": {"s": "SFdJTw=="}, "explicit_paddings": {"list": {}}, "num_host_args": {"i": "0"}, "use_cudnn_on_gpu": {"b": true}, "TArgs": {"list": {"type": ["DT_FLOAT"]}}}}, {"name": "model_43/tf.compat.v1.pad_13/Pad", "op": "Pad", "input": ["model_43/tf.math.multiply_440/Mul", "model_43/tf.compat.v1.pad_13/Pad/paddings"], "attr": {"Tpaddings": {"type": "DT_INT32"}, "T": {"type": "DT_FLOAT"}}}, {"name": "model_43/tf.math.sigmoid_103/Sigmoid", "op": "Sigmoid", "input": ["model_43/tf.math.add_144/Add"], "attr": {"T": {"type": "DT_FLOAT"}}}, {"name": "model_43/tf.math.sigmoid_104/Sigmoid", "op": "Sigmoid", "input": ["model_43/tf.math.add_145/Add"], "attr": {"T": {"type": "DT_FLOAT"}}}, {"name": "model_43/tf.math.add_143/Add", "op": "_FusedConv2D", "input": ["model_43/tf.compat.v1.pad_13/Pad", "model_43/tf.nn.convolution_118/convolution/filter", "model_43/tf.math.add_143/Add/y"], "device": "/device:CPU:0", "attr": {"use_cudnn_on_gpu": {"b": true}, "dilations": {"list": {"i": ["1", "1", "1", "1"]}}, "num_host_args": {"i": "0"}, "TArgs": {"list": {"type": ["DT_FLOAT"]}}, "filter_format": {"s": "SFdJTw=="}, "leakyrelu_alpha": {"f": 0.2}, "explicit_paddings": {"list": {}}, "padding": {"s": "VkFMSUQ="}, "fused_ops": {"list": {"s": ["Qmlhc0FkZA=="]}}, "epsilon": {"f": 0.0}, "data_format": {"s": "TkhXQw=="}, "strides": {"list": {"i": ["1", "2", "2", "1"]}}, "T": {"type": "DT_FLOAT"}, "num_args": {"i": "1"}}}, {"name": "model_43/tf.math.multiply_448/Mul", "op": "Mul", "input": ["model_43/tf.math.add_144/Add", "model_43/tf.math.sigmoid_103/Sigmoid"], "attr": {"T": {"type": "DT_FLOAT"}}}, {"name": "model_43/tf.math.multiply_452/Mul", "op": "Mul", "input": ["model_43/tf.math.add_145/Add", "model_43/tf.math.sigmoid_104/Sigmoid"], "attr": {"T": {"type": "DT_FLOAT"}}}, {"name": "model_43/tf.math.sigmoid_102/Sigmoid", "op": "Sigmoid", "input": ["model_43/tf.math.add_143/Add"], "attr": {"T": {"type": "DT_FLOAT"}}}, {"name": "model_43/tf.math.add_146/Add", "op": "_FusedConv2D", "input": ["model_43/tf.math.multiply_448/Mul", "model_43/tf.nn.convolution_121/convolution/filter", "model_43/tf.math.add_146/Add/y"], "device": "/device:CPU:0", "attr": {"fused_ops": {"list": {"s": ["Qmlhc0FkZA=="]}}, "T": {"type": "DT_FLOAT"}, "use_cudnn_on_gpu": {"b": true}, "data_format": {"s": "TkhXQw=="}, "leakyrelu_alpha": {"f": 0.2}, "strides": {"list": {"i": ["1", "1", "1", "1"]}}, "epsilon": {"f": 0.0}, "dilations": {"list": {"i": ["1", "1", "1", "1"]}}, "TArgs": {"list": {"type": ["DT_FLOAT"]}}, "filter_format": {"s": "SFdJTw=="}, "num_args": {"i": "1"}, "explicit_paddings": {"list": {}}, "num_host_args": {"i": "0"}, "padding": {"s": "U0FNRQ=="}}}, {"name": "model_43/tf.math.add_147/Add", "op": "_FusedConv2D", "input": ["model_43/tf.math.multiply_452/Mul", "model_43/tf.nn.convolution_122/convolution/filter", "model_43/tf.math.add_147/Add/y"], "device": "/device:CPU:0", "attr": {"epsilon": {"f": 0.0}, "T": {"type": "DT_FLOAT"}, "num_host_args": {"i": "0"}, "data_format": {"s": "TkhXQw=="}, "explicit_paddings": {"list": {}}, "dilations": {"list": {"i": ["1", "1", "1", "1"]}}, "strides": {"list": {"i": ["1", "1", "1", "1"]}}, "num_args": {"i": "1"}, "padding": {"s": "U0FNRQ=="}, "leakyrelu_alpha": {"f": 0.2}, "use_cudnn_on_gpu": {"b": true}, "filter_format": {"s": "SFdJTw=="}, "TArgs": {"list": {"type": ["DT_FLOAT"]}}, "fused_ops": {"list": {"s": ["Qmlhc0FkZA=="]}}}}, {"name": "model_43/tf.math.multiply_444/Mul", "op": "Mul", "input": ["model_43/tf.math.add_143/Add", "model_43/tf.math.sigmoid_102/Sigmoid"], "attr": {"T": {"type": "DT_FLOAT"}}}, {"name": "model_43/tf.math.sigmoid_105/Sigmoid", "op": "Sigmoid", "input": ["model_43/tf.math.add_146/Add"], "attr": {"T": {"type": "DT_FLOAT"}}}, {"name": "model_43/tf.math.sigmoid_106/Sigmoid", "op": "Sigmoid", "input": ["model_43/tf.math.add_147/Add"], "attr": {"T": {"type": "DT_FLOAT"}}}, {"name": "model_43/tf.concat_38/concat", "op": "ConcatV2", "input": ["model_43/tf.math.multiply_444/Mul", "model_43/tf.math.multiply_372/Mul", "model_43/tf.concat_38/concat/axis"], "attr": {"T": {"type": "DT_FLOAT"}, "Tidx": {"type": "DT_INT32"}, "N": {"i": "2"}}}, {"name": "model_43/tf.math.multiply_456/Mul", "op": "Mul", "input": ["model_43/tf.math.add_146/Add", "model_43/tf.math.sigmoid_105/Sigmoid"], "attr": {"T": {"type": "DT_FLOAT"}}}, {"name": "model_43/tf.math.multiply_460/Mul", "op": "Mul", "input": ["model_43/tf.math.add_147/Add", "model_43/tf.math.sigmoid_106/Sigmoid"], "attr": {"T": {"type": "DT_FLOAT"}}}, {"name": "model_43/tf.math.add_148/Add", "op": "_FusedConv2D", "input": ["model_43/tf.concat_38/concat", "model_43/tf.nn.convolution_123/convolution/filter", "model_43/tf.math.add_148/Add/y"], "device": "/device:CPU:0", "attr": {"filter_format": {"s": "SFdJTw=="}, "padding": {"s": "U0FNRQ=="}, "fused_ops": {"list": {"s": ["Qmlhc0FkZA=="]}}, "num_args": {"i": "1"}, "use_cudnn_on_gpu": {"b": true}, "epsilon": {"f": 0.0}, "strides": {"list": {"i": ["1", "1", "1", "1"]}}, "T": {"type": "DT_FLOAT"}, "explicit_paddings": {"list": {}}, "num_host_args": {"i": "0"}, "dilations": {"list": {"i": ["1", "1", "1", "1"]}}, "TArgs": {"list": {"type": ["DT_FLOAT"]}}, "data_format": {"s": "TkhXQw=="}, "leakyrelu_alpha": {"f": 0.2}}}, {"name": "model_43/tf.math.add_149/Add", "op": "_FusedConv2D", "input": ["model_43/tf.math.multiply_456/Mul", "model_43/tf.nn.convolution_124/convolution/filter", "model_43/tf.math.add_149/Add/y"], "device": "/device:CPU:0", "attr": {"data_format": {"s": "TkhXQw=="}, "num_args": {"i": "1"}, "leakyrelu_alpha": {"f": 0.2}, "strides": {"list": {"i": ["1", "1", "1", "1"]}}, "T": {"type": "DT_FLOAT"}, "epsilon": {"f": 0.0}, "explicit_paddings": {"list": {}}, "num_host_args": {"i": "0"}, "filter_format": {"s": "SFdJTw=="}, "padding": {"s": "U0FNRQ=="}, "use_cudnn_on_gpu": {"b": true}, "dilations": {"list": {"i": ["1", "1", "1", "1"]}}, "TArgs": {"list": {"type": ["DT_FLOAT"]}}, "fused_ops": {"list": {"s": ["Qmlhc0FkZA=="]}}}}, {"name": "model_43/tf.math.add_150/Add", "op": "_FusedConv2D", "input": ["model_43/tf.math.multiply_460/Mul", "model_43/tf.nn.convolution_125/convolution/filter", "model_43/tf.math.add_150/Add/y"], "device": "/device:CPU:0", "attr": {"fused_ops": {"list": {"s": ["Qmlhc0FkZA=="]}}, "epsilon": {"f": 0.0}, "leakyrelu_alpha": {"f": 0.2}, "T": {"type": "DT_FLOAT"}, "strides": {"list": {"i": ["1", "1", "1", "1"]}}, "TArgs": {"list": {"type": ["DT_FLOAT"]}}, "num_args": {"i": "1"}, "dilations": {"list": {"i": ["1", "1", "1", "1"]}}, "explicit_paddings": {"list": {}}, "padding": {"s": "U0FNRQ=="}, "num_host_args": {"i": "0"}, "data_format": {"s": "TkhXQw=="}, "filter_format": {"s": "SFdJTw=="}, "use_cudnn_on_gpu": {"b": true}}}, {"name": "model_43/tf.math.sigmoid_107/Sigmoid", "op": "Sigmoid", "input": ["model_43/tf.math.add_148/Add"], "attr": {"T": {"type": "DT_FLOAT"}}}, {"name": "model_43/tf.concat_39/concat", "op": "ConcatV2", "input": ["model_43/tf.math.add_149/Add", "model_43/tf.math.add_150/Add", "model_43/tf.concat_39/concat/axis"], "attr": {"T": {"type": "DT_FLOAT"}, "Tidx": {"type": "DT_INT32"}, "N": {"i": "2"}}}, {"name": "model_43/tf.math.multiply_464/Mul", "op": "Mul", "input": ["model_43/tf.math.add_148/Add", "model_43/tf.math.sigmoid_107/Sigmoid"], "attr": {"T": {"type": "DT_FLOAT"}}}, {"name": "model_43/tf.compat.v1.transpose_47/transpose", "op": "Transpose", "input": ["model_43/tf.concat_39/concat", "model_43/tf.compat.v1.transpose_47/transpose/perm"], "attr": {"Tperm": {"type": "DT_INT32"}, "T": {"type": "DT_FLOAT"}}}, {"name": "model_43/tf.strided_slice_34/StridedSlice", "op": "StridedSlice", "input": ["model_43/tf.math.multiply_464/Mul", "model_43/tf.strided_slice_34/ones_like/tensor", "model_43/tf.strided_slice_34/StridedSlice/end", "model_43/tf.strided_slice_34/ones_like"], "attr": {"ellipsis_mask": {"i": "0"}, "shrink_axis_mask": {"i": "0"}, "new_axis_mask": {"i": "0"}, "Index": {"type": "DT_INT64"}, "begin_mask": {"i": "15"}, "T": {"type": "DT_FLOAT"}, "end_mask": {"i": "7"}}}, {"name": "model_43/tf.strided_slice_35/StridedSlice", "op": "StridedSlice", "input": ["model_43/tf.math.multiply_464/Mul", "model_43/tf.strided_slice_35/ones_like/tensor", "model_43/tf.strided_slice_35/StridedSlice/end", "model_43/tf.strided_slice_35/ones_like"], "attr": {"begin_mask": {"i": "7"}, "ellipsis_mask": {"i": "0"}, "shrink_axis_mask": {"i": "0"}, "Index": {"type": "DT_INT64"}, "new_axis_mask": {"i": "0"}, "T": {"type": "DT_FLOAT"}, "end_mask": {"i": "7"}}}, {"name": "model_43/tf.reshape_20/Reshape", "op": "Reshape", "input": ["model_43/tf.compat.v1.transpose_47/transpose", "model_43/tf.reshape_20/Reshape/shape"], "attr": {"T": {"type": "DT_FLOAT"}, "Tshape": {"type": "DT_INT32"}}}, {"name": "model_43/tf.math.add_151/Add", "op": "_FusedConv2D", "input": ["model_43/tf.strided_slice_35/StridedSlice", "model_43/tf.nn.convolution_126/convolution/filter", "model_43/tf.math.add_151/Add/y"], "device": "/device:CPU:0", "attr": {"num_args": {"i": "1"}, "padding": {"s": "U0FNRQ=="}, "T": {"type": "DT_FLOAT"}, "explicit_paddings": {"list": {}}, "num_host_args": {"i": "0"}, "filter_format": {"s": "SFdJTw=="}, "leakyrelu_alpha": {"f": 0.2}, "epsilon": {"f": 0.0}, "data_format": {"s": "TkhXQw=="}, "TArgs": {"list": {"type": ["DT_FLOAT"]}}, "strides": {"list": {"i": ["1", "1", "1", "1"]}}, "dilations": {"list": {"i": ["1", "1", "1", "1"]}}, "use_cudnn_on_gpu": {"b": true}, "fused_ops": {"list": {"s": ["Qmlhc0FkZA=="]}}}}, {"name": "model_43/tf.math.sigmoid_108/Sigmoid", "op": "Sigmoid", "input": ["model_43/tf.math.add_151/Add"], "attr": {"T": {"type": "DT_FLOAT"}}}, {"name": "model_43/tf.math.multiply_468/Mul", "op": "Mul", "input": ["model_43/tf.math.add_151/Add", "model_43/tf.math.sigmoid_108/Sigmoid"], "attr": {"T": {"type": "DT_FLOAT"}}}, {"name": "model_43/tf.math.add_152/Add", "op": "_FusedConv2D", "input": ["model_43/tf.math.multiply_468/Mul", "model_43/tf.nn.convolution_127/convolution/filter", "model_43/tf.math.add_152/Add/y"], "device": "/device:CPU:0", "attr": {"use_cudnn_on_gpu": {"b": true}, "filter_format": {"s": "SFdJTw=="}, "leakyrelu_alpha": {"f": 0.2}, "strides": {"list": {"i": ["1", "1", "1", "1"]}}, "T": {"type": "DT_FLOAT"}, "epsilon": {"f": 0.0}, "data_format": {"s": "TkhXQw=="}, "explicit_paddings": {"list": {}}, "padding": {"s": "U0FNRQ=="}, "num_host_args": {"i": "0"}, "fused_ops": {"list": {"s": ["Qmlhc0FkZA=="]}}, "dilations": {"list": {"i": ["1", "1", "1", "1"]}}, "TArgs": {"list": {"type": ["DT_FLOAT"]}}, "num_args": {"i": "1"}}}, {"name": "model_43/tf.math.sigmoid_109/Sigmoid", "op": "Sigmoid", "input": ["model_43/tf.math.add_152/Add"], "attr": {"T": {"type": "DT_FLOAT"}}}, {"name": "model_43/tf.math.multiply_472/Mul", "op": "Mul", "input": ["model_43/tf.math.add_152/Add", "model_43/tf.math.sigmoid_109/Sigmoid"], "attr": {"T": {"type": "DT_FLOAT"}}}, {"name": "model_43/tf.concat_40/concat", "op": "ConcatV2", "input": ["model_43/tf.strided_slice_34/StridedSlice", "model_43/tf.strided_slice_35/StridedSlice", "model_43/tf.math.multiply_472/Mul", "model_43/tf.concat_40/concat/axis"], "attr": {"Tidx": {"type": "DT_INT32"}, "T": {"type": "DT_FLOAT"}, "N": {"i": "3"}}}, {"name": "model_43/tf.math.add_153/Add", "op": "_FusedConv2D", "input": ["model_43/tf.concat_40/concat", "model_43/tf.nn.convolution_128/convolution/filter", "model_43/tf.math.add_153/Add/y"], "device": "/device:CPU:0", "attr": {"explicit_paddings": {"list": {}}, "dilations": {"list": {"i": ["1", "1", "1", "1"]}}, "num_args": {"i": "1"}, "strides": {"list": {"i": ["1", "1", "1", "1"]}}, "data_format": {"s": "TkhXQw=="}, "TArgs": {"list": {"type": ["DT_FLOAT"]}}, "fused_ops": {"list": {"s": ["Qmlhc0FkZA=="]}}, "filter_format": {"s": "SFdJTw=="}, "epsilon": {"f": 0.0}, "leakyrelu_alpha": {"f": 0.2}, "num_host_args": {"i": "0"}, "use_cudnn_on_gpu": {"b": true}, "padding": {"s": "U0FNRQ=="}, "T": {"type": "DT_FLOAT"}}}, {"name": "model_43/tf.math.sigmoid_110/Sigmoid", "op": "Sigmoid", "input": ["model_43/tf.math.add_153/Add"], "attr": {"T": {"type": "DT_FLOAT"}}}, {"name": "model_43/tf.math.multiply_476/Mul", "op": "Mul", "input": ["model_43/tf.math.add_153/Add", "model_43/tf.math.sigmoid_110/Sigmoid"], "attr": {"T": {"type": "DT_FLOAT"}}}, {"name": "model_43/tf.math.add_154/Add", "op": "_FusedConv2D", "input": ["model_43/tf.math.multiply_476/Mul", "model_43/tf.nn.convolution_129/convolution/filter", "model_43/tf.math.add_154/Add/y"], "device": "/device:CPU:0", "attr": {"padding": {"s": "U0FNRQ=="}, "dilations": {"list": {"i": ["1", "1", "1", "1"]}}, "use_cudnn_on_gpu": {"b": true}, "leakyrelu_alpha": {"f": 0.2}, "epsilon": {"f": 0.0}, "T": {"type": "DT_FLOAT"}, "num_host_args": {"i": "0"}, "filter_format": {"s": "SFdJTw=="}, "num_args": {"i": "1"}, "strides": {"list": {"i": ["1", "1", "1", "1"]}}, "TArgs": {"list": {"type": ["DT_FLOAT"]}}, "data_format": {"s": "TkhXQw=="}, "explicit_paddings": {"list": {}}, "fused_ops": {"list": {"s": ["Qmlhc0FkZA=="]}}}}, {"name": "model_43/tf.math.add_155/Add", "op": "_FusedConv2D", "input": ["model_43/tf.math.multiply_476/Mul", "model_43/tf.nn.convolution_130/convolution/filter", "model_43/tf.math.add_155/Add/y"], "device": "/device:CPU:0", "attr": {"num_host_args": {"i": "0"}, "padding": {"s": "U0FNRQ=="}, "explicit_paddings": {"list": {}}, "epsilon": {"f": 0.0}, "num_args": {"i": "1"}, "fused_ops": {"list": {"s": ["Qmlhc0FkZA=="]}}, "data_format": {"s": "TkhXQw=="}, "strides": {"list": {"i": ["1", "1", "1", "1"]}}, "T": {"type": "DT_FLOAT"}, "leakyrelu_alpha": {"f": 0.2}, "filter_format": {"s": "SFdJTw=="}, "TArgs": {"list": {"type": ["DT_FLOAT"]}}, "use_cudnn_on_gpu": {"b": true}, "dilations": {"list": {"i": ["1", "1", "1", "1"]}}}}, {"name": "model_43/tf.math.sigmoid_111/Sigmoid", "op": "Sigmoid", "input": ["model_43/tf.math.add_154/Add"], "attr": {"T": {"type": "DT_FLOAT"}}}, {"name": "model_43/tf.math.sigmoid_112/Sigmoid", "op": "Sigmoid", "input": ["model_43/tf.math.add_155/Add"], "attr": {"T": {"type": "DT_FLOAT"}}}, {"name": "model_43/tf.math.multiply_480/Mul", "op": "Mul", "input": ["model_43/tf.math.add_154/Add", "model_43/tf.math.sigmoid_111/Sigmoid"], "attr": {"T": {"type": "DT_FLOAT"}}}, {"name": "model_43/tf.math.multiply_484/Mul", "op": "Mul", "input": ["model_43/tf.math.add_155/Add", "model_43/tf.math.sigmoid_112/Sigmoid"], "attr": {"T": {"type": "DT_FLOAT"}}}, {"name": "model_43/tf.math.add_156/Add", "op": "_FusedConv2D", "input": ["model_43/tf.math.multiply_480/Mul", "model_43/tf.nn.convolution_131/convolution/filter", "model_43/tf.math.add_156/Add/y"], "device": "/device:CPU:0", "attr": {"epsilon": {"f": 0.0}, "data_format": {"s": "TkhXQw=="}, "T": {"type": "DT_FLOAT"}, "dilations": {"list": {"i": ["1", "1", "1", "1"]}}, "explicit_paddings": {"list": {}}, "strides": {"list": {"i": ["1", "1", "1", "1"]}}, "use_cudnn_on_gpu": {"b": true}, "leakyrelu_alpha": {"f": 0.2}, "filter_format": {"s": "SFdJTw=="}, "fused_ops": {"list": {"s": ["Qmlhc0FkZA=="]}}, "TArgs": {"list": {"type": ["DT_FLOAT"]}}, "num_host_args": {"i": "0"}, "padding": {"s": "U0FNRQ=="}, "num_args": {"i": "1"}}}, {"name": "model_43/tf.math.add_157/Add", "op": "_FusedConv2D", "input": ["model_43/tf.math.multiply_484/Mul", "model_43/tf.nn.convolution_132/convolution/filter", "model_43/tf.math.add_157/Add/y"], "device": "/device:CPU:0", "attr": {"num_host_args": {"i": "0"}, "strides": {"list": {"i": ["1", "1", "1", "1"]}}, "filter_format": {"s": "SFdJTw=="}, "epsilon": {"f": 0.0}, "num_args": {"i": "1"}, "T": {"type": "DT_FLOAT"}, "fused_ops": {"list": {"s": ["Qmlhc0FkZA=="]}}, "use_cudnn_on_gpu": {"b": true}, "data_format": {"s": "TkhXQw=="}, "TArgs": {"list": {"type": ["DT_FLOAT"]}}, "padding": {"s": "U0FNRQ=="}, "leakyrelu_alpha": {"f": 0.2}, "explicit_paddings": {"list": {}}, "dilations": {"list": {"i": ["1", "1", "1", "1"]}}}}, {"name": "model_43/tf.math.sigmoid_113/Sigmoid", "op": "Sigmoid", "input": ["model_43/tf.math.add_156/Add"], "attr": {"T": {"type": "DT_FLOAT"}}}, {"name": "model_43/tf.math.sigmoid_114/Sigmoid", "op": "Sigmoid", "input": ["model_43/tf.math.add_157/Add"], "attr": {"T": {"type": "DT_FLOAT"}}}, {"name": "model_43/tf.math.multiply_488/Mul", "op": "Mul", "input": ["model_43/tf.math.add_156/Add", "model_43/tf.math.sigmoid_113/Sigmoid"], "attr": {"T": {"type": "DT_FLOAT"}}}, {"name": "model_43/tf.math.multiply_492/Mul", "op": "Mul", "input": ["model_43/tf.math.add_157/Add", "model_43/tf.math.sigmoid_114/Sigmoid"], "attr": {"T": {"type": "DT_FLOAT"}}}, {"name": "model_43/tf.math.add_158/Add", "op": "_FusedConv2D", "input": ["model_43/tf.math.multiply_488/Mul", "model_43/tf.nn.convolution_133/convolution/filter", "model_43/tf.math.add_158/Add/y"], "device": "/device:CPU:0", "attr": {"use_cudnn_on_gpu": {"b": true}, "explicit_paddings": {"list": {}}, "num_host_args": {"i": "0"}, "filter_format": {"s": "SFdJTw=="}, "fused_ops": {"list": {"s": ["Qmlhc0FkZA=="]}}, "T": {"type": "DT_FLOAT"}, "epsilon": {"f": 0.0}, "strides": {"list": {"i": ["1", "1", "1", "1"]}}, "TArgs": {"list": {"type": ["DT_FLOAT"]}}, "data_format": {"s": "TkhXQw=="}, "padding": {"s": "U0FNRQ=="}, "dilations": {"list": {"i": ["1", "1", "1", "1"]}}, "leakyrelu_alpha": {"f": 0.2}, "num_args": {"i": "1"}}}, {"name": "model_43/tf.math.add_159/Add", "op": "_FusedConv2D", "input": ["model_43/tf.math.multiply_492/Mul", "model_43/tf.nn.convolution_134/convolution/filter", "model_43/tf.math.add_159/Add/y"], "device": "/device:CPU:0", "attr": {"data_format": {"s": "TkhXQw=="}, "strides": {"list": {"i": ["1", "1", "1", "1"]}}, "num_host_args": {"i": "0"}, "filter_format": {"s": "SFdJTw=="}, "TArgs": {"list": {"type": ["DT_FLOAT"]}}, "num_args": {"i": "1"}, "leakyrelu_alpha": {"f": 0.2}, "explicit_paddings": {"list": {}}, "epsilon": {"f": 0.0}, "fused_ops": {"list": {"s": ["Qmlhc0FkZA=="]}}, "dilations": {"list": {"i": ["1", "1", "1", "1"]}}, "T": {"type": "DT_FLOAT"}, "padding": {"s": "U0FNRQ=="}, "use_cudnn_on_gpu": {"b": true}}}, {"name": "model_43/tf.concat_41/concat", "op": "ConcatV2", "input": ["model_43/tf.math.add_158/Add", "model_43/tf.math.add_159/Add", "model_43/tf.concat_41/concat/axis"], "attr": {"Tidx": {"type": "DT_INT32"}, "N": {"i": "2"}, "T": {"type": "DT_FLOAT"}}}, {"name": "model_43/tf.compat.v1.transpose_52/transpose", "op": "Transpose", "input": ["model_43/tf.concat_41/concat", "model_43/tf.compat.v1.transpose_52/transpose/perm"], "attr": {"T": {"type": "DT_FLOAT"}, "Tperm": {"type": "DT_INT32"}}}, {"name": "model_43/tf.reshape_23/Reshape", "op": "Reshape", "input": ["model_43/tf.compat.v1.transpose_52/transpose", "model_43/tf.reshape_23/Reshape/shape"], "attr": {"T": {"type": "DT_FLOAT"}, "Tshape": {"type": "DT_INT32"}}}, {"name": "model_43/tf.concat_42/concat", "op": "ConcatV2", "input": ["model_43/tf.reshape_17/Reshape", "model_43/tf.reshape_20/Reshape", "model_43/tf.reshape_23/Reshape", "model_43/tf.concat_42/concat/axis"], "attr": {"N": {"i": "3"}, "Tidx": {"type": "DT_INT32"}, "T": {"type": "DT_FLOAT"}}}, {"name": "model_43/tf.strided_slice_37/StridedSlice", "op": "StridedSlice", "input": ["model_43/tf.concat_42/concat", "model_43/tf.strided_slice_37/StridedSlice/begin", "model_43/tf.strided_slice_37/StridedSlice/end", "model_43/tf.strided_slice_37/StridedSlice/strides"], "attr": {"new_axis_mask": {"i": "0"}, "begin_mask": {"i": "5"}, "Index": {"type": "DT_INT64"}, "shrink_axis_mask": {"i": "0"}, "T": {"type": "DT_FLOAT"}, "ellipsis_mask": {"i": "0"}, "end_mask": {"i": "5"}}}, {"name": "model_43/tf.strided_slice_36/StridedSlice", "op": "StridedSlice", "input": ["model_43/tf.concat_42/concat", "model_43/tf.strided_slice_36/StridedSlice/begin", "model_43/tf.strided_slice_36/StridedSlice/end", "model_43/tf.strided_slice_36/StridedSlice/strides"], "attr": {"new_axis_mask": {"i": "0"}, "begin_mask": {"i": "7"}, "T": {"type": "DT_FLOAT"}, "end_mask": {"i": "5"}, "ellipsis_mask": {"i": "0"}, "shrink_axis_mask": {"i": "0"}, "Index": {"type": "DT_INT64"}}}, {"name": "model_43/tf.math.sigmoid_115/Sigmoid", "op": "Sigmoid", "input": ["model_43/tf.strided_slice_37/StridedSlice"], "attr": {"T": {"type": "DT_FLOAT"}}}, {"name": "model_43/tf.reshape_26/Reshape", "op": "Reshape", "input": ["model_43/tf.strided_slice_36/StridedSlice", "model_43/tf.reshape_26/Reshape/shape"], "attr": {"Tshape": {"type": "DT_INT32"}, "T": {"type": "DT_FLOAT"}}}, {"name": "model_43/tf.compat.v1.transpose_59/transpose", "op": "Transpose", "input": ["model_43/tf.reshape_26/Reshape", "model_43/tf.compat.v1.transpose_59/transpose/perm"], "attr": {"Tperm": {"type": "DT_INT32"}, "T": {"type": "DT_FLOAT"}}}, {"name": "model_43/tf.compat.v1.transpose_60/transpose", "op": "Transpose", "input": ["model_43/tf.compat.v1.transpose_59/transpose", "model_43/tf.compat.v1.transpose_60/transpose/perm"], "attr": {"Tperm": {"type": "DT_INT32"}, "T": {"type": "DT_FLOAT"}}}, {"name": "model_43/tf.nn.softmax_1//model.22/dfl/Softmax", "op": "Softmax", "input": ["model_43/tf.compat.v1.transpose_60/transpose"], "attr": {"T": {"type": "DT_FLOAT"}}}, {"name": "model_43/tf.nn.convolution_135/convolution", "op": "Conv2D", "input": ["model_43/tf.nn.softmax_1//model.22/dfl/Softmax", "model_43/tf.nn.convolution_135/convolution/filter"], "device": "/device:CPU:0", "attr": {"padding": {"s": "U0FNRQ=="}, "T": {"type": "DT_FLOAT"}, "data_format": {"s": "TkhXQw=="}, "dilations": {"list": {"i": ["1", "1", "1", "1"]}}, "explicit_paddings": {"list": {}}, "strides": {"list": {"i": ["1", "1", "1", "1"]}}, "use_cudnn_on_gpu": {"b": true}}}, {"name": "model_43/tf.compat.v1.transpose_65/transpose", "op": "Transpose", "input": ["model_43/tf.nn.convolution_135/convolution", "model_43/tf.compat.v1.transpose_65/transpose/perm"], "attr": {"Tperm": {"type": "DT_INT32"}, "T": {"type": "DT_FLOAT"}}}, {"name": "model_43/tf.reshape_29/Reshape", "op": "Reshape", "input": ["model_43/tf.compat.v1.transpose_65/transpose", "model_43/tf.reshape_29/Reshape/shape"], "attr": {"Tshape": {"type": "DT_INT32"}, "T": {"type": "DT_FLOAT"}}}, {"name": "model_43/tf.strided_slice_39/StridedSlice", "op": "StridedSlice", "input": ["model_43/tf.reshape_29/Reshape", "model_43/tf.strided_slice_39/ones_like/tensor", "model_43/tf.strided_slice_39/StridedSlice/end", "model_43/tf.strided_slice_39/ones_like"], "attr": {"begin_mask": {"i": "5"}, "T": {"type": "DT_FLOAT"}, "new_axis_mask": {"i": "0"}, "Index": {"type": "DT_INT64"}, "ellipsis_mask": {"i": "0"}, "shrink_axis_mask": {"i": "0"}, "end_mask": {"i": "5"}}}, {"name": "model_43/tf.strided_slice_38/StridedSlice", "op": "StridedSlice", "input": ["model_43/tf.reshape_29/Reshape", "model_43/tf.strided_slice_38/ones_like/tensor", "model_43/tf.strided_slice_38/StridedSlice/end", "model_43/tf.strided_slice_38/ones_like"], "attr": {"end_mask": {"i": "5"}, "ellipsis_mask": {"i": "0"}, "new_axis_mask": {"i": "0"}, "begin_mask": {"i": "7"}, "Index": {"type": "DT_INT64"}, "shrink_axis_mask": {"i": "0"}, "T": {"type": "DT_FLOAT"}}}, {"name": "model_43/tf.math.add_160/Add", "op": "AddV2", "input": ["model_43/28895", "model_43/tf.strided_slice_39/StridedSlice"], "attr": {"T": {"type": "DT_FLOAT"}}}, {"name": "model_43/tf.math.subtract_2/Sub", "op": "Sub", "input": ["model_43/28898", "model_43/tf.strided_slice_38/StridedSlice"], "attr": {"T": {"type": "DT_FLOAT"}}}, {"name": "model_43/tf.math.add_161/Add", "op": "AddV2", "input": ["model_43/tf.math.subtract_2/Sub", "model_43/tf.math.add_160/Add"], "attr": {"T": {"type": "DT_FLOAT"}}}, {"name": "model_43/tf.math.subtract_3/Sub", "op": "Sub", "input": ["model_43/tf.math.add_160/Add", "model_43/tf.math.subtract_2/Sub"], "attr": {"T": {"type": "DT_FLOAT"}}}, {"name": "model_43/tf.math.divide_1/truediv", "op": "Mul", "input": ["model_43/tf.math.add_161/Add", "ConstantFolding/model_43/tf.math.divide_1/truediv_recip"], "attr": {"T": {"type": "DT_FLOAT"}}}, {"name": "model_43/tf.concat_46/concat", "op": "ConcatV2", "input": ["model_43/tf.math.divide_1/truediv", "model_43/tf.math.subtract_3/Sub", "model_43/tf.concat_46/concat/axis"], "attr": {"N": {"i": "2"}, "T": {"type": "DT_FLOAT"}, "Tidx": {"type": "DT_INT32"}}}, {"name": "model_43/tf.math.multiply_505/Mul", "op": "Mul", "input": ["model_43/tf.concat_46/concat", "model_43/tf.math.multiply_505/Mul/y"], "attr": {"T": {"type": "DT_FLOAT"}}}, {"name": "model_43/output0/concat", "op": "ConcatV2", "input": ["model_43/tf.math.multiply_505/Mul", "model_43/tf.math.sigmoid_115/Sigmoid", "model_43/output0/concat/axis"], "attr": {"T": {"type": "DT_FLOAT"}, "N": {"i": "2"}, "Tidx": {"type": "DT_INT32"}}}, {"name": "Identity", "op": "Identity", "input": ["model_43/output0/concat"], "attr": {"T": {"type": "DT_FLOAT"}}}], "library": {}, "versions": {"producer": 1645}}, "weightsManifest": [{"paths": ["group1-shard1of4.bin", "group1-shard2of4.bin", "group1-shard3of4.bin", "group1-shard4of4.bin"], "weights": [{"name": "ConstantFolding/model_43/tf.math.divide_1/truediv_recip", "shape": [1, 1, 1], "dtype": "float32"}, {"name": "model_43/28895", "shape": [1, 2, 8400], "dtype": "float32"}, {"name": "model_43/tf.strided_slice_39/ones_like/tensor", "shape": [3], "dtype": "int32"}, {"name": "model_43/tf.strided_slice_39/StridedSlice/end", "shape": [3], "dtype": "int32"}, {"name": "model_43/tf.strided_slice_39/ones_like", "shape": [3], "dtype": "int32"}, {"name": "model_43/28898", "shape": [1, 2, 8400], "dtype": "float32"}, {"name": "model_43/tf.strided_slice_36/StridedSlice/begin", "shape": [3], "dtype": "int32"}, {"name": "model_43/tf.strided_slice_36/StridedSlice/end", "shape": [3], "dtype": "int32"}, {"name": "model_43/tf.strided_slice_36/StridedSlice/strides", "shape": [3], "dtype": "int32"}, {"name": "model_43/tf.reshape_26/Reshape/shape", "shape": [4], "dtype": "int32"}, {"name": "model_43/tf.compat.v1.transpose_59/transpose/perm", "shape": [4], "dtype": "int32"}, {"name": "model_43/tf.compat.v1.transpose_60/transpose/perm", "shape": [4], "dtype": "int32"}, {"name": "model_43/tf.nn.convolution_135/convolution/filter", "shape": [1, 1, 16, 1], "dtype": "float32"}, {"name": "model_43/tf.compat.v1.transpose_65/transpose/perm", "shape": [4], "dtype": "int32"}, {"name": "model_43/tf.reshape_29/Reshape/shape", "shape": [3], "dtype": "int32"}, {"name": "model_43/tf.strided_slice_38/ones_like/tensor", "shape": [3], "dtype": "int32"}, {"name": "model_43/tf.strided_slice_38/StridedSlice/end", "shape": [3], "dtype": "int32"}, {"name": "model_43/tf.strided_slice_38/ones_like", "shape": [3], "dtype": "int32"}, {"name": "model_43/tf.concat_46/concat/axis", "shape": [], "dtype": "int32"}, {"name": "model_43/tf.math.multiply_505/Mul/y", "shape": [1, 1, 8400], "dtype": "float32"}, {"name": "model_43/tf.nn.convolution_104/convolution/filter", "shape": [3, 3, 64, 64], "dtype": "float32"}, {"name": "model_43/tf.math.add_129/Add/y", "shape": [64], "dtype": "float32"}, {"name": "model_43/tf.nn.convolution_106/convolution/filter", "shape": [3, 3, 64, 64], "dtype": "float32"}, {"name": "model_43/tf.math.add_131/Add/y", "shape": [64], "dtype": "float32"}, {"name": "model_43/tf.nn.convolution_111/convolution/filter", "shape": [1, 1, 64, 64], "dtype": "float32"}, {"name": "model_43/tf.math.add_136/Add/y", "shape": [64], "dtype": "float32"}, {"name": "model_43/tf.nn.convolution_105/convolution/filter", "shape": [3, 3, 64, 80], "dtype": "float32"}, {"name": "model_43/tf.math.add_130/Add/y", "shape": [80], "dtype": "float32"}, {"name": "model_43/tf.nn.convolution_109/convolution/filter", "shape": [3, 3, 80, 80], "dtype": "float32"}, {"name": "model_43/tf.math.add_134/Add/y", "shape": [80], "dtype": "float32"}, {"name": "model_43/tf.nn.convolution_114/convolution/filter", "shape": [1, 1, 80, 80], "dtype": "float32"}, {"name": "model_43/tf.math.add_139/Add/y", "shape": [80], "dtype": "float32"}, {"name": "model_43/tf.concat_36/concat/axis", "shape": [], "dtype": "int32"}, {"name": "model_43/tf.compat.v1.transpose_42/transpose/perm", "shape": [4], "dtype": "int32"}, {"name": "model_43/tf.reshape_17/Reshape/shape", "shape": [3], "dtype": "int32"}, {"name": "model_43/tf.nn.convolution_119/convolution/filter", "shape": [3, 3, 128, 64], "dtype": "float32"}, {"name": "model_43/tf.math.add_144/Add/y", "shape": [64], "dtype": "float32"}, {"name": "model_43/tf.nn.convolution_121/convolution/filter", "shape": [3, 3, 64, 64], "dtype": "float32"}, {"name": "model_43/tf.math.add_146/Add/y", "shape": [64], "dtype": "float32"}, {"name": "model_43/tf.nn.convolution_124/convolution/filter", "shape": [1, 1, 64, 64], "dtype": "float32"}, {"name": "model_43/tf.math.add_149/Add/y", "shape": [64], "dtype": "float32"}, {"name": "model_43/tf.nn.convolution_120/convolution/filter", "shape": [3, 3, 128, 80], "dtype": "float32"}, {"name": "model_43/tf.math.add_145/Add/y", "shape": [80], "dtype": "float32"}, {"name": "model_43/tf.nn.convolution_122/convolution/filter", "shape": [3, 3, 80, 80], "dtype": "float32"}, {"name": "model_43/tf.math.add_147/Add/y", "shape": [80], "dtype": "float32"}, {"name": "model_43/tf.nn.convolution_125/convolution/filter", "shape": [1, 1, 80, 80], "dtype": "float32"}, {"name": "model_43/tf.math.add_150/Add/y", "shape": [80], "dtype": "float32"}, {"name": "model_43/tf.concat_39/concat/axis", "shape": [], "dtype": "int32"}, {"name": "model_43/tf.compat.v1.transpose_47/transpose/perm", "shape": [4], "dtype": "int32"}, {"name": "model_43/tf.reshape_20/Reshape/shape", "shape": [3], "dtype": "int32"}, {"name": "model_43/tf.nn.convolution_129/convolution/filter", "shape": [3, 3, 256, 64], "dtype": "float32"}, {"name": "model_43/tf.math.add_154/Add/y", "shape": [64], "dtype": "float32"}, {"name": "model_43/tf.nn.convolution_131/convolution/filter", "shape": [3, 3, 64, 64], "dtype": "float32"}, {"name": "model_43/tf.math.add_156/Add/y", "shape": [64], "dtype": "float32"}, {"name": "model_43/tf.nn.convolution_133/convolution/filter", "shape": [1, 1, 64, 64], "dtype": "float32"}, {"name": "model_43/tf.math.add_158/Add/y", "shape": [64], "dtype": "float32"}, {"name": "model_43/tf.strided_slice_34/ones_like/tensor", "shape": [4], "dtype": "int32"}, {"name": "model_43/tf.strided_slice_34/StridedSlice/end", "shape": [4], "dtype": "int32"}, {"name": "model_43/tf.strided_slice_34/ones_like", "shape": [4], "dtype": "int32"}, {"name": "model_43/tf.strided_slice_32/ones_like/tensor", "shape": [4], "dtype": "int32"}, {"name": "model_43/tf.strided_slice_32/StridedSlice/end", "shape": [4], "dtype": "int32"}, {"name": "model_43/tf.strided_slice_32/ones_like", "shape": [4], "dtype": "int32"}, {"name": "model_43/tf.strided_slice_30/ones_like/tensor", "shape": [4], "dtype": "int32"}, {"name": "model_43/tf.strided_slice_30/StridedSlice/end", "shape": [4], "dtype": "int32"}, {"name": "model_43/tf.strided_slice_30/ones_like", "shape": [4], "dtype": "int32"}, {"name": "model_43/tf.image.resize_3/resize/size", "shape": [2], "dtype": "int32"}, {"name": "model_43/tf.concat_31/concat/axis", "shape": [], "dtype": "int32"}, {"name": "model_43/tf.nn.convolution_99/convolution/filter", "shape": [1, 1, 192, 64], "dtype": "float32"}, {"name": "model_43/tf.math.add_124/Add/y", "shape": [64], "dtype": "float32"}, {"name": "model_43/tf.strided_slice_31/ones_like/tensor", "shape": [4], "dtype": "int32"}, {"name": "model_43/tf.strided_slice_31/StridedSlice/end", "shape": [4], "dtype": "int32"}, {"name": "model_43/tf.strided_slice_31/ones_like", "shape": [4], "dtype": "int32"}, {"name": "model_43/tf.nn.convolution_100/convolution/filter", "shape": [3, 3, 32, 32], "dtype": "float32"}, {"name": "model_43/tf.math.add_125/Add/y", "shape": [32], "dtype": "float32"}, {"name": "model_43/tf.nn.convolution_101/convolution/filter", "shape": [3, 3, 32, 32], "dtype": "float32"}, {"name": "model_43/tf.math.add_126/Add/y", "shape": [32], "dtype": "float32"}, {"name": "model_43/tf.concat_32/concat/axis", "shape": [], "dtype": "int32"}, {"name": "model_43/tf.nn.convolution_102/convolution/filter", "shape": [1, 1, 96, 64], "dtype": "float32"}, {"name": "model_43/tf.math.add_127/Add/y", "shape": [64], "dtype": "float32"}, {"name": "model_43/tf.compat.v1.pad_12/Pad/paddings", "shape": [4, 2], "dtype": "int32"}, {"name": "model_43/tf.nn.convolution_103/convolution/filter", "shape": [3, 3, 64, 64], "dtype": "float32"}, {"name": "model_43/tf.math.add_128/Add/y", "shape": [64], "dtype": "float32"}, {"name": "model_43/tf.strided_slice_28/ones_like/tensor", "shape": [4], "dtype": "int32"}, {"name": "model_43/tf.strided_slice_28/StridedSlice/end", "shape": [4], "dtype": "int32"}, {"name": "model_43/tf.strided_slice_28/ones_like", "shape": [4], "dtype": "int32"}, {"name": "model_43/tf.image.resize_2/resize/size", "shape": [2], "dtype": "int32"}, {"name": "model_43/tf.concat_29/concat/axis", "shape": [], "dtype": "int32"}, {"name": "model_43/tf.nn.convolution_95/convolution/filter", "shape": [1, 1, 384, 128], "dtype": "float32"}, {"name": "model_43/tf.math.add_120/Add/y", "shape": [128], "dtype": "float32"}, {"name": "model_43/tf.strided_slice_29/ones_like/tensor", "shape": [4], "dtype": "int32"}, {"name": "model_43/tf.strided_slice_29/StridedSlice/end", "shape": [4], "dtype": "int32"}, {"name": "model_43/tf.strided_slice_29/ones_like", "shape": [4], "dtype": "int32"}, {"name": "model_43/tf.nn.convolution_96/convolution/filter", "shape": [3, 3, 64, 64], "dtype": "float32"}, {"name": "model_43/tf.math.add_121/Add/y", "shape": [64], "dtype": "float32"}, {"name": "model_43/tf.nn.convolution_97/convolution/filter", "shape": [3, 3, 64, 64], "dtype": "float32"}, {"name": "model_43/tf.math.add_122/Add/y", "shape": [64], "dtype": "float32"}, {"name": "model_43/tf.concat_30/concat/axis", "shape": [], "dtype": "int32"}, {"name": "model_43/tf.nn.convolution_98/convolution/filter", "shape": [1, 1, 192, 128], "dtype": "float32"}, {"name": "model_43/tf.math.add_123/Add/y", "shape": [128], "dtype": "float32"}, {"name": "model_43/tf.concat_33/concat/axis", "shape": [], "dtype": "int32"}, {"name": "model_43/tf.nn.convolution_110/convolution/filter", "shape": [1, 1, 192, 128], "dtype": "float32"}, {"name": "model_43/tf.math.add_135/Add/y", "shape": [128], "dtype": "float32"}, {"name": "model_43/tf.strided_slice_33/ones_like/tensor", "shape": [4], "dtype": "int32"}, {"name": "model_43/tf.strided_slice_33/StridedSlice/end", "shape": [4], "dtype": "int32"}, {"name": "model_43/tf.strided_slice_33/ones_like", "shape": [4], "dtype": "int32"}, {"name": "model_43/tf.nn.convolution_115/convolution/filter", "shape": [3, 3, 64, 64], "dtype": "float32"}, {"name": "model_43/tf.math.add_140/Add/y", "shape": [64], "dtype": "float32"}, {"name": "model_43/tf.nn.convolution_116/convolution/filter", "shape": [3, 3, 64, 64], "dtype": "float32"}, {"name": "model_43/tf.math.add_141/Add/y", "shape": [64], "dtype": "float32"}, {"name": "model_43/tf.concat_37/concat/axis", "shape": [], "dtype": "int32"}, {"name": "model_43/tf.nn.convolution_117/convolution/filter", "shape": [1, 1, 192, 128], "dtype": "float32"}, {"name": "model_43/tf.math.add_142/Add/y", "shape": [128], "dtype": "float32"}, {"name": "model_43/tf.compat.v1.pad_13/Pad/paddings", "shape": [4, 2], "dtype": "int32"}, {"name": "model_43/tf.nn.convolution_118/convolution/filter", "shape": [3, 3, 128, 128], "dtype": "float32"}, {"name": "model_43/tf.math.add_143/Add/y", "shape": [128], "dtype": "float32"}, {"name": "model_43/tf.strided_slice_26/ones_like/tensor", "shape": [4], "dtype": "int32"}, {"name": "model_43/tf.strided_slice_26/StridedSlice/end", "shape": [4], "dtype": "int32"}, {"name": "model_43/tf.strided_slice_26/ones_like", "shape": [4], "dtype": "int32"}, {"name": "model_43/tf.strided_slice_24/ones_like/tensor", "shape": [4], "dtype": "int32"}, {"name": "model_43/tf.strided_slice_24/StridedSlice/end", "shape": [4], "dtype": "int32"}, {"name": "model_43/tf.strided_slice_24/ones_like", "shape": [4], "dtype": "int32"}, {"name": "model_43/tf.strided_slice_22/ones_like/tensor", "shape": [4], "dtype": "int32"}, {"name": "model_43/tf.strided_slice_22/StridedSlice/end", "shape": [4], "dtype": "int32"}, {"name": "model_43/tf.strided_slice_22/ones_like", "shape": [4], "dtype": "int32"}, {"name": "model_43/tf.strided_slice_20/ones_like/tensor", "shape": [4], "dtype": "int32"}, {"name": "model_43/tf.strided_slice_20/StridedSlice/end", "shape": [4], "dtype": "int32"}, {"name": "model_43/tf.strided_slice_20/ones_like", "shape": [4], "dtype": "int32"}, {"name": "model_43/tf.compat.v1.pad_7/Pad/paddings", "shape": [4, 2], "dtype": "int32"}, {"name": "model_43/tf.nn.convolution_68/convolution/filter", "shape": [3, 3, 3, 16], "dtype": "float32"}, {"name": "model_43/tf.math.add_81/Add/y", "shape": [16], "dtype": "float32"}, {"name": "model_43/tf.compat.v1.pad_8/Pad/paddings", "shape": [4, 2], "dtype": "int32"}, {"name": "model_43/tf.nn.convolution_69/convolution/filter", "shape": [3, 3, 16, 32], "dtype": "float32"}, {"name": "model_43/tf.math.add_82/Add/y", "shape": [32], "dtype": "float32"}, {"name": "model_43/tf.nn.convolution_70/convolution/filter", "shape": [1, 1, 32, 32], "dtype": "float32"}, {"name": "model_43/tf.math.add_83/Add/y", "shape": [32], "dtype": "float32"}, {"name": "model_43/tf.strided_slice_21/ones_like/tensor", "shape": [4], "dtype": "int32"}, {"name": "model_43/tf.strided_slice_21/StridedSlice/end", "shape": [4], "dtype": "int32"}, {"name": "model_43/tf.strided_slice_21/ones_like", "shape": [4], "dtype": "int32"}, {"name": "model_43/tf.nn.convolution_71/convolution/filter", "shape": [3, 3, 16, 16], "dtype": "float32"}, {"name": "model_43/tf.math.add_84/Add/y", "shape": [16], "dtype": "float32"}, {"name": "model_43/tf.nn.convolution_72/convolution/filter", "shape": [3, 3, 16, 16], "dtype": "float32"}, {"name": "model_43/tf.math.add_85/Add/y", "shape": [16], "dtype": "float32"}, {"name": "model_43/tf.concat_24/concat/axis", "shape": [], "dtype": "int32"}, {"name": "model_43/tf.nn.convolution_73/convolution/filter", "shape": [1, 1, 48, 32], "dtype": "float32"}, {"name": "model_43/tf.math.add_88/Add/y", "shape": [32], "dtype": "float32"}, {"name": "model_43/tf.compat.v1.pad_9/Pad/paddings", "shape": [4, 2], "dtype": "int32"}, {"name": "model_43/tf.nn.convolution_74/convolution/filter", "shape": [3, 3, 32, 64], "dtype": "float32"}, {"name": "model_43/tf.math.add_89/Add/y", "shape": [64], "dtype": "float32"}, {"name": "model_43/tf.nn.convolution_75/convolution/filter", "shape": [1, 1, 64, 64], "dtype": "float32"}, {"name": "model_43/tf.math.add_90/Add/y", "shape": [64], "dtype": "float32"}, {"name": "model_43/tf.strided_slice_23/ones_like/tensor", "shape": [4], "dtype": "int32"}, {"name": "model_43/tf.strided_slice_23/StridedSlice/end", "shape": [4], "dtype": "int32"}, {"name": "model_43/tf.strided_slice_23/ones_like", "shape": [4], "dtype": "int32"}, {"name": "model_43/tf.nn.convolution_76/convolution/filter", "shape": [3, 3, 32, 32], "dtype": "float32"}, {"name": "model_43/tf.math.add_91/Add/y", "shape": [32], "dtype": "float32"}, {"name": "model_43/tf.nn.convolution_77/convolution/filter", "shape": [3, 3, 32, 32], "dtype": "float32"}, {"name": "model_43/tf.math.add_92/Add/y", "shape": [32], "dtype": "float32"}, {"name": "model_43/tf.nn.convolution_78/convolution/filter", "shape": [3, 3, 32, 32], "dtype": "float32"}, {"name": "model_43/tf.math.add_95/Add/y", "shape": [32], "dtype": "float32"}, {"name": "model_43/tf.nn.convolution_79/convolution/filter", "shape": [3, 3, 32, 32], "dtype": "float32"}, {"name": "model_43/tf.math.add_96/Add/y", "shape": [32], "dtype": "float32"}, {"name": "model_43/tf.concat_25/concat/axis", "shape": [], "dtype": "int32"}, {"name": "model_43/tf.nn.convolution_80/convolution/filter", "shape": [1, 1, 128, 64], "dtype": "float32"}, {"name": "model_43/tf.math.add_99/Add/y", "shape": [64], "dtype": "float32"}, {"name": "model_43/tf.compat.v1.pad_10/Pad/paddings", "shape": [4, 2], "dtype": "int32"}, {"name": "model_43/tf.nn.convolution_81/convolution/filter", "shape": [3, 3, 64, 128], "dtype": "float32"}, {"name": "model_43/tf.math.add_100/Add/y", "shape": [128], "dtype": "float32"}, {"name": "model_43/tf.nn.convolution_82/convolution/filter", "shape": [1, 1, 128, 128], "dtype": "float32"}, {"name": "model_43/tf.math.add_101/Add/y", "shape": [128], "dtype": "float32"}, {"name": "model_43/tf.strided_slice_25/ones_like/tensor", "shape": [4], "dtype": "int32"}, {"name": "model_43/tf.strided_slice_25/StridedSlice/end", "shape": [4], "dtype": "int32"}, {"name": "model_43/tf.strided_slice_25/ones_like", "shape": [4], "dtype": "int32"}, {"name": "model_43/tf.nn.convolution_83/convolution/filter", "shape": [3, 3, 64, 64], "dtype": "float32"}, {"name": "model_43/tf.math.add_102/Add/y", "shape": [64], "dtype": "float32"}, {"name": "model_43/tf.nn.convolution_84/convolution/filter", "shape": [3, 3, 64, 64], "dtype": "float32"}, {"name": "model_43/tf.math.add_103/Add/y", "shape": [64], "dtype": "float32"}, {"name": "model_43/tf.nn.convolution_85/convolution/filter", "shape": [3, 3, 64, 64], "dtype": "float32"}, {"name": "model_43/tf.math.add_106/Add/y", "shape": [64], "dtype": "float32"}, {"name": "model_43/tf.nn.convolution_86/convolution/filter", "shape": [3, 3, 64, 64], "dtype": "float32"}, {"name": "model_43/tf.math.add_107/Add/y", "shape": [64], "dtype": "float32"}, {"name": "model_43/tf.concat_26/concat/axis", "shape": [], "dtype": "int32"}, {"name": "model_43/tf.nn.convolution_87/convolution/filter", "shape": [1, 1, 256, 128], "dtype": "float32"}, {"name": "model_43/tf.math.add_110/Add/y", "shape": [128], "dtype": "float32"}, {"name": "model_43/tf.compat.v1.pad_11/Pad/paddings", "shape": [4, 2], "dtype": "int32"}, {"name": "model_43/tf.nn.convolution_88/convolution/filter", "shape": [3, 3, 128, 256], "dtype": "float32"}, {"name": "model_43/tf.math.add_111/Add/y", "shape": [256], "dtype": "float32"}, {"name": "model_43/tf.nn.convolution_89/convolution/filter", "shape": [1, 1, 256, 256], "dtype": "float32"}, {"name": "model_43/tf.math.add_112/Add/y", "shape": [256], "dtype": "float32"}, {"name": "model_43/tf.strided_slice_27/ones_like/tensor", "shape": [4], "dtype": "int32"}, {"name": "model_43/tf.strided_slice_27/StridedSlice/end", "shape": [4], "dtype": "int32"}, {"name": "model_43/tf.strided_slice_27/ones_like", "shape": [4], "dtype": "int32"}, {"name": "model_43/tf.nn.convolution_90/convolution/filter", "shape": [3, 3, 128, 128], "dtype": "float32"}, {"name": "model_43/tf.math.add_113/Add/y", "shape": [128], "dtype": "float32"}, {"name": "model_43/tf.nn.convolution_91/convolution/filter", "shape": [3, 3, 128, 128], "dtype": "float32"}, {"name": "model_43/tf.math.add_114/Add/y", "shape": [128], "dtype": "float32"}, {"name": "model_43/tf.concat_27/concat/axis", "shape": [], "dtype": "int32"}, {"name": "model_43/tf.nn.convolution_92/convolution/filter", "shape": [1, 1, 384, 256], "dtype": "float32"}, {"name": "model_43/tf.math.add_117/Add/y", "shape": [256], "dtype": "float32"}, {"name": "model_43/tf.nn.convolution_93/convolution/filter", "shape": [1, 1, 256, 128], "dtype": "float32"}, {"name": "model_43/tf.math.add_118/Add/y", "shape": [128], "dtype": "float32"}, {"name": "model_43/tf.concat_28/concat/axis", "shape": [], "dtype": "int32"}, {"name": "model_43/tf.nn.convolution_94/convolution/filter", "shape": [1, 1, 512, 256], "dtype": "float32"}, {"name": "model_43/tf.math.add_119/Add/y", "shape": [256], "dtype": "float32"}, {"name": "model_43/tf.concat_38/concat/axis", "shape": [], "dtype": "int32"}, {"name": "model_43/tf.nn.convolution_123/convolution/filter", "shape": [1, 1, 384, 256], "dtype": "float32"}, {"name": "model_43/tf.math.add_148/Add/y", "shape": [256], "dtype": "float32"}, {"name": "model_43/tf.strided_slice_35/ones_like/tensor", "shape": [4], "dtype": "int32"}, {"name": "model_43/tf.strided_slice_35/StridedSlice/end", "shape": [4], "dtype": "int32"}, {"name": "model_43/tf.strided_slice_35/ones_like", "shape": [4], "dtype": "int32"}, {"name": "model_43/tf.nn.convolution_126/convolution/filter", "shape": [3, 3, 128, 128], "dtype": "float32"}, {"name": "model_43/tf.math.add_151/Add/y", "shape": [128], "dtype": "float32"}, {"name": "model_43/tf.nn.convolution_127/convolution/filter", "shape": [3, 3, 128, 128], "dtype": "float32"}, {"name": "model_43/tf.math.add_152/Add/y", "shape": [128], "dtype": "float32"}, {"name": "model_43/tf.concat_40/concat/axis", "shape": [], "dtype": "int32"}, {"name": "model_43/tf.nn.convolution_128/convolution/filter", "shape": [1, 1, 384, 256], "dtype": "float32"}, {"name": "model_43/tf.math.add_153/Add/y", "shape": [256], "dtype": "float32"}, {"name": "model_43/tf.nn.convolution_130/convolution/filter", "shape": [3, 3, 256, 80], "dtype": "float32"}, {"name": "model_43/tf.math.add_155/Add/y", "shape": [80], "dtype": "float32"}, {"name": "model_43/tf.nn.convolution_132/convolution/filter", "shape": [3, 3, 80, 80], "dtype": "float32"}, {"name": "model_43/tf.math.add_157/Add/y", "shape": [80], "dtype": "float32"}, {"name": "model_43/tf.nn.convolution_134/convolution/filter", "shape": [1, 1, 80, 80], "dtype": "float32"}, {"name": "model_43/tf.math.add_159/Add/y", "shape": [80], "dtype": "float32"}, {"name": "model_43/tf.concat_41/concat/axis", "shape": [], "dtype": "int32"}, {"name": "model_43/tf.compat.v1.transpose_52/transpose/perm", "shape": [4], "dtype": "int32"}, {"name": "model_43/tf.reshape_23/Reshape/shape", "shape": [3], "dtype": "int32"}, {"name": "model_43/tf.concat_42/concat/axis", "shape": [], "dtype": "int32"}, {"name": "model_43/tf.strided_slice_37/StridedSlice/begin", "shape": [3], "dtype": "int32"}, {"name": "model_43/tf.strided_slice_37/StridedSlice/end", "shape": [3], "dtype": "int32"}, {"name": "model_43/tf.strided_slice_37/StridedSlice/strides", "shape": [3], "dtype": "int32"}, {"name": "model_43/output0/concat/axis", "shape": [], "dtype": "int32"}]}]}